data/models/rl_aca_20250316_215224.pt (torch, 23198 bytes, 5 tensors)

fc1.weight f4 [64, 11]
0.17825475 -0.040809155 -0.28309688 0.08103156 -0.03496337 -0.2631427 0.16849715 0.052402556
-0.26861674 0.13413435 0.059366643 -0.10175252 -0.11647749 0.2915911 0.03320533 -0.18146393
0.034113735 -0.21887358 -0.1519746 -0.16374816 0.006986469 0.018622369 -0.1221904 -0.13020442
0.10164115 -0.018298477 -0.011175334 0.06568056 0.024275273 0.26924127 -0.15393505 -0.22040644
0.28476954 -0.047125876 -0.18877764 0.03634718 0.06670785 0.113829345 0.29533082 -0.052192435
0.047086746 -0.15526834 -0.08982806 0.032900125 0.10340899 -0.09622504 0.12566489 0.28992414
0.046411723 0.17707354 0.22842586 0.12072718 -0.24526343 0.2635721 -0.08056185 0.30096853
0.11750215 0.008273125 0.076547444 0.18455172 0.036635995 0.09629172 0.24983394 -0.09974101
0.266464 0.048033446 0.16092166 0.24500084 0.08081958 -0.037241668 -0.0051277876 0.29464138
0.05007994 0.046584904 0.05597216 -0.07745972 0.1353088 0.18856874 -0.18416369 0.079995036
-0.033590883 -0.026848942 -0.18072113 -0.07087138 -0.10397513 -0.016634434 -0.14339606 -0.29093775
0.17296818 0.18464872 -0.01012826 0.1497688 0.1731709 0.077201515 -0.26974297 0.068502486
0.21071315 0.21600401 0.13616943 0.28671813 0.023314536 -0.26883173 0.22414643 0.26731747
-0.27025768 0.25199032 0.2518201 -0.14348261 -0.29675034 -0.15663986 -0.11743598 0.054897726
-0.23520899 0.1663594 -0.06969598 -0.15877947 0.026539624 0.29516178 -0.26083806 -0.27525333
-0.20327552 -0.16520873 0.07408598 0.20423722 -0.2956451 0.11084908 0.13038144 0.14792791
-0.0717766 -0.10977171 -0.030198902 0.09696719 0.020273924 0.021556526 0.17191768 -0.2809925
-0.1561767 0.052947134 0.19067007 -0.26400754 -0.2656979 -0.1683536 -0.068569705 -0.26744023
0.12317142 -0.19442403 -0.1939742 0.235924 0.26435518 0.104356885 -0.08721101 0.07017672
-0.076178715 0.20945787 0.16025174 0.17304376 -0.23368955 0.10841268 -0.2321597 -0.06557299
-0.08780044 -0.19189924 -0.043923795 0.27340376 0.13473392 -0.090033576 0.298293 -0.1985276
-0.031374067 -0.27820915 0.19226322 -0.22288963 0.038544536 -0.05312343 0.09320098 -0.2074684
0.27876723 -0.26296425 0.19939226 0.025172293 0.0710502 0.0286268 0.052815557 0.21391863
0.26373833 -0.25853717 -0.11231749 0.26889843 -0.23476046 0.05360821 -0.26376784 0.163593
0.13078466 -0.062867716 -0.2612552 -0.2540942 0.1959123 -0.16445619 -0.17187496 0.04851246
0.15418479 0.1252892 -0.16202731 -0.010548621 -0.027543575 -0.26611638 -0.27795404 -0.17283787
-0.2832417 -0.016507447 0.24615347 0.16120341 -0.13488075 -0.118000135 0.09826577 -0.26832032
-0.021277577 0.09202829 -0.0768273 -0.117217526 -0.27843606 0.030896991 0.19126442 -0.048455894
0.15503502 0.05736789 0.07669887 -0.14006843 0.13211986 0.1629146 -0.14626083 0.29970872
0.01085943 0.20965856 0.055455327 -0.029456377 -0.17450498 0.11866936 -0.21219195 -0.03254077
-0.03896776 0.1127685 -0.1220562 0.17756054 0.14123532 0.13656726 -0.069584295 -0.2700998
-0.0077534616 -0.08860725 0.2143032 0.02073884 0.06348723 -0.21205339 0.11096534 -0.118420094
00000000: 6a88 363e 8027 27bd 13f2 90be e0f3 a53d
00000010: c035 0fbd a4ba 86be 848a 2c3e 10a4 563d
00000020: 2288 89be 845a 093e 702a 733d a063 d0bd
00000030: c08b eebd 6e4b 953e 5002 083d aed1 39be
00000040: d8ba 0b3d 6520 60be 3b9f 1bbe 99ad 27be
00000050: c0ee e43b f08d 983c f63e fabd 4f54 05be
00000060: 3c29 d03d b0e6 95bc c018 37bc 8883 863d
00000070: f0dc c63c fed9 893e 26a1 1dbe 3ab2 61be
00000080: 50cd 913e 1007 41bd ed4e 41be c8e0 143d
00000090: 209e 883d 5c1f e93d 9a35 973e bcc7 55bd
000000a0: 08de 403d aafe 1ebe c6f7 b7bd 48c2 063d
000000b0: 18c8 d33d a211 c5bd 4cae 003e f070 943e
000000c0: 381a 3e3d c452 353e 78e8 693e d03f f73d
000000d0: 5626 7bbe ecf2 863e 9cfd a4bd 8c18 9a3e
000000e0: f8a4 f03d 008c 073c e8c4 9c3d 20fb 3c3e
000000f0: a00f 163d 9834 c53d 78d4 7f3e 0445 ccbd
00000100: f86d 883e b8be 443d a6c8 243e 80e1 7a3e
00000110: bc84 a53d b88a 18bd 0007 a8bb 3cdb 963e
00000120: a020 4d3d d0cf 3e3d 1043 653d 34a3 9ebd
00000130: 648e 0a3e 2a18 413e 6895 3cbe 70d4 a33d
00000140: 9896 09bd 50f2 dbbc f60e 39be 0425 91bd
00000150: eaf0 d4bd f044 88bc 6bd6 12be cbf5 94be
00000160: 921e 313e 8e14 3d3e 00f1 25bc fe5c 193e
00000170: b653 313e d41b 9e3d c01b 8abe 084b 8c3d
00000180: 30c5 573e 2830 5d3e 0070 0b3e b8cc 923e
00000190: 20fe be3c 50a4 89be a486 653e d6dd 883e
000001a0: 375f 8abe e004 813e 90ee 803e 1bed 12be
000001b0: a9ef 97be 3366 20be 4682 f0bd 70dc 603d
000001c0: a0da 70be 1e5a 2a3e c4bc 8ebd 1697 22be
000001d0: a069 d93c 721f 973e 918c 85be 01ee 8cbe
000001e0: 7527 50be 7a2c 29be 64ba 973d 9023 513e
000001f0: cb5e 97be d804 e33d b682 053e 6a7a 173e
00000200: 9cff 92bd fecf e0bd b063 f7bc bc96 c63d
00000210: 8015 a63c 5097 b03c 300b 303e 40de 8fbe
00000220: c9ec 1fbe 18df 583d 043f 433e ff2b 87be
00000230: 8e09 88be e364 2cbe 466e 8cbd eded 88be
00000240: 4c41 fc3d 1817 47be 2ca1 46be 1096 713e
00000250: 9059 873e 10b9 d53d b09b b2bd d0b8 8f3d
00000260: 9603 9cbd 207c 563e 0819 243e 6232 313e
00000270: 504c 6fbe 7807 de3d 46bb 6dbe 224b 86bd
00000280: b8d0 b3bd 3c81 44be 70e9 33bd 94fb 8b3e
00000290: b0f7 093e 8663 b8bd dcb9 983e d24a 4bbe
000002a0: 1882 00bd 6e71 8ebe a6e0 443e 2e3d 64be
000002b0: e0e0 1d3d f497 59bd 28e0 be3d 9972 54be
000002c0: 94ba 8e3e 40a3 86be 7c2d 4c3e 2036 ce3c
000002d0: c482 913d c082 ea3c 2055 583d 7c0d 5b3e
000002e0: b608 873e fc5e 84be b606 e6bd 0ead 893e
000002f0: 0c65 70be 4894 5b3d 940c 87be ec84 273e
00000300: 6aec 053e cac0 80bd 3ec3 85be a318 82be
00000310: 3c9d 483e 3467 28be fdff 2fbe 00b5 463d
00000320: 9ee2 1d3e d04b 003e 7dea 25be 20d4 2cbc
00000330: 10a3 e1bc 6840 88be fe4f 8ebe 69fc 30be
00000340: 0e05 91be a03a 87bc a80f 7c3e 8212 253e
00000350: 2e1e 0abe 0eaa f1bd 903f c93d 4861 89be
00000360: 504e aebc 5479 bc3d a257 9dbd be0f f0bd
00000370: 2c8f 8ebe b01b fd3c d2da 433e b079 46bd
00000380: 80c1 1e3e 98fa 6a3d 4c14 9d3d 196e 0fbe
00000390: 6e4a 073e 16d3 263e 66c5 15be 6c73 993e
000003a0: c0eb 313c bcb0 563e 2025 633d 804e f1bc
000003b0: 6fb1 32be ec08 f33d d948 59be 7849 05bd
000003c0: a89c 1fbd 2cf3 e63d 9af8 f9bd 6ed2 353e
000003d0: fe9f 103e 4ad8 0b3e 3682 8ebd 854a 8abe
000003e0: c010 febb b877 b5bd 4c72 5b3e 80e4 a93c
000003f0: 9805 823d 8624 59be cc41 e33d 3c86 f2bd

fc1.bias f4 [64]
0.050730437 0.15574908 -0.024072528 0.29065126 -0.21194813 -0.25028947 -0.14379673 -0.08987187
0.05129257 -0.27119252 0.03926009 0.031909466 0.08660886 0.27894217 -0.09673323 -0.1582124
-0.0520339 -0.2389901 0.20025098 -0.23473883 -0.2989039 0.0046001375 -0.18680292 0.2707435
-0.18598339 0.16104671 -0.07368499 -0.2492884 0.28104413 0.17097396 -0.15701953 -0.26042327
0.19187391 -0.11256622 0.08906415 0.12340352 -0.15296839 0.09332386 0.094552934 -0.075100675
-0.076024845 0.14477813 0.07538748 0.019670576 0.019125998 -0.06263988 -0.14786255 -0.2217977
-0.09054066 -0.27132285 0.25967377 0.07660326 0.24137276 -0.029322147 0.1813116 0.16733557
0.25406146 0.17377362 -0.2623451 0.052939564 0.18590194 0.23639661 -0.1970984 -0.06664629
00000000: b8ca 4f3d b07c 1f3e c033 c5bc 3ed0 943e
00000010: ee08 59be f125 80be 733f 13be be0e b8bd
00000020: 2818 523d bfd9 8abe 30cf 203d 80b3 023d
00000030: fc5f b13d 82d1 8e3e 121c c6bd 6e02 22be
00000040: 8021 55bd d2b9 74be 980e 4d3e 605f 70be
00000050: ef09 99be c0bc 963b 4449 3fbe e49e 8a3e
00000060: 6e72 3ebe 6ee9 243e 28e8 96bd 7545 7fbe
00000070: 04e5 8f3e cc13 2f3e bac9 20be 3356 85be
00000080: 987a 443e 1e89 e6bd 4467 b63d fcba fc3d
00000090: bfa3 1cbe 9420 bf3d f8a4 c13d 62ce 99bd
000000a0: eab2 9bbd b840 143e c064 9a3d 3024 a13c
000000b0: 20ae 9c3c 5649 80bd 4869 17be f01e 63be
000000c0: 626d b9bd d4ea 8abe f6f3 843e 2ce2 9c3d
000000d0: 6c2a 773e 0035 f0bc c0a9 393e 045a 2b3e
000000e0: 5814 823e b6f1 313e 1952 86be 28d7 583d
000000f0: 145d 3e3e f411 723e 2ad4 49be da7d 88bd

fc2.weight f4 [64, 64]
0.003322661 0.012262911 -0.008808121 0.092764616 0.023673609 -0.06959085 -0.065105334 0.054988116
-0.0812508 -0.04224783 0.10417101 -0.07637723 -0.091793686 -0.044409543 0.08322656 0.012223437
0.118187666 0.057568163 0.037063852 0.030722573 0.04210539 -0.107116625 -0.12242012 0.11900599
0.10299158 -0.007151887 0.013251141 0.021207765 -0.11627266 0.031905457 -0.043758243 -0.0046224147
0.10602386 0.05848545 -0.113967985 -0.07747872 -0.05388233 0.03341219 -0.11611046 0.08400898
-0.06866039 0.08844334 0.026208594 0.014870092 -0.015955478 -0.038868576 -0.024851024 -0.057893172
-0.105263636 0.013091922 -0.05876991 0.04712811 -0.11909938 0.0821687 -0.024213716 -0.016013607
0.098214 0.11091791 -0.047523692 -0.042002916 0.0045603663 0.0019459575 0.038134485 0.04539138
0.12137815 -0.055478454 0.08109386 -0.10107875 0.06058374 -0.040065393 -0.07816735 -0.055030987
0.039051294 -0.025521249 -0.114719704 -0.025458246 -0.117006406 -0.0643457 0.009090349 0.12168765
-0.11083987 -0.01199621 0.01168476 -0.09013967 0.11852865 0.08780815 -0.12246136 -0.06848888
-0.10613552 -0.105888546 -0.06934145 0.09839487 0.020331755 0.04004483 0.009933442 0.009539187
-0.036420584 0.08192398 0.0032925606 -0.04747069 -0.11688058 -0.108174965 -0.020611718 -0.00503169
-0.104274735 0.079211265 -0.0011876374 -0.079187915 -0.042040735 0.10773474 -0.041881442 -0.007944331
0.028253168 0.08949989 0.0101698935 0.012558147 -0.11100817 0.053581297 -0.0053304136 0.08189359
0.0489673 -0.09657553 0.1098776 0.10346736 -0.043747216 -0.041806206 0.055633813 -0.097083524
0.09395574 -0.03968008 -0.117366016 0.0057555884 0.07229206 -0.055624783 0.033645317 -0.029106572
0.09404625 -0.0154134035 -0.042275846 0.06870377 0.042041898 -0.07265931 -0.09949143 -0.101165384
-0.07343434 -0.087191746 0.063284814 -0.00093869865 0.0054374784 -0.12375362 0.08730319 -0.047053784
0.10808192 -0.11031696 -0.0026301146 0.11728108 0.106961295 -0.011139661 -0.0490838 -0.02911824
-0.055030286 -0.015615642 -0.067298144 -0.082702085 -0.1177692 0.09610042 0.072591916 0.09014946
0.021803945 -0.10007721 -0.112003595 0.075812116 -0.016886264 0.11252038 0.037054673 0.058745235
0.08458084 0.038813025 -0.020327538 -0.09539607 -0.043930322 -0.054663748 0.108304664 -0.058131725
0.05814247 0.10818486 -0.024633542 0.045993984 -0.09429918 -0.013646483 -0.120485425 0.08806135
-0.044719204 0.039409205 0.008189186 -0.09359987 -0.07797299 0.073186085 0.06563188 -0.052634925
-0.0829584 0.039867118 -0.021961063 -0.120637745 0.062778324 0.05998701 -0.021149278 -0.04830955
-0.009871975 -0.059403747 -0.117919326 -0.042509615 0.021534413 0.015410319 -0.009930879 -0.08994697
0.0791083 -0.09022175 0.049929947 0.09202239 -0.102398306 0.1241678 -0.12204544 0.009104922
0.11771718 0.042699754 0.08423722 0.119563445 0.054403916 0.07725972 0.022661239 -0.09298922
0.10929264 -0.05624327 0.08997497 -0.059414893 0.0029282272 -0.046825826 0.043246135 0.09102763
-0.037559837 0.070504054 -0.053268835 0.0040659904 -0.08718318 -0.06646316 0.05239579 -0.10086271
-0.0136117935 0.055890217 0.1161257 -0.052954018 -0.023232087 0.07133122 -0.008484155 0.103823006
00000000: 00c1 593b 60ea 483c f04f 10bc 60fb bd3d
00000010: 28ef c13c a685 8ebd f255 85bd 383b 613d
00000020: d266 a6bd 100c 2dbd 9c57 d53d aa6b 9cbd
00000030: 54fe bbbd c8e6 35bd b072 aa3d d044 483c
00000040: 600c f23d 98cc 6b3d 44d0 173d e8ad fb3c
00000050: b476 2c3d f65f dbbd 66b7 fabd 6ab9 f33d
00000060: 40ed d23d 605a eabb 501b 593c e8bb ad3c
00000070: 5c20 eebd 4caf 023d d83b 33bd a077 97bb
00000080: 0a23 d93d 708e 6f3d 0c68 e9bd 2aad 9ebd
00000090: b8b3 5cbd 38db 083d 52cb edbd e60c ac3d
000000a0: d29d 8cbd c821 b53d 68b3 d63c b0a1 733c
000000b0: 10b5 82bc a834 1fbd 6094 cbbc 6421 6dbd
000000c0: 7694 d7bd 807f 563c b8b8 70bd 6809 413d
000000d0: 60ea f3bd 1048 a83d d85b c6bc f82e 83bc
000000e0: 6c24 c93d ee28 e33d 34a8 42bd 400b 2cbd
000000f0: 206f 953b 800f ff3a e832 1c3d 50ec 393d
00000100: 1c95 f83d 603d 63bd 8a14 a63d 6002 cfbd
00000110: a826 783d 9c1b 24bd 3416 a0bd 2c68 61bd
00000120: 40f4 1f3d f011 d1bc 2af2 eabd d08d d0bc
00000130: 0ea1 efbd aec7 83bd b0ef 143c 6037 f93d
00000140: 0400 e3bd c08b 44bc 7071 3f3c 269b b8bd
00000150: 26bf f23d c2d4 b33d 06cd fabd e643 8cbd
00000160: 945d d9bd 18dc d8bd e402 8ebd 4083 c93d
00000170: c88e a63c 0c06 243d e0bf 223c 404a 1c3c
00000180: c02d 15bd c2c7 a73d 00c8 573b a070 42bd
00000190: 165f efbd d68a ddbd e8d9 a8bc e0e0 a4bb
000001a0: fe8d d5bd 8439 a23d 80aa 9bba 462d a2bd
000001b0: e832 2cbd 08a4 dc3d e08b 2bbd f028 02bc
000001c0: 3073 e73c b84b b73d a09f 263c b0c0 4d3c
000001d0: 4058 e3bd 1078 5b3d c0aa aebb d4b7 a73d
000001e0: f091 483d 64c9 c5bd 8207 e13d b2e6 d33d
000001f0: 4830 33bd fc3c 2bbd 48e0 633d bad3 c6bd
00000200: de6b c03d 9487 22bd 985d f0bd 6099 bc3b
00000210: dc0d 943d d0d6 63bd accf 093d e870 eebc
00000220: 529b c03d 8088 7cbc 7029 2dbd 90b4 8c3d
00000230: 2034 2c3d 68ce 94bd 2ac2 cbbd cc2f cfbd
00000240: be64 96bd 9691 b2bd 789b 813d 0013 76ba
00000250: e02c b23b 8a72 fdbd 04cc b23d 78bb 40bd
00000260: 0e5a dd3d dced e1bd 005e 2cbb 1031 f03d
00000270: 860e db3d 2083 36bc 180c 49bd 6089 eebc
00000280: 7067 61bd c0d8 7fbc 9cd3 89bd b65f a9bd
00000290: fa30 f1bd 4cd0 c43d 12ab 943d 48a0 b83d
000002a0: 309e b23c 48f5 ccbd 2462 e5bd 6243 9b3d
000002b0: 1055 8abc 1671 e63d a4c6 173d d89e 703d
000002c0: b838 ad3d 68fa 1e3d f085 a6bc 045f c3bd
000002d0: 48f0 33bd 18e7 5fbd d6ce dd3d 881b 6ebd
000002e0: cc26 6e3d 0690 dd3d 48cc c9bc 3064 3c3d
000002f0: ee1f c1bd 8095 5fbc 10c1 f6bd 8259 b43d
00000300: 7c2b 37bd 8c6b 213d f02b 063c 4ab1 bfbd
00000310: 4eb0 9fbd 96e2 953d 026a 863d b897 57bd
00000320: 18e6 a9bd b44b 233d b0e7 b3bc ec10 f7bd
00000330: ec91 803d f0b4 753d 4041 adbc 3ce0 45bd
00000340: 10be 21bc 5851 73bd b07f f1bd 901e 2ebd
00000350: f068 b03c 907b 7c3c 20b5 22bc 1e36 b8bd
00000360: 8803 a23d 2ec6 b8bd 5883 4c3d 3c76 bc3d
00000370: 34b6 d1bd b04b fe3d f6f2 f9bd d02c 153c
00000380: b415 f13d f0e5 2e3d 9084 ac3d aedd f43d
00000390: a4d6 5e3d 583a 9e3d 10a4 b93c 2271 bebd
000003a0: d2d4 df3d 585f 66bd cc44 b83d 085d 73bd
000003b0: 80e7 3f3b 70cc 3fbd dc22 313d b26c ba3d
000003c0: 58d8 19bd 6e64 903d 6c30 5abd 003c 853b
000003d0: 188d b2bd d61d 88bd f89c 563d 1c91 cebd
000003e0: 0004 5fbc 24ed 643d 50d3 ed3d 50e6 58bd
000003f0: 3851 bebc 1a16 923d 2001 0bbc 28a1 d43d

fc2.bias f4 [64]
-0.01777023 -0.08173986 -0.021004125 -0.08784224 -0.014841363 -0.09712364 0.012878463 -0.11748864
-0.054726616 0.011998996 -0.06693238 0.06867123 -0.10920064 0.10143365 0.11346902 -0.06660172
0.09336534 -0.038961574 -0.0026504993 0.120463416 0.12279381 -0.10534337 0.027585015 0.108221546
0.121896684 -0.10003087 0.033191487 0.011514932 -0.022843316 -0.06274316 -0.08455324 -0.06732179
0.11622763 0.015118375 -0.072217524 0.0771454 0.079724 0.0637172 0.021680057 -0.08547504
0.026513457 0.008806467 -0.0134091675 -0.010910407 -0.018988535 -0.05542089 0.08450925 0.022506386
0.07097608 -0.12413801 0.11567436 0.037774116 -0.019366547 -0.040656015 0.09702593 0.05532314
0.0064949393 -0.07115537 -0.026427478 -0.035706237 0.053555712 0.042979687 -0.09508018 -0.029777333
00000000: e092 91bc 3a67 a7bd d810 acbc a2e6 b3bd
00000010: 3029 73bc c2e8 c6bd 3000 533c e29d f0bd
00000020: 0429 60bd 7097 443c d813 89bd 80a3 8c3d
00000030: 96a4 dfbd 72bc cf3d 7262 e83d 7c66 88bd
00000040: 5436 bf3d 2c96 1fbd 00b4 2dbb 86b5 f63d
00000050: 527b fb3d 44be d7bd f8f9 e13c 42a3 dd3d
00000060: f8a4 f93d fcdc ccbd ccf3 073d 20a9 3c3c
00000070: e821 bbbc 7c7f 80bd 402a adbd 02e0 89bd
00000080: c008 ee3d 10b3 773c c8e6 93bd 68fe 9d3d
00000090: 5646 a33d 2a7e 823d 609a b13c 8a0d afbd
000000a0: c032 d93c 0049 103c 20b2 5bbc 90c1 32bc
000000b0: d88d 9bbc 0401 63bd 3013 ad3d 505f b83c
000000c0: e85b 913d 123c febd aee6 ec3d 08b9 1a3d
000000d0: 98a6 9ebc ec86 26bd 88b5 c63d 849a 623d
000000e0: 80d3 d43b e8b9 91bd 707e d8bc b440 12bd
000000f0: 3c5d 5b3d 780b 303d 66b9 c2bd 98ef f3bc

fc3.weight f4 [1, 64]
-0.06758675 0.08597699 -0.048881426 0.02652821 -0.11178781 0.07613821 -0.03493026 0.012390792
-0.115468726 0.08576588 0.05946432 -0.021463364 -0.07959628 -0.11854023 0.1198148 0.007608697
0.04752928 0.057866886 -0.09194955 0.08562319 -0.00607273 0.10433923 0.024469063 -0.02496989
0.09533121 0.08482729 0.10298447 0.07000524 -0.04660821 0.080010906 -0.0380608 -0.009526953
0.0348998 -0.03134443 0.05304736 0.107058525 -0.10108176 -0.111979276 -0.09386587 -0.029999003
0.108193696 -0.06883299 0.016011909 0.06316808 -0.110263616 -0.014800191 -0.0938478 0.11106549
0.040368557 -0.04557939 0.06628215 0.0063297898 -0.09654738 -0.016953021 -0.12137188 0.11068593
0.07204227 0.11248475 -0.047378957 0.041863605 -0.0020517558 0.092913285 -0.11972104 -0.009409472
00000000: ec6a 8abd b414 b03d e437 48bd b051 d93c
00000010: 02f1 e4bd 5aee 9b3d 0813 0fbd c002 4b3c
00000020: de7a ecbd 06a6 af3d dc90 733d f0d3 afbc
00000030: 6003 a3bd 38c5 f2bd 7661 f53d 6052 f93b
00000040: 10ae 423d d405 6d3d 0c50 bcbd 365b af3d
00000050: c0fd c6bb ceaf d53d 5873 c83c a88d ccbc
00000060: 023d c33d eeb9 ad3d 86e9 d23d e85e 8f3d
00000070: 40e8 3ebd c2dc a33d a4e5 1bbd f016 1cbc
00000080: 18f3 0e3d 0463 00bd 3048 593d 8041 db3d
00000090: f403 cfbd 6455 e5bd c03c c0bd 78c0 f5bc
000000a0: a894 dd3d 50f8 8cbd 682b 833c 445e 813d
000000b0: e4d1 e1bd 807c 72bc 4633 c0bd 4e76 e33d
000000c0: 8059 253d 74b1 3abd f0be 873d 206a cf3b
000000d0: a2ba c5bd 10e1 8abc d291 f8bd 4eaf e23d
000000e0: e68a 933d 685e e63d 7010 42bd 2c79 2b3d
000000f0: c076 06bb 5249 be3d 4e30 f5bd 302a 1abc
