data/models/rl_aca_20250316_220312.pt (torch, 23198 bytes, 5 tensors)

fc1.weight f4 [64, 11]
0	0x3e1b14a2	0.1514459
1	0x3e6d9358	0.23200738
2	0xbe940691	-0.2891126
3	0x3e3e8184	0.18604094
4	0x3e837a3a	0.2567919
5	0xbe752014	-0.23938018
6	0xbe71033f	-0.23536395
7	0xbe0d9b1d	-0.13828702
8	0xbe8d9104	-0.276497
9	0xbbbc5ec0	-0.0057486
10	0x3e8e3216	0.27772588
11	0x3d519478	0.05116698
12	0x3de65bfc	0.112480134
13	0xbe6171eb	-0.22016113
14	0x3df5c8dc	0.120012015
15	0xbbbc8040	-0.0057525933
16	0xbdfca68a	-0.12336452
17	0x3e9924f0	0.29910994
18	0x3e9a589e	0.30145735
19	0xbe3caa3a	-0.18424311
20	0xbe167ffd	-0.14697261
21	0xbe7ab9b8	-0.24484909
22	0x3e8eb3f8	0.2787168
23	0xbdeacb2c	-0.11464533
24	0x3e24c226	0.16089687
25	0x3e784b94	0.24247581
26	0xbced87b0	-0.028995365
27	0x3df70f4c	0.120634645
28	0x3e991a14	0.2990271
29	0xbb177980	-0.002311319
30	0xbe0ada9b	-0.13559954
31	0xbe5f5e2a	-0.21813264
32	0x3b916400	0.0044369698
33	0xbe874f16	-0.26427525
34	0xbe7f0b9d	-0.24906774
35	0xbe2eee27	-0.17083035
36	0x3dd13e14	0.102169186
37	0x3d231da0	0.039823174
38	0x3e3e23c2	0.18568328
39	0x3dd4aad4	0.103841454
40	0x3e110dea	0.14165464
41	0x3c0898a0	0.00833717
42	0x3d8caa88	0.06868464
43	0xbe02fa55	-0.12790807
44	0xbe025ae1	-0.1272998
45	0x3e2b4de0	0.16728926
46	0xbe368c48	-0.1782695
47	0xbe92373d	-0.28557768
48	0xbdc1148c	-0.09427747
49	0x3ad4dd00	0.001624018
50	0xbdc3b7f4	-0.09556571
51	0x3e8ed062	0.27893358
52	0xbe9173fc	-0.28408802
53	0x3e71bd50	0.23607373
54	0x3e3a0f42	0.18169883
55	0xbd2cd088	-0.04219106
56	0xbe90d217	-0.28285286
57	0x3e3da298	0.18519056
58	0x3e624898	0.22098005
59	0x3e60ea40	0.2196436
60	0x3e463c08	0.19358838
61	0xbd6edf40	-0.058318377
62	0xbdca2aea	-0.098714665
63	0x3dd90c18	0.1059801
64	0x3dc912cc	0.09818038
65	0xbe28cfb2	-0.1648548
66	0x3dab4c58	0.08364171
67	0xbe77c580	-0.24196434
68	0xbe89db38	-0.26925063
69	0x3e89fbb0	0.26949835
70	0xbd7706f4	-0.060309365
71	0x3e27285c	0.1632399
72	0x3d0c8e50	0.034315407
73	0x3e8d0ba2	0.27547938
74	0x3e7a2fc0	0.24432278
75	0xbdb056ac	-0.08610281
76	0xbc7022c0	-0.014656723
77	0x3db197d8	0.0867154
78	0xbdbdec2c	-0.09273562
79	0xbe35ddba	-0.17760363
80	0xbe6b6c7b	-0.22990601
81	0x3e991520	0.2989893
82	0xbe2f8b53	-0.17142992
83	0xbd7c7500	-0.061635017
84	0xbe538772	-0.20657137
85	0xbd4bd318	-0.04976186
86	0x3d7de820	0.06198895
87	0xbd47ee20	-0.048811078
88	0x3b697000	0.0035619736
89	0xbd86ebe0	-0.06587958
90	0x3e710aa0	0.2353921
91	0x3e822cae	0.25424713
92	0x3e0a16e0	0.13485289
93	0x3e85ef10	0.26158953
94	0xbd765ed4	-0.06014903
95	0xbcddb0e0	-0.02706188
96	0x3e520d0c	0.2051279
97	0xbce573b0	-0.028009266
98	0x3e43d332	0.19123533
99	0x3e89899e	0.26862806
100	0xbd7a099c	-0.06104432
101	0xbe7ecca0	-0.24882746
102	0xbdc212e8	-0.09476262
103	0x3e7015b0	0.23445773
104	0xbe8e85b3	-0.2783638
105	0xbe1dc12a	-0.15405717
106	0xbe2f35b2	-0.17110327
107	0xbe9216a1	-0.2853289
108	0x3e16ac12	0.14714077
109	0x3e00effe	0.1259155
110	0xbe8084b8	-0.25101256
111	0x3e91549e	0.2838487
112	0xbcef45f0	-0.029208153
113	0xbd28baf8	-0.041193932
114	0x3e93ae4e	0.2884392
115	0x3e522510	0.2052195
116	0x3df83814	0.12120071
117	0x3dd94010	0.10607922
118	0x3e4ac4fa	0.19801703
119	0xbd900426	-0.07032041
120	0xbd70cf64	-0.058791533
121	0x3e8a6130	0.27027273
122	0xbe985556	-0.29752606
123	0xbe83b030	-0.25720358
124	0xbe2920e3	-0.16516452
125	0x3e8808ba	0.26569158
126	0xbe38c6ce	-0.18044588
127	0x3e37b9e8	0.17942011
128	0x3d1f00b0	0.038819015
129	0x3d0f3440	0.03496194
130	0xbe928beb	-0.28622374
131	0x3e5ed564	0.2176109
132	0x3ddb9b44	0.10722974
133	0xbe878283	-0.2646676
134	0x3dda63bc	0.10663554
135	0x3e58a464	0.2115646
136	0xbe1c9021	-0.15289356
137	0x3e6bccf8	0.23027408
138	0x3d5b1c48	0.053493768
139	0x3e396ab4	0.1810711
140	0xbe06ac51	-0.13151671
141	0xbb8ece00	-0.004358053
142	0x3e4529c4	0.19254214
143	0xbe5d4bb6	-0.21610913
144	0x3d91255c	0.07087204
145	0x3e8e0530	0.27738333
146	0x3e2d2c82	0.1691151
147	0x3e9605ba	0.29301244
148	0xbe2cf047	-0.16888534
149	0x3e868526	0.2627346
150	0xbd53e074	-0.051727727
151	0x3e5ab748	0.21358979
152	0xbd8f358a	-0.06992634
153	0x3e0c0058	0.13672006
154	0x3cecaec0	0.028891921
155	0x3d81fc4c	0.0634695
156	0xbe57b910	-0.2106669
157	0x3ceb02a0	0.028687775
158	0x3e20f8ea	0.15719953
159	0x3e5c1518	0.21492422
160	0x3e7b7634	0.2455681
161	0xbe57f22e	-0.21088478
162	0xbd8cf7f8	-0.06883234
163	0x3cb4df40	0.02207911
164	0xbdd7709c	-0.105195254
165	0xbe29950e	-0.16560766
166	0x3c82ab80	0.015950918
167	0xbe31fd73	-0.1738184
168	0x3e7f5ec4	0.24938494
169	0xbd02b948	-0.03191498
170	0x3dcc3c50	0.09972441
171	0x3e92134e	0.28530353
172	0xbe9a22b7	-0.3010461
173	0xbe1c8b1c	-0.15287441
174	0x3b974940	0.0046168864
175	0xbe84f062	-0.25964648
176	0x3d3ca488	0.046055347
177	0xbe1771db	-0.14789526
178	0xbd798fd8	-0.060928196
179	0x3c50df60	0.012748569
180	0x3e0d3224	0.13788658
181	0xbc1d5540	-0.009602845
182	0x3e806e78	0.2508428
183	0x3d6c78d0	0.057732403
184	0x3d4b0588	0.049565822
185	0xbdbd57f2	-0.0924529
186	0xbe96e1c4	-0.2946912
187	0x3dd4cf84	0.10391143
188	0xbe5b62de	-0.21424434
189	0x3dd56f20	0.10421586
190	0x3e8b213e	0.271738
191	0x3cb0b3d0	0.021570116
192	0x3e87af1e	0.2650079
193	0xbdfa9f04	-0.12237361
194	0x3dab1cb4	0.08355084
195	0xbd5424ac	-0.051792786
196	0x3e8b2686	0.2717783
197	0xbe8f9fdd	-0.28051654
198	0xbd995194	-0.07486263
199	0xbe989c76	-0.2980687
200	0xbd54a788	-0.051917583
201	0x3e159d4c	0.14610785
202	0x3e5891b8	0.21149337
203	0xbe8b99d8	-0.2726581
204	0xbd26de78	-0.040739506
205	0x3d934c80	0.071923256
206	0x3e868dca	0.2628005
207	0x3d488850	0.048958123
208	0x3e858bdc	0.26083267
209	0x3e4ab9dc	0.19797462
210	0x3d80a844	0.06282094
211	0xbd9b16d4	-0.075727135
212	0xbe89811f	-0.26856324
213	0x3e05efb8	0.13079727
214	0xbe700e4e	-0.23442957
215	0x3e0486ae	0.12942001
216	0x3e950dfe	0.29112238
217	0xbbb8f240	-0.005644113
218	0xbe146a00	-0.14493561
219	0xbe07d087	-0.1326314
220	0xbe112abe	-0.14176461
221	0xbe0e4fa3	-0.13897566
222	0xbe1d7191	-0.15375353
223	0xbb1c1c80	-0.0023820698
224	0xbd36b190	-0.04460293
225	0x3d96bc08	0.07360083
226	0x3e6e72d4	0.23285991
227	0xbcf3aac0	-0.029744506
228	0xbe2d20a7	-0.16906987
229	0xbe892926	-0.26789206
230	0xbd478668	-0.048712164
231	0xbe302fb7	-0.17205702
232	0x3e8b1788	0.2716639
233	0x3d31d120	0.043412328
234	0x3d4c0f10	0.049819052
235	0x3e02d738	0.12777412
236	0x3e99dae0	0.300498
237	0x3e88e594	0.26737654
238	0x3cf32280	0.029679537
239	0x3cba9580	0.022776365
240	0x3e7804b0	0.24220538
241	0xbdc28924	-0.09498814
242	0xbe3d6624	-0.18495995
243	0x3e610964	0.21976238
244	0xbe0b8ab5	-0.13627131
245	0xbdd7815c	-0.1052272
246	0xbd31ea48	-0.04343632
247	0xbd66549c	-0.056233034
248	0xbc531fa0	-0.012885958
249	0xbd9e161e	-0.07719062
250	0xbdd8a7b0	-0.10578859
251	0x3e996e60	0.29967022
252	0x3e4232f2	0.18964747
253	0xbe27e86b	-0.16397254
254	0xbe3e8b86	-0.18607911
255	0x3e2ac710	0.16677499

fc1.bias f4 [64]
0	0x3e816fea	0.25280696
1	0x3dce1bc0	0.10063887
2	0x3dc358bc	0.09538409
3	0x3e775f84	0.2415753
4	0x3dfc671c	0.12324354
5	0xbcd628a0	-0.026142418
6	0x3e139f10	0.14416146
7	0xbe39c9ba	-0.18143359
8	0x3e2acd20	0.16679811
9	0xbe1bdea0	-0.15221643
10	0xbe7e959c	-0.24861759
11	0xbdb2b1de	-0.08725332
12	0x3ddbb850	0.10728514
13	0xbe81bad6	-0.25337857
14	0x3d9a64ac	0.07538733
15	0xbe967237	-0.29384014
16	0x3e77bb84	0.24192625
17	0xbe17b769	-0.14816059
18	0xbe6b6f60	-0.22991705
19	0xbe7761d4	-0.24158412
20	0x3e9844b4	0.29739916
21	0x3e553568	0.20821154
22	0xbe975705	-0.29558578
23	0xbe8bb495	-0.2728621
24	0x3e499c0e	0.19688436
25	0xbe8678a6	-0.26263922
26	0xbe5b76b8	-0.21432006
27	0xbdc9a6a0	-0.09846234
28	0xbe0bf836	-0.13668904
29	0x3de6e75c	0.11274597
30	0xbe7b1084	-0.24518019
31	0xbd628d8c	-0.05531077
32	0x3e1d9df4	0.15392286
33	0x3e936bc2	0.2879315
34	0xbccd0260	-0.025025547
35	0xbe5b161d	-0.21395154
36	0xbe68a66e	-0.22719738
37	0xbe8b784d	-0.2724022
38	0xbda3be7c	-0.079953164
39	0x3c870670	0.016482562
40	0x3e9a26a8	0.30107617
41	0xbe95ec3f	-0.29281804
42	0xbe61e9b2	-0.22061804
43	0xbe5261ed	-0.20545168
44	0xbe7f0242	-0.24903205
45	0xbe07e078	-0.13269222
46	0xbdfcac06	-0.12337498
47	0x3b330500	0.0027316213
48	0x3c90b080	0.017662287
49	0xbe923aaf	-0.28560397
50	0x3cf6bcc0	0.0301193
51	0xbe0bdb74	-0.13657933
52	0xbd70a7d8	-0.05875382
53	0xbe1c57c4	-0.15267855
54	0xbe5d55dc	-0.21614784
55	0xbd5e045c	-0.054203376
56	0x3e125e2e	0.14293739
57	0x3e3769ee	0.17911503
58	0x3de8a9a4	0.113604814
59	0xbdea87e2	-0.11451699
60	0x3e055614	0.13021117
61	0xbe93e144	-0.28882802
62	0x3e8a24f4	0.26981318
63	0x3e5e6a80	0.21720314

fc2.weight f4 [64, 64]
0	0x3daca772	0.08430375
1	0x3dfc6220	0.12323403
2	0x3defcf78	0.117094934
3	0xbccc9e50	-0.024977833
4	0x3dff0de8	0.12453824
5	0x3c82cb08	0.015965953
6	0xbde609a4	-0.112323076
7	0xbdd6a738	-0.10481113
8	0xbccf09e0	-0.025273263
9	0xbd88a4ee	-0.06672083
10	0x3dc435fc	0.09580609
11	0xbd55a7d8	-0.05216202
12	0xbdefaf80	-0.11703396
13	0xbb339fc0	-0.002740845
14	0xbdc41726	-0.09574728
15	0xbdc1588a	-0.094407156
16	0x3c8d6260	0.017258823
17	0xbdbce262	-0.092228666
18	0xbddb9102	-0.107210174
19	0x3d546d54	0.051862076
20	0x3c0df260	0.008663744
21	0x3c833010	0.016014129
22	0x3d351a50	0.044214547
23	0x3df95392	0.12174143
24	0x3dd11dda	0.10210772
25	0x3dc5863e	0.09644745
26	0x3c3bf760	0.011472553
27	0xbd81c17e	-0.06335734
28	0x3d3a5ea0	0.045500398
29	0x3d139048	0.03602627
30	0xbdb406d4	-0.08790365
31	0x3d97e72c	0.074171394
32	0x3deb47f4	0.11488333
33	0xbd8b9c04	-0.06816867
34	0x3cd3ab60	0.025838554
35	0x3cb35d00	0.021894932
36	0x3da2a0a2	0.079407945
37	0x3d658b60	0.05604112
38	0xbccb7350	-0.024835259
39	0x3d5a8520	0.053349614
40	0xbc7f3da0	-0.015578657
41	0x3da6141e	0.08109306
42	0x3dac989a	0.08427544
43	0x3dd9a232	0.106266394
44	0x3d802ec2	0.06258918
45	0xbcb12980	-0.021626234
46	0xbda3e5fa	-0.08002849
47	0xbdd0f1ae	-0.10202347
48	0x3dbb3046	0.09140067
49	0x3dbd54fc	0.09244725
50	0x3d08db84	0.03341247
51	0x3debf98e	0.11522208
52	0x3cc00aa8	0.023442581
53	0xbd455c80	-0.048183918
54	0x3defa7c4	0.11701921
55	0x3d1a8210	0.037721694
56	0xbd85e9c2	-0.065387264
57	0xbbaaae20	-0.0052087456
58	0xbc3e42a0	-0.011612564
59	0xbd7381dc	-0.059450015
60	0xbdae2626	-0.0850337
61	0x3db1ca6e	0.086811885
62	0xbdf08b12	-0.117452756
63	0xbdf295e2	-0.11844994
64	0xbde2e584	-0.11078933
65	0x3dd66bde	0.10469793
66	0xbdd29396	-0.10282056
67	0xbda3ec6e	-0.0800408
68	0xbddaeda2	-0.10689856
69	0xbdef2ec6	-0.11678843
70	0x3da30d24	0.07961491
71	0xbdf8b8c2	-0.12144615
72	0xbc8ad630	-0.016947836
73	0x3dec3b6c	0.11534771
74	0xbd8d093c	-0.06886527
75	0xbd57b464	-0.05266227
76	0xbcef21d0	-0.029190928
77	0xbcf82418	-0.030290648
78	0xbd38bc20	-0.045101285
79	0x3d09eef8	0.033675164
80	0xbdfe2d08	-0.12410933
81	0xbde44f90	-0.11147988
82	0xbdeccdb4	-0.11562672
83	0xbcece4b0	-0.02891764
84	0xbdb8097e	-0.089861855
85	0xbd9010f2	-0.07034482
86	0x3dda540e	0.106605634
87	0x3d8f3d76	0.069941446
88	0x3cacf468	0.021112636
89	0xbdb7d4a0	-0.08976102
90	0x3d9b492c	0.07582316
91	0x3cc3c880	0.023899317
92	0x3ddb4fec	0.10708603
93	0xbcac4da0	-0.021033108
94	0x3c7c7ce0	0.015410632
95	0x3d9f423c	0.07776305
96	0xbd9dc184	-0.07702926
97	0x3c480a60	0.012209505
98	0xbdb01fbc	-0.08599803
99	0x3df46bf4	0.11934653
100	0x3cc53c50	0.02407661
101	0x3c775860	0.015096754
102	0x3dea6d20	0.11446595
103	0xbc626200	-0.01381731
104	0x3d24ea04	0.040262237
105	0xbc36be40	-0.011153758
106	0x3d6dd55c	0.058064803
107	0x3df13538	0.11777729
108	0xbcfde7e0	-0.030994356
109	0x3d94fe1c	0.0727503
110	0x3c963120	0.018333972
111	0x3dd30dea	0.10305388
112	0x3dc1bea4	0.0946019
113	0x384a9000	4.8294663e-05
114	0xbd8434e2	-0.06455399
115	0xbdf42928	-0.119219124
116	0x3dff0f2c	0.12454066
117	0xbd85b940	-0.06529474
118	0x3bebaf20	0.0071925074
119	0x3dead246	0.11465888
120	0xbd913fc4	-0.070922405
121	0xbdb3b860	-0.08775401
122	0x3d256f70	0.04038948
123	0xbd52d554	-0.051472977
124	0x3db9e530	0.09076917
125	0xbd685ed8	-0.056731075
126	0x3af73d80	0.0018862933
127	0x3d5fc7b0	0.054633796
128	0xbcfaa148	-0.030594483
129	0xbd84aeb4	-0.064786345
130	0x3da9e4aa	0.08295567
131	0x3df8f504	0.12156108
132	0xbc6cdf40	-0.014457524
133	0xbd8864ca	-0.06659849
134	0xbd9fa78a	-0.077956274
135	0xbcd0d8a0	-0.02549392
136	0x3d886d98	0.06661528
137	0xbdd67c2c	-0.10472903
138	0x3d9492ac	0.07254538
139	0x3de632ee	0.11240183
140	0xbda2021c	-0.079105586
141	0x3d790364	0.06079425
142	0x3c567100	0.013088465
143	0x3c2b00a0	0.010437161
144	0xbc41c280	-0.011826158
145	0xbd9982e2	-0.07495667
146	0x3de79226	0.113071725
147	0x3d6b82f8	0.05749795
148	0x3de47b1e	0.11156295
149	0xbdd1e404	-0.10248569
150	0xbd017ca0	-0.031612992
151	0xbd165704	-0.03670408
152	0x3dcbb5a4	0.099467546
153	0x3bd475c0	0.0064837635
154	0x3ccd59d8	0.025067255
155	0xbda0bbca	-0.07848318
156	0x3d1f5750	0.038901627
157	0x3dcb3166	0.099215314
158	0xbd251918	-0.040307134
159	0x3a1d4d00	0.00060005486
160	0xbd318a9c	-0.04334508
161	0xbcd87ae8	-0.026425794
162	0xbdd00898	-0.10157889
163	0xbdf5592c	-0.11979899
164	0xbd91dfd8	-0.07122773
165	0x3d65606c	0.05600016
166	0xbde360ec	-0.11102471
167	0x3bd7fe60	0.006591603
168	0x3d27a414	0.04092796
169	0x3c2d1c60	0.010565847
170	0x3b5df1c0	0.0033866018
171	0xbaaeff80	-0.0013351291
172	0xbd2006d8	-0.039069027
173	0xba216300	-0.0006156415
174	0x3da9ca90	0.08290589
175	0x3da0e8f2	0.07856931
176	0x3d4b814c	0.049683854
177	0xbdb7ff64	-0.08984259
178	0x3cef3208	0.029198661
179	0xbda2404c	-0.0792242
180	0x3ade0400	0.0016938448
181	0xbd16a1b4	-0.036775306
182	0x3dc86478	0.09784788
183	0xbddf21d8	-0.10895127
184	0x3d9932d2	0.07480396
185	0x3ce56ca0	0.028005898
186	0xbd840f1e	-0.06448196
187	0x3ceec278	0.029145464
188	0x3d0e3210	0.034715712
189	0xbb864b00	-0.004098296
190	0x3ce9bcc8	0.0285324
191	0x3d86d794	0.06584087
192	0xbdd0804e	-0.10180722
193	0xbcbc9d78	-0.023024306
194	0xbc92f3b8	-0.01793848
195	0xbd68fccc	-0.05688171
196	0xbdf852c6	-0.12125163
197	0xbdb24f00	-0.08706474
198	0x3d0fb4d8	0.035084575
199	0x3cb744e0	0.02237171
200	0xbd191e44	-0.03738238
201	0x3d8b0836	0.067886755
202	0xbc80a330	-0.015702814
203	0x3d237d78	0.03991458
204	0xbb4ed380	-0.003155917
205	0xbddb412a	-0.107057884
206	0x3d0f1450	0.03493148
207	0x3d82240a	0.0635453
208	0x3d2d9368	0.042376906
209	0xbd4b71a0	-0.049668908
210	0xbd30b180	-0.043138027
211	0xbda4c3c0	-0.08045149
212	0xbbc597e0	-0.006030068
213	0x3dbba126	0.09161596
214	0xbb14f600	-0.0022729635
215	0xbcb69588	-0.022288099
216	0xbd931200	-0.071811676
217	0x3d83d72a	0.06437524
218	0x3c4c8630	0.012483165
219	0x3db14934	0.086565405
220	0x3c1ee060	0.00969705
221	0x3ded4ffe	0.11587523
222	0xbd14bd98	-0.036313623
223	0x39c8b200	0.00038279593
224	0x3d300d6c	0.04298155
225	0xbdcb63d0	-0.09931147
226	0x3d7745e8	0.060369402
227	0xbd3d77a0	-0.04625666
228	0x3d6d5614	0.05794342
229	0x3cf1af60	0.02950257
230	0xbc461c10	-0.012091652
231	0x3dea33ee	0.11435686
232	0xbdc12c62	-0.094322935
233	0x3b156200	0.0022794008
234	0xbda27538	-0.07932514
235	0xbd554a78	-0.052072972
236	0x3dbf9cdc	0.093560904
237	0x3dd48bfa	0.10378261
238	0x3dcb53ec	0.09928116
239	0xbce4bdd8	-0.027922556
240	0x3d8704ac	0.06592688
241	0x39c98800	0.00038439035
242	0x3daad5b4	0.08341542
243	0x3c7cb690	0.015424386
244	0x3c76d2e0	0.015064925
245	0x3da101aa	0.078616455
246	0xbdeb9666	-0.115032956
247	0xbd7a2b80	-0.06107664
248	0x3d2e5b8c	0.042567775
249	0xbd29d0ac	-0.04145877
250	0xbc123640	-0.008924067
251	0xbde893f0	-0.11356342
252	0xbdeecd2c	-0.11660227
253	0xbd3d1054	-0.04615815
254	0xbd859a7c	-0.06523606
255	0x3d9f7b5c	0.07787201

fc2.bias f4 [64]
0	0xbd8eece6	-0.069787785
1	0xbc887d80	-0.016661406
2	0x3dfc485a	0.123184875
3	0x3d9998ce	0.07499848
4	0x3d858b3e	0.06520699
5	0x3d9011b4	0.070346266
6	0xba8aec00	-0.0010598898
7	0xbca29218	-0.019845054
8	0x3d9c7c10	0.076408505
9	0x3dd61b92	0.10454477
10	0xbd194c0c	-0.03742604
11	0x3cfb03b8	0.030641422
12	0xbccc8798	-0.024967
13	0xbdc3343c	-0.09531447
14	0xbdd169ae	-0.10225235
15	0x3dec37b6	0.115340635
16	0xba93e480	-0.0011283308
17	0xbdbf1e34	-0.09331933
18	0x3d8ca072	0.0686654
19	0x3da546b2	0.08070125
20	0xbd283d04	-0.041073814
21	0xbdbd9d4c	-0.092585176
22	0x3c7a1270	0.015263185
23	0xbd3af080	-0.045639515
24	0xbd8cdd16	-0.06878106
25	0xbcf5adb8	-0.029990062
26	0x3d2082c8	0.039187223
27	0x3b040640	0.0020145327
28	0x3df1286c	0.11775288
29	0x3da734ce	0.081643686
30	0xbddfbab6	-0.10924284
31	0xbdbe709c	-0.09298822
32	0xbd773d5c	-0.06036125
33	0x3d51b480	0.05119753
34	0xbd47f114	-0.048813894
35	0x3d854624	0.06507519
36	0x3de5ece4	0.11226824
37	0x3b8b85c0	0.0042578876
38	0x3cf80d38	0.03027974
39	0xbce3fbe8	-0.02783008
40	0x3dc48d56	0.0959727
41	0x3daf7fd0	0.085693
42	0x3d762e24	0.060102597
43	0x3def3824	0.1168063
44	0xbdd2d8ee	-0.10295282
45	0xbdc6392e	-0.09678875
46	0x3ded8c7e	0.115990624
47	0x3d8fa8e0	0.07014632
48	0xbd1d155c	-0.038350448
49	0x3d3b741c	0.045765027
50	0xbd56cd8c	-0.05244212
51	0xbd2fe8f0	-0.042946756
52	0x3cbcbbd0	0.023038775
53	0x3d6e7e7c	0.058226094
54	0x3d372c60	0.044720054
55	0x3c20f030	0.00982289
56	0xbcfd75a0	-0.030939877
57	0x3d9135cc	0.07090339
58	0xbcf46308	-0.029832378
59	0xbdb900a4	-0.09033325
60	0xbdd0a430	-0.10187566
61	0x3dfddc6c	0.12395558
62	0x3dc07cf8	0.09398836
63	0x3cd82e40	0.026389241

fc3.weight f4 [1, 64]
0	0x3dbca694	0.0921146
1	0xbddd6b72	-0.10811509
2	0x3dffa79e	0.12483142
3	0xbc918170	-0.017761916
4	0x3cb3b0d8	0.021934912
5	0x3debbcba	0.11510606
6	0x3c2eb870	0.0106640905
7	0xbddf5368	-0.1090458
8	0xbd5b656c	-0.05356352
9	0xbd291fec	-0.04129021
10	0x3b3c1c80	0.002870351
11	0x3c43a9f0	0.011942372
12	0xbdc56d90	-0.09640038
13	0xbcfd6c50	-0.030935436
14	0x3dd58e10	0.10427487
15	0xbd717ed0	-0.05895883
16	0xbdcbc868	-0.09950334
17	0xbda75ce6	-0.08172016
18	0x3dde7e4a	0.108639315
19	0xbd9f33be	-0.07773541
20	0xbded1066	-0.115753934
21	0x3d1c950c	0.03822808
22	0x3d53f13c	0.05174373
23	0x3de89644	0.11356786
24	0x3de11126	0.10989599
25	0xbd7562ec	-0.059908792
26	0xbde7c710	-0.11317265
27	0xbcff9c58	-0.03120248
28	0xbd3e3cb0	-0.046444595
29	0x3dbc002a	0.09179719
30	0xbd2cb760	-0.042167068
31	0xbdf4a9f8	-0.119464815
32	0x3df119a0	0.11772466
33	0xbc8c2208	-0.017106071
34	0x3d434494	0.047672823
35	0xbdb3b028	-0.087738335
36	0xbd33809c	-0.043823823
37	0x3d0b9468	0.034077078
38	0x3b4c25c0	0.003115043
39	0xbc8af480	-0.01696229
40	0xbd86ac7c	-0.065758675
41	0x3dd9cf20	0.10635209
42	0xbc00ca60	-0.00786075
43	0xbdb0099a	-0.08595581
44	0x3d808d06	0.06276898
45	0x3d03ac18	0.032146543
46	0xbcc95bc8	-0.024579898
47	0xbde50fd4	-0.111846596
48	0xbdcd16c8	-0.10014111
49	0x3dfddec0	0.12396002
50	0x3dc9709e	0.09835933
51	0x3ce41318	0.027841136
52	0x3aba3080	0.0014205128
53	0x3d1cc038	0.03826925
54	0x3d397c18	0.04528436
55	0xbdeefd6a	-0.11669429
56	0xbddf4be4	-0.10903147
57	0xbdb8cb9a	-0.09023209
58	0xbdc7670e	-0.09736453
59	0x3c64d610	0.013967052
60	0xbdb00384	-0.085944206
61	0xbd610308	-0.05493453
62	0x3da6f1e2	0.08151604
63	0x3c88d0b0	0.016701072
