data/models/rl_aca_20250316_214516.pt (torch, 23198 bytes, 5 tensors)

fc1.weight f4 [64, 11]
00000000: 10ee 433d ab4d 00be e0ea 583e ecd5 80be
00000010: d833 273d f4a6 e03d c8e5 19bd 98a0 f23d
00000020: deff 0a3e 8828 7a3e 54c0 953e 6a55 853e
00000030: 193b 96be aebe 493e 208f ed3d 221b 58be
00000040: d9df 1abe 188c 31bd a8bf 273d f874 6b3e
00000050: 7015 793e 1ea2 e4bd 90f7 1f3d 0ef6 0bbe
00000060: 3b60 8ebe 20f7 423c 50b6 94bc a472 5f3e
00000070: 48b3 62be 002d 80bb 985d d53d 54c9 7bbd
00000080: d818 2ebd 62bf 96bd 622f 35be 6e1d 9a3e
00000090: c070 13bd 75cb 24be 005c 1dbe b001 8cbd
000000a0: e294 23be f404 a23d 40be bd3d ac33 7e3e
000000b0: 50bb ac3d 1004 93bc e455 b53d a4c2 ef3d
000000c0: 7256 d3bd 3aa0 51be 8ab4 123e c203 8b3e
000000d0: 9c82 473e 8df6 30be bab0 833e cadf 2d3e
000000e0: daee 90be 185d 1ebd d0b8 a4bd 3c38 913e
000000f0: de77 ffbd 0c8d f53d 3412 d0bd 3878 963d
00000100: 4a87 0e3e 1813 923d 4e72 853e 8e7c 0cbe
00000110: 9f4e 19be e90c 0fbe ffe1 03be e061 973c
00000120: 629c 19be 7447 16be f858 b83d 8094 c43c
00000130: dceb eebd d2c6 213e 404a 473d 644e eb3d
00000140: f6c6 98bd 944c 783e 22c6 383e 6807 bebd
00000150: 03c9 25be 40ac 56be 1cd1 183e da4e d6bd
00000160: 9ca2 7b3e 4aa7 8cbe c8b2 04bd 22b2 493e
00000170: 4039 a93b dce1 963d 744d f1bd 4432 593e
00000180: 6ed7 853e a6a2 44be 68c4 8e3e 9473 53bd
00000190: 9426 adbd d25e 933e f6b3 363e 970a 2fbe
000001a0: b2b9 60be 1852 4b3e 1044 903d 8004 d53c
000001b0: ac92 493e 6080 163e f0c5 eebc ebbb 3fbe
000001c0: 9437 783e 1231 27be 0050 bf3c 4593 94be
000001d0: 54c7 02be 3818 74be a407 333e 729c aabd
000001e0: 4630 933e 8029 2b3c a489 813e a225 e6bd
000001f0: 9065 643d 2ccb d8bd c092 353c 0068 aa3a
00000200: 04f8 813e 5b2e 39be d7af 99be 7442 8bbd
00000210: 407d b43c b8ac 47be 007d e03b c8ce 043e
00000220: 729a 883e 70ac 743e 806c 153e 48da 2fbd
00000230: 8f83 7abe a075 523e 41d9 85be 3fc7 23be
00000240: 369d 053e 6c83 4f3e 2a9a acbd 18ad 8a3e
00000250: 7210 f5bd 1825 793e 04e0 943d a0cd b0bc
00000260: 2a7e efbd e08d 4c3c 1888 8a3e f82e af3d
00000270: 30f1 c5bd fa0b a6bd 98c6 2b3d 6247 93be
00000280: 64cb 823e 3a5a 48be 168e 38be c0eb 353e
00000290: e4bf 013e 602c d7bc 94c1 f23d 6169 65be
000002a0: 2087 613d 60c1 5d3e 7ca0 6e3e 38ae 263e
000002b0: 8488 5abe de75 ebbd 768b 3a3e e4c6 43be
000002c0: 4ea3 013e 24f6 a33d 30e8 3c3d 5ef4 093e
000002d0: b009 c83d 0a84 9fbd 20f9 e53c e4d1 9a3d
000002e0: e91c 8cbe 4cdb debd 9040 863e 00c6 0e3a
000002f0: f80b 643e 501c 8bbc 3ac4 973e dc71 e83d
00000300: b46b c23d 1293 883e 64b7 b03d c81f 4cbe
00000310: 9096 4d3e 44a4 203e 6033 793c 9850 6d3e
00000320: 2a61 8f3e 8ca7 23be b830 f53d b0a5 68be
00000330: c8f8 0f3d c0fc ee3b 9c16 183e e407 3cbe
00000340: 6078 663e 2f5b 33be 0480 673e bd6c 8dbe
00000350: 464d 8a3e de55 b2bd f979 74be 22d6 883e
00000360: 020b a5bd 7ed8 f1bd ecad 8f3e fa67 8c3e
00000370: 5275 193e d4e4 5b3e 96a8 993e 847d e83d
00000380: e8d5 6e3e fac6 8ebd f072 2c3d c8ef 663d
00000390: 1c4c 7e3e c9fe 95be 262c f6bd 0636 183e
000003a0: f308 5fbe 35cc 1cbe 7518 96be 145b 31be
000003b0: a289 873e de69 90be 2005 f33c 90d0 1bbd
000003c0: cc65 883e 7aad 973e 20d0 543d 0425 6dbe
000003d0: 3823 383d b8bb 82bd 8421 823e 6047 143e
000003e0: 6a74 89be fe57 833e d873 2fbd 52cc 473e
000003f0: 98e5 e43d 16bd 8c3e cee1 1a3e 7466 783e
0.047834456 -0.12529628 0.21183348 -0.2516321 0.040820926 0.10969344 -0.037572652 0.11847037
0.13574168 0.24429524 0.29248297 0.26041728 -0.29341963 0.19701645 0.115995646 -0.211041
-0.15124454 -0.043346494 0.040954262 0.22993839 0.24324584 -0.11163734 0.039054453 -0.13668081
-0.27807793 0.0118997395 -0.01815334 0.21821076 -0.22138703 -0.0039116144 0.10418242 -0.0614713
-0.04250416 -0.07360722 -0.17693856 0.30100578 -0.0359962 -0.16093238 -0.15367126 -0.06836259
-0.15974763 0.07911101 0.09264803 0.24824399 0.084341645 -0.017946273 0.08854273 0.11707047
-0.103192225 -0.20471278 0.14326683 0.27151304 0.19483417 -0.17281552 0.2572077 0.169799
-0.2830723 -0.038663 -0.08043063 0.28363216 -0.12474035 0.11989793 -0.10159722 0.07347149
0.13918796 0.07132548 0.2606377 -0.13719389 -0.14971398 -0.13969769 -0.1287918 0.018479288
-0.15001062 -0.14675695 0.090013444 0.023996592 -0.1166608 0.157985 0.048654795 0.11489561
-0.07459824 0.24247962 0.18044332 -0.092787564 -0.16189961 -0.20964146 0.14923519 -0.104642585
0.2457375 -0.2747138 -0.03239706 0.19696859 0.0051642954 0.07367298 -0.11782351 0.21210581
0.26140922 -0.1920267 0.2788422 -0.051623896 -0.08454624 0.2878328 0.17842087 -0.17093883
-0.21945837 0.19855535 0.07044232 0.026003122 0.19684857 0.14697409 -0.029147118 -0.18724029
0.24239951 -0.16327313 0.023353577 -0.29018608 -0.1277135 -0.23837364 0.17483383 -0.08330621
0.28747767 0.010446906 0.25300324 -0.11237647 0.05576092 -0.10585627 0.011082351 0.0013000965
0.25384533 -0.1808409 -0.30016968 -0.06799784 0.02203238 -0.1949948 0.0068508387 0.12969506
0.26680332 0.23893905 0.1459217 -0.04293278 -0.24464248 0.20552683 -0.26142314 -0.15993975
0.13048252 0.20264977 -0.08427842 0.27085185 -0.11966027 0.24330556 0.0726929 -0.021582425
-0.11693986 0.0124849975 0.27056956 0.085538805 -0.096651435 -0.08107753 0.04193744 -0.28765398
0.255458 -0.19565669 -0.18022951 0.17765713 0.12670857 -0.026266277 0.11853328 -0.2240348
0.055060506 0.21655798 0.23303407 0.16277397 -0.21341139 -0.11497091 0.18217263 -0.1911884
0.12659952 0.08005932 0.04611987 0.13472125 0.09767473 -0.07788856 0.028072894 0.07559565
-0.27365807 -0.10881671 0.26221132 0.00054463744 0.2227019 -0.016981274 0.29641896 0.11349842
0.09493199 0.26674706 0.08628729 -0.19933999 0.20076966 0.15687662 0.015210003 0.23175275
0.28003818 -0.15981883 0.11972183 -0.22719455 0.035149366 0.0072933137 0.14852375 -0.18362385
0.22506857 -0.17515253 0.22607428 -0.27622023 0.2701208 -0.08707784 -0.23874654 0.2672587
-0.0805874 -0.11808871 0.2806238 0.27423078 0.1498616 0.2147401 0.30011433 0.11352065
0.23323786 -0.069715455 0.0421018 0.056381017 0.24833721 -0.29295948 -0.120201394 0.14864358
-0.21780758 -0.15312274 -0.29315534 -0.173199 0.26472193 -0.2820577 0.02966553 -0.038040698
0.26640165 0.2962454 0.051956296 -0.23158652 0.044955462 -0.06383461 0.25416195 0.14480352
-0.2684663 0.2565307 -0.042835087 0.19511536 0.11176604 0.2748801 0.151252 0.24257833

fc1.bias f4 [64]
00000000: e0e1 2abe 82d8 c2bd b747 06be d8c4 723d
00000010: 564c 983e a033 8a3d 6019 0abc 587a 803e
00000020: 5f79 8cbe 7e6e 8a3e a490 023e e28b a1bd
00000030: 22c5 e6bd e036 763e c218 bdbd 500f 783e
00000040: 605d 663c 9c35 173e d87e 79bd c04e 713e
00000050: 1460 3fbe a4f1 c13d 58cb bb3d 4a9f 5ebe
00000060: 0adc 983e d4ce e93d 78d8 01be 807e 573c
00000070: 0068 f939 0829 333e 40cc 7abc f89a c33d
00000080: 2a1b 92be d659 8e3e 004d efbd cc3b f0bd
00000090: aa08 f7bd aaf6 973e 9e71 99bd c082 cfbc
000000a0: 9c92 01be a0d4 79bc 6c1b c83d a08f b6bc
000000b0: 642e 9a3e 7016 e33d 503b 87be 78eb 983e
000000c0: 74f6 5b3e 22d7 383e 4ccb 5f3e 246b 6dbe
000000d0: 883d 803d c494 943e 2068 f43d 680c e73d
000000e0: 6eb5 85be 5839 6c3d f874 15bd d00b 793e
000000f0: c0ae 883b 00c6 cb3b e86f 533e 7c8f 943d
-0.16687727 -0.09513952 -0.13113295 0.059269756 0.2974574 0.06748128 -0.008428901 0.2509334
-0.2743635 0.27037424 0.12750489 -0.07888009 -0.11268069 0.2404437 -0.09233238 0.24224591
0.014060348 0.14766544 -0.060911983 0.23565197 -0.18688995 0.094699174 0.09169644 -0.21740451
0.29855376 0.114164025 -0.12680233 0.013152719 0.00047570467 0.17496121 -0.015307486 0.09551042
-0.2853635 0.27802914 -0.116846085 -0.11730155 -0.120621994 0.29680377 -0.07492374 -0.025330901
-0.12653583 -0.015248448 0.09770855 -0.022285283 0.30113518 0.11088264 -0.2641244 0.29867148
0.21480733 0.18050817 0.21854895 -0.23185402 0.06261736 0.2901975 0.11933923 0.11281663
-0.26114982 0.057671875 -0.036488503 0.24320912 0.0041712224 0.006218672 0.20648158 0.0725393

fc2.weight f4 [64, 64]
00000000: 4cf7 e63d 7075 333d aa7e 81bd be42 c0bd
00000010: b8d2 903c 0472 593d ec11 42bd 6065 3abc
00000020: 9621 a4bd 5cd9 1ebd 5cdd 10bd d42d 01bd
00000030: 52e8 873d 20a5 9fbd a4d5 55bd 10a8 813c
00000040: 0047 2e3b b620 8abd b009 c83d a466 483d
00000050: 38e3 10bd aa6c e0bd c0ba e2bb 0600 903d
00000060: e026 5cbd 32f9 debd 6c94 3a3d 1097 9d3c
00000070: a0d4 e23c 805f 813b b065 05bd ec43 cb3d
00000080: 8075 573b 88fa 49bd f02a 1c3d d070 2e3c
00000090: 20dd a9bc a8a6 1c3d 0879 983d 5a5a ea3d
000000a0: 5c7a 6d3d 0851 89bc 7867 b2bc 46c0 ac3d
000000b0: 00dc 9a3b 8c00 da3d 589a ae3d 0a5a b8bd
000000c0: c433 813d 007d 993c a0a6 193c dea8 bc3d
000000d0: 54ac 0bbd 9cf7 a53d d0d0 783d ec91 a93d
000000e0: 3a59 f63d b8b0 b4bc 9853 82bc 844d 92bd
000000f0: c065 203b 3435 45bd 2ad2 cf3d b443 8d3d
00000100: 6017 e5bc 0063 1e3c b01a 0a3c 20d3 7dbc
00000110: c4cc 983d 6ac3 bebd d0f9 d0bc 0eb6 f6bd
00000120: 683b 9b3c 50ad a93c 8024 8cbb 1040 8fbd
00000130: 78ee 64bd eeb3 c0bd 80ff 583d 983e bebc
00000140: 003d f33c 6891 d83d deda cd3d 6688 b53d
00000150: 50ae 0e3c 8aed e9bd 705e e83d ccc8 ad3d
00000160: 388b 673d e27c 8cbd 1e04 a8bd 642e 073d
00000170: 0c3b a13d 2ade 85bd 6e97 c3bd 34b4 ef3d
00000180: 3801 c13d b0b0 b6bd 50a1 b0bc 80aa dabc
00000190: 827f 99bd c8c7 29bd 708f 913d 1ce8 12bd
000001a0: be69 a8bd d89c 2bbd e066 633c 2e6d 8c3d
000001b0: 8469 05bd e083 9ebd 6082 d73d 688b 0abd
000001c0: 0079 33ba 7635 8dbd 5cde 45bd a021 a63b
000001d0: a069 13bc de03 e9bd 443a 3d3d e4f6 523d
000001e0: 2a2b 953d d8af 783d 9832 db3d 561f 813d
000001f0: 2016 1c3d 06a8 ad3d 5c45 723d 1ca7 2c3d
00000200: 7c11 773d 8021 d63b 5c5f 7fbd f474 cfbd
00000210: c8b6 703d 80fc 9b3d 10c5 493d d621 a43d
00000220: 082b 9bbd 108c 12bc 7cf1 493d a8c1 c7bd
00000230: 9ce0 20bd 7815 4a3d 326d aebd 9873 2bbd
00000240: a86f a1bc 9463 8c3d 1e3e 98bd 189f dfbc
00000250: 0298 bb3d 6854 8c3d 80a8 3c3d 707e 7a3c
00000260: 3cd2 733d 50a9 ecbd 407d 9abd 4ce8 a13d
00000270: 701d 513c 94cb 42bd 00ac f23c 0048 d93c
00000280: ecbd cb3d 723c ea3d 6853 313d 58af fa3d
00000290: 380e b3bc 9e89 8bbd bccf 7a3d dcd4 fdbd
000002a0: 102d 3dbc 3c52 073d ecc6 a6bd d0f2 07bd
000002b0: 62ad 9b3d 2a29 a93d 20d5 0c3d 10b2 893d
000002c0: f0cc f13d 9427 bd3d a28a 83bd 2019 75bc
000002d0: 08b2 db3c 3ab0 d13d ca62 a63d 064b bb3d
000002e0: 9209 febd 20e1 d2bd d283 ea3d 98ba df3c
000002f0: 002f b0bd c0e7 95bd e894 e0bd 60ab 19bd
00000300: d06f 4bbd faf7 92bd 402d 093c 8c26 05bd
00000310: 44b1 2c3d 8a5c f03d 7a1a 833d 6009 ef3c
00000320: f07b cc3d 38f3 cd3d c857 34bd 2409 983d
00000330: 341a c8bd 30f0 413d 0028 9338 0058 cab9
00000340: a897 e53d e21f e33d 5c33 61bd 32b0 ccbd
00000350: e0f3 d8bc 0a67 cfbd eaeb fdbd c07e f8bb
00000360: 0024 5d3b a8ed a23d 704f 6d3d 142c 96bd
00000370: f0a6 4d3c d0c6 5abc 1ec6 993d b4f2 a43d
00000380: 4013 98bc 1c80 82bd 6094 023c 005a 6abd
00000390: a483 b73d e837 1d3d 107b 063d 6e85 d5bd
000003a0: 94c6 523d f2f3 f8bd f429 9c3d 14fb 063d
000003b0: e2c2 bf3d c6ee a2bd 24f6 953d 9c14 5bbd
000003c0: 002e c23a b077 68bd 90ef c43c c274 c3bd
000003d0: ae54 cc3d 9088 45bc 6046 83bd 0245 92bd
000003e0: fc47 f03d 826c b63d 187d a4bd 3862 abbd
000003f0: dcba 3bbd 5000 0a3d b4bc cebd ac30 d2bd
0.11277637 0.04381317 -0.063229874 -0.0938773 0.017678604 0.05308725 -0.047380373 -0.011376709
-0.080142185 -0.03878151 -0.035367355 -0.031537846 0.066361085 -0.07795167 -0.052205697 0.015827209
0.0026592612 -0.0674452 0.09767473 0.04892601 -0.035372943 -0.10958226 -0.006919235 0.070312545
-0.05374801 -0.10887374 0.045551702 0.019237071 0.027689278 0.003948152 -0.03256768 0.099250644
0.0032876432 -0.04931119 0.038126886 0.010647014 -0.020735323 0.038244873 0.0744496 0.114430144
0.05797802 -0.016762272 -0.021777853 0.08435111 0.004725933 0.106446356 0.085255325 -0.090015486
0.06308702 0.018736362 0.009378105 0.09211896 -0.03409989 0.08103868 0.060746014 0.082797855
0.12028737 -0.022056922 -0.015909001 -0.07143691 0.002447471 -0.04814644 0.101475075 0.06897679
-0.027965248 0.009667158 0.008429214 -0.015492231 0.07460931 -0.09314616 -0.025509745 -0.12046443
0.018949226 0.020712525 -0.004276812 -0.06994641 -0.055891484 -0.09409319 0.05297804 -0.023223206
0.029692173 0.10574609 0.10051511 0.088639066 0.0087085515 -0.1142226 0.113461375 0.084855646
0.056529254 -0.06859757 -0.0820391 0.033003226 0.078725904 -0.06536515 -0.09550367 0.11704293
0.094240606 -0.08920419 -0.021561295 -0.026692629 -0.07495023 -0.041450292 0.07107437 -0.035865888
-0.08223294 -0.041897625 0.013879508 0.06856762 -0.03257133 -0.07739997 0.10522914 -0.033824354
-0.00068463385 -0.068949625 -0.04830776 0.0050699264 -0.008997351 -0.11377691 0.046198145 0.051504984
0.072836235 0.060714573 0.10703009 0.06304805 0.038107038 0.084793136 0.059148178 0.042151555
0.06031941 0.006534755 -0.0623468 -0.10129729 0.058768064 0.0761652 0.0492602 0.08014266
-0.07576567 -0.008944526 0.049302563 -0.09753734 -0.039276704 0.04933688 -0.08516921 -0.041858286
-0.019706562 0.068549305 -0.07433723 -0.027297541 0.091598526 0.06852037 0.04605913 0.015288934
0.059526667 -0.11555731 -0.07543421 0.07905635 0.012763366 -0.04755743 0.029623032 0.02652359
0.09948334 0.1143731 0.043292433 0.122404754 -0.021857366 -0.06813358 0.061233267 -0.12394115
-0.011546388 0.03303741 -0.0814341 -0.03319055 0.076014295 0.082598045 0.03438294 0.06723416
0.11806667 0.092360646 -0.064229265 -0.014959604 0.02681829 0.10238691 0.08124311 0.09145169
-0.12404169 -0.102968454 0.11450924 0.027310655 -0.086027145 -0.073195934 -0.109659016 -0.03751695
-0.04966718 -0.07176204 0.008372605 -0.032507464 0.04216124 0.117364004 0.064015344 0.029179275
0.09984577 0.10056156 -0.044029027 0.074236184 -0.09770623 0.0473482 7.016957e-05 -0.00038594007
0.11210567 0.110900655 -0.05498062 -0.09994544 -0.026483476 -0.10127075 -0.12398513 -0.007583469
0.0033743382 0.079554856 0.057937086 -0.07332626 0.012552008 -0.013353065 0.07508491 0.080541044
-0.018563867 -0.06372091 0.007969946 -0.057214737 0.08960655 0.038383394 0.032832205 -0.1042584
0.05145891 -0.12155904 0.076251894 0.03295429 0.09363343 -0.07955699 0.07322338 -0.05348645
0.0014814734 -0.056754768 0.024040014 -0.09543754 0.09977089 -0.012056485 -0.06409907 -0.071420684
0.1173248 0.08907415 -0.08031672 -0.08368343 -0.0458325 0.033691704 -0.10094586 -0.1026319

fc2.bias f4 [64]
00000000: a666 e8bd 346a c43d daf0 de3d 5e2a ca3d
00000010: c05b c83c b807 cd3d f016 673c 669c a2bd
00000020: f423 013d 40a8 6fbd 9a11 cf3d 9233 d3bd
00000030: 0058 85b9 b0c9 abbc 52e2 b4bd f6c2 f5bd
00000040: 4816 473d 2c36 923d 585c 053d f4bb 35bd
00000050: 4022 d03b a64d d73d 90ed 523d 4068 283c
00000060: b6de d0bd e8ca d13d a889 fabc cc8d a03d
00000070: d847 a23d a0e1 edbc 74c4 0bbd 4417 16bd
00000080: 4872 5c3d 0cd4 55bd b6a2 a5bd 8cd0 b8bd
00000090: 10a6 3ebd 5ebf 803d 6a50 96bd 2a5c 81bd
000000a0: 40fb 50bc f2d9 8ebd 3ec3 dabd ac03 02bd
000000b0: 3c44 a3bd 2815 5cbd 0a20 893d 1ebf 9c3d
000000c0: a0f3 993b ecf1 733d 6e6e cd3d 0ab4 d4bd
000000d0: 881b 85bd 0092 28bb 54e6 413d 2c97 d1bd
000000e0: 48b1 93bc de52 cfbd e829 e93d 62e0 c03d
000000f0: 60e2 c83b 9058 6a3c f240 d23d 7004 9c3d
-0.11347704 0.09590569 0.108857825 0.09871362 0.024457812 0.10011238 0.01410459 -0.07939987
0.03152843 -0.058510065 0.10110779 -0.10312571 -0.00025433302 -0.020970196 -0.0883223 -0.120000765
0.048605233 0.07139239 0.03255877 -0.0443687 0.006351739 0.10512857 0.05149609 0.010278761
-0.10198729 0.102437794 -0.030583218 0.078395456 0.07923859 -0.02903825 -0.0341229 -0.03664328
0.053819925 -0.052204177 -0.08087675 -0.09024152 -0.04654509 0.062865004 -0.073395565 -0.06316407
-0.012755215 -0.069751635 -0.10681771 -0.031741783 -0.07971999 -0.053731114 0.06695564 0.0765364
0.004698232 0.059556887 0.100308284 -0.10385902 -0.06499392 -0.0025721788 0.0473388 -0.10233912
-0.01802887 -0.101232275 0.11384946 0.094177976 0.0061305016 0.0143033415 0.102662936 0.07618034

fc3.weight f4 [1, 64]
00000000: 1c79 5ebd 1ea7 8cbd 7ceb 37bd 1086 843c
00000010: a0da cabc fcb5 17bd 7a49 cdbd a870 98bd
00000020: 64f8 18bd e01e ab3d 18b0 e2bc b03e 9c3d
00000030: a4ce a5bd e242 dabd a810 89bd 6472 c8bd
00000040: 0ac9 efbd f414 3a3d 6079 68bc f494 0dbd
00000050: dcaa fabd 6468 d43d 304f 2b3d 7ea2 d9bd
00000060: f61e 8c3d 983b 20bd 400c a4bd e068 17bc
00000070: 9c6f 89bd 3e83 f23d daf2 983d 60bf 54bd
00000080: 80be ecbc 8858 81bd c0ff 183b f44a 4ebd
00000090: 825c e33d c060 62bd fc10 9a3d 6452 033d
000000a0: 9aba 8fbd a06f f53c 72d4 b13d 184a d7bd
000000b0: 3a7d e83d 3058 6cbc 9cac 80bd 509a 463d
000000c0: f89f ad3c fcb5 8bbd fc7a 8bbd b85c d53c
000000d0: e2b7 923d fcfe c2bd 507c 443c 009e e8bb
000000e0: f061 74bc 0090 523d ba63 aebd e019 cabd
000000f0: 9a43 b1bd 5e9b ee3d 90a1 48bc 00f8 59b9
-0.054314718 -0.068678126 -0.04490231 0.016177207 -0.024762452 -0.03703879 -0.1002378 -0.074433625
-0.03734626 0.08355498 -0.027671859 0.07629144 -0.08096054 -0.10657288 -0.0669263 -0.09787443
-0.11708267 0.04543014 -0.014189094 -0.03456588 -0.1223962 0.103714734 0.041823566 -0.10626696
0.06841843 -0.039119333 -0.08010149 -0.009241313 -0.06710741 0.11841439 0.07468195 -0.051940322
-0.028899431 -0.06315714 0.0023345798 -0.05036445 0.11101629 -0.05526805 0.07522771 0.032060996
-0.07018013 0.029960454 0.08683099 -0.10512179 0.1135201 -0.014425322 -0.062829226 0.048487008
0.021194443 -0.0682182 -0.06810567 0.026045188 0.07163979 -0.09521291 0.011992529 -0.007098913
-0.014915928 0.05140686 -0.08515115 -0.098682165 -0.08655472 0.11650728 -0.012245551 -0.0002078712
