data/models/rl_aca_20250316_215102.pt (torch, 23198 bytes, 5 tensors)

fc1.weight f4 [64, 11]
000000 80 33 d9 3c 26 82 8a be 28 9c 63 3e 6e 91 5f be
       0.026513815 -0.2705242 0.22227538 -0.21832821
000010 be 6f 20 be f0 b9 94 3e 10 14 9b 3c bc 23 b4 3d
       -0.15667626 0.2904811 0.018930465 0.08795878
000020 2c 1b 6f bd 3c 0f e9 3d b0 18 26 3d 01 e4 94 be
       -0.058375522 0.11379859 0.040550888 -0.29080203
000030 88 1b 62 3e b4 95 92 3e 66 d7 48 3e d6 b1 2c be
       0.22080815 0.2862984 0.19613418 -0.16864714
000040 b9 21 31 be 70 4a d1 bd e0 34 63 3e 5a cd 37 be
       -0.1729802 -0.10219276 0.22188139 -0.17949429
000050 42 0a 2f be 68 41 0e 3d c4 29 11 3e 00 f4 17 bb
       -0.17093757 0.034730345 0.14176089 -0.0023186207
000060 52 6f ae bd 9e d1 c2 bd 89 dd 27 be b7 67 11 be
       -0.085173264 -0.095126376 -0.16393103 -0.1419972
000070 c8 a8 7a bd e0 f2 3d bd e3 c4 48 be 86 47 57 be
       -0.06119612 -0.0463742 -0.19606356 -0.21023378
000080 ec 14 47 3e 56 44 17 be 54 5b 76 3e 5c 7f 4f 3e
       0.19441575 -0.14772162 0.24058276 0.20263427
000090 84 e7 ea 3d 60 4b a1 3d 61 de 37 be c0 e7 da bc
       0.11469939 0.07875705 -0.17955925 -0.026721835
0000a0 70 c2 75 3d c4 bd 44 be f0 76 35 be a4 66 0c 3e
       0.059999883 -0.19213015 -0.17721152 0.1371103
0000b0 4e db 35 be 70 88 9d 3d 52 a1 7d be 97 d6 0a be
       -0.1775944 0.07692039 -0.2476857 -0.13558422
0000c0 24 04 55 bd 4a 79 95 be ec 65 c6 bd 4c e4 4c 3e
       -0.052005902 -0.291941 -0.09687409 0.20008963
0000d0 2a 29 6e be 1a ba ec bd 58 9e 4b 3e a8 b2 26 3e
       -0.2325789 -0.115589336 0.19884622 0.1627909
0000e0 b4 a3 8b be e8 e8 93 3d 48 97 b0 3d e8 03 09 bd
       -0.27273333 0.07222158 0.086226046 -0.03345099
0000f0 f2 71 14 be 62 a2 8a 3e 30 06 92 3d 90 5c e7 bc
       -0.14496592 0.27077013 0.071300864 -0.02824238
000100 78 1a 43 be dc 40 57 3e f0 ae 33 3e a0 ed 67 bc
       -0.19053066 0.21020836 0.17547202 -0.014155775
000110 ab da 1c be 0d 85 51 be 1c ad 8d 3e ac 32 b6 bd
       -0.1531779 -0.20460911 0.27671134 -0.08896384
000120 38 94 50 be ac 59 70 3e 44 62 67 3e 62 e8 4f be
       -0.20369041 0.23471707 0.22596079 -0.20303491
000130 9f 8f 21 be 44 ba c1 3d 10 28 87 3e 24 35 8d bd
       -0.15777443 0.094593555 0.26397753 -0.068949014
000140 c8 bb a8 bd 02 ce 2c be 10 a4 b9 3d ec 41 83 3e
       -0.082389414 -0.1687546 0.090644956 0.25636232
000150 1e 06 79 be d0 50 a5 3d 41 00 96 be 32 41 fc bd
       -0.2431874 0.080720544 -0.2929707 -0.123171225
000160 10 01 18 bd e6 13 78 be 4c 73 a3 3d 5c 31 6e 3e
       -0.03711039 -0.2422634 0.079809755 0.23261017
000170 96 cd 75 be aa 83 98 be 98 ab 71 be 88 b0 36 bd
       -0.24004206 -0.29787952 -0.23600614 -0.044601947
000180 ba de 80 3e 7e 7c 95 3e 70 d0 69 3d a0 dc 4a bd
       0.25169927 0.29196543 0.057083547 -0.04952681
000190 80 84 05 3b 90 60 38 3e 32 4d 8b 3e 30 88 51 3d
       0.0020373166 0.18005586 0.27207333 0.05115527
0001a0 da 8f 9d bd 20 47 4c bc 40 37 18 3d d8 a3 c6 3d
       -0.07693453 -0.012468129 0.037162066 0.096992195
0001b0 f4 17 9a 3d 24 3e be 3d 70 fd 52 3e 0c 99 71 3e
       0.075241 0.09289196 0.20604491 0.23593539
0001c0 5c fc 4f be 0c a2 99 3e a8 67 ce 3d 70 36 f6 bc
       -0.20311111 0.30006444 0.100783646 -0.030055255
0001d0 b0 77 26 be 8e 9d 29 3e 40 6d 86 3e b2 67 8c be
       -0.16256595 0.16564009 0.26255226 -0.27422863
0001e0 33 58 1d be 8a 96 0a 3e b8 39 77 3e e8 3f 15 3d
       -0.15365677 0.13533989 0.24143112 0.0364379
0001f0 bc e2 98 be b0 f3 70 3e 60 50 9b 3c cc 03 df bd
       -0.29860485 0.2353046 0.018959224 -0.10889396
000200 f8 70 45 3e b0 3f 74 bd a4 17 39 3e a2 e1 56 be
       0.19281375 -0.05963105 0.18075424 -0.2098451
000210 78 e7 30 3d 7d 49 67 be 78 18 b0 bd 9c 71 55 be
       0.043189496 -0.22586627 -0.08598417 -0.2084412
000220 75 24 11 be 68 6e 28 3d 84 2f 44 be 22 27 32 3e
       -0.14174064 0.041120917 -0.19158751 0.1739774
000230 5e a6 8d 3e 7c 88 aa 3d c0 33 3c bd aa df b3 bd
       0.2766599 0.083268136 -0.04594779 -0.08782895
000240 b1 ac 1e be 00 76 9c 3c 8c c7 99 3d a0 6a d0 3d
       -0.15495564 0.019099236 0.07508764 0.10176587
000250 50 71 66 3e 8c da 63 be d4 55 4e 3e c0 bd 7b 3e
       0.22504163 -0.22251338 0.20149928 0.24584103
000260 b8 4b 6c 3e 8e 22 0d 3e a6 4e 78 be a0 23 56 3c
       0.2307576 0.13782713 -0.24248752 0.013070017
000270 16 24 4b be a2 1e 37 be a4 d2 e3 bd 32 3d 04 3e
       -0.19837984 -0.17882779 -0.11124161 0.12913969
000280 a4 12 24 3e 08 6c bd bd 44 1c 6e be 78 71 17 3e
       0.16022736 -0.09249121 -0.2325297 0.14789379
000290 4c 99 ff 3d 28 7c 7f 3e 36 ac 02 be 50 da ef bd
       0.12480411 0.24949706 -0.12761006 -0.11711562
0002a0 40 2e e1 bb 28 cb 86 3d ba da 84 bd ac e0 3a be
       -0.0068719685 0.06581718 -0.06487031 -0.18249768
0002b0 62 4a 96 be fc bc 33 3e 84 4b 00 3e d2 19 28 be
       -0.29353625 0.1755256 0.12528807 -0.164161
0002c0 18 b5 66 3e e4 f6 7b 3e 68 c9 ff 3d 7c 49 56 be
       0.2253002 0.246059 0.12489587 -0.2092647
0002d0 ca 4e 85 bd 92 68 39 3e f4 c0 b7 3d e4 96 97 be
       -0.065091684 0.18106297 0.0897235 -0.29607308
0002e0 ac ea 75 3e 68 b7 78 be 21 92 5b be 98 0f 64 3e
       0.24015301 -0.24288714 -0.21442463 0.22271574
0002f0 a8 51 46 3d 9c 0d 97 3d 8e 3c 65 be fc 5b 0c 3e
       0.048417717 0.07375643 -0.22386381 0.13706964
000300 f8 b6 a6 3d 8a 83 1b 3e b0 0f 08 bd 1e 78 8a be
       0.08140367 0.15186897 -0.033218086 -0.27044767
000310 7c 76 9b 3d e3 0b 33 be 54 53 6d 3e 6a b3 08 be
       0.075909585 -0.17485003 0.23176318 -0.13349691
000320 34 29 82 be 0b e0 27 be e8 a7 14 3e 48 6e 50 be
       -0.2542206 -0.1639406 0.14517176 -0.20354569
000330 80 f4 f7 3c 7a 4a 8a 3e 38 df 15 3e c5 15 75 be
       0.030267954 0.27009946 0.14635932 -0.23934086
000340 d8 37 76 3d 98 74 17 3d 94 14 75 3e 62 97 45 be
       0.06011185 0.036976427 0.23933631 -0.19296029
000350 eb 38 7b be 18 cc 34 bd a0 eb b0 3d a7 32 89 be
       -0.24533431 -0.04413995 0.08638692 -0.26796457
000360 fc af 98 3d c3 d5 60 be aa f1 23 be c0 1f 4a bd
       0.07455441 -0.21956544 -0.16010156 -0.049346685
000370 8c e5 3c be dc 25 3f 3e 80 ec df bb 98 17 33 bd
       -0.1844694 0.18666786 -0.006833613 -0.043723673
000380 18 57 7b bd 32 20 98 3e 8c e4 a4 bd 44 e2 8c 3e
       -0.061362356 0.29712063 -0.08051404 0.27516377
000390 92 6a 46 be 08 f6 20 3e 76 52 2b 3e 44 e8 51 3e
       -0.19376591 0.15718853 0.16730675 0.20498759
0003a0 c8 50 13 bd a0 8d 8b 3e b4 a5 60 3e c2 95 da bd
       -0.03596571 0.2725649 0.2193821 -0.10673095
0003b0 98 3c 99 be e4 a5 7d 3e b4 b9 89 3e 08 78 a8 3d
       -0.29929042 0.24770314 0.26899493 0.08226019
0003c0 f8 7d e9 3d aa 1f 36 3e 12 c7 8c be 90 e6 af 3c
       0.1140098 0.17785516 -0.2749563 0.021472245
0003d0 1e e9 ba bd 5e ea 92 be 8c 8f 05 3e 8a 55 98 be
       -0.09126495 -0.28694433 0.1304304 -0.2975276
0003e0 2c 1b 90 3d a0 5b 5c be 44 2f b4 3d 5c 98 6a 3e
       0.070364326 -0.21519327 0.08798078 0.22909683
0003f0 78 55 d0 3d ab 08 2f be 44 09 a5 3d 91 50 04 be
       0.10172552 -0.1709315 0.08058408 -0.12921359

fc1.bias f4 [64]
000000 75 f1 16 be e8 fe 57 3e a0 00 3d bc 02 7a 65 be
       -0.14740546 0.21093333 -0.011535794 -0.22409824
000010 2a 5d 8c bd 54 e5 21 3e f0 15 98 bd 34 d6 86 bd
       -0.06853707 0.15810138 -0.07426059 -0.06583825
000020 ec b5 da bd 5c 11 b8 3d 60 63 47 3e c0 9e c1 bb
       -0.1067923 0.08987686 0.19471502 -0.005908817
000030 18 3d ec 3d 60 1f ef 3d b8 a5 91 3e 76 7d 91 3e
       0.1153509 0.11675906 0.28446746 0.28416032
000040 cc 78 a2 3d 7d 85 28 be f4 fd 4e 3e 23 fa 0c be
       0.079331964 -0.16457172 0.20214063 -0.13767295
000050 90 62 80 3c 18 1f 84 3e d4 ee 82 3d 24 e8 8a 3e
       0.015671998 0.25804973 0.06393209 0.27130234
000060 02 0f e9 bd ec 7e a2 3d 7c 9c 76 3e 54 53 21 be
       -0.11379816 0.07934365 0.24083132 -0.15754443
000070 88 a3 25 3d 64 db 88 be 26 d1 03 be 24 eb be bd
       0.04043916 -0.26729882 -0.12872753 -0.09322193
000080 00 be 1d 3e 64 30 77 be ca 21 93 3e 18 11 56 3e
       0.1540451 -0.24139553 0.28736717 0.20904958
000090 a8 ed 46 bd e5 5b 82 be e4 85 53 be a8 59 1d bd
       -0.04856649 -0.25460735 -0.20656544 -0.03841558
0000a0 b6 b2 84 3e 3c ff 25 3e b2 92 48 be e0 06 85 3e
       0.25917596 0.16210645 -0.1958721 0.25981808
0000b0 52 d5 01 3e bc 89 0a 3e e0 b5 17 3e 1c e5 6d 3e
       0.12679031 0.13529104 0.14815474 0.2323193
0000c0 e6 b1 4b be 60 94 a0 3c 74 9e 7a 3e 73 57 22 be
       -0.19892082 0.019602 0.24474508 -0.15853672
0000d0 2a af 8c 3e 88 1f 65 bd be 61 80 3e 5e b7 4c be
       0.2747739 -0.055938274 0.2507457 -0.19991824
0000e0 c6 94 bd bd e4 9f fd 3d 2e 36 1b 3e b0 6d 7e 3d
       -0.09256892 0.12384012 0.15157387 0.062116325
0000f0 94 0f d6 3d e8 5b 66 be 21 34 91 be e0 d0 7f 3e
       0.1045219 -0.22495997 -0.28360084 0.24982023

fc2.weight f4 [64, 64]
000000 b0 36 19 3c 64 fb 32 bd 66 0a ec 3d b0 47 49 3d
       0.009351417 -0.043696776 0.11525421 0.049140632
000010 c2 ae f3 bd 94 a4 92 3d b0 c2 b5 3d 8c 58 41 bd
       -0.11898567 0.07160297 0.08875024 -0.047203586
000020 86 dc 94 bd d6 4c d5 bd 30 79 67 3c be d1 f0 3d
       -0.07268624 -0.10415046 0.014128014 0.11758755
000030 3a ab a3 bd e8 ab ea 3d da f0 d4 3d fa 91 fb bd
       -0.07991643 0.1145857 0.10397501 -0.12283702
000040 5c 18 35 3d 30 df 9f 3c 5c 65 de 3d e0 da 4d bd
       0.044212684 0.019515604 0.108591765 -0.050257564
000050 20 89 a3 bd 70 d5 37 3d e4 92 1d bd fc 3c 31 bd
       -0.07985139 0.044881284 -0.038470164 -0.04327105
000060 d0 e4 a0 3d 80 51 8c 3a 1e d8 9e 3d 00 c7 ea 3c
       0.078561425 0.0010705441 0.07756065 0.028659344
000070 54 22 2f 3d a4 4d 55 bd 00 f8 92 bd e6 0a cf 3d
       0.042757347 -0.052075997 -0.071762085 0.101095006
000080 c0 17 64 3b f0 01 b4 3d d0 33 14 bc 08 21 bb bd
       0.0034804195 0.08789432 -0.009045556 -0.091371596
000090 3c 0d 30 bd c8 63 a8 bd 66 1d f6 bd 90 fa a0 3c
       -0.04298137 -0.08222157 -0.12017326 0.019650728
0000a0 24 9f 4f 3d b0 60 9f 3d 50 e5 c2 3d e8 b2 98 bd
       0.050688878 0.077821136 0.09516394 -0.07455999
0000b0 fc 96 f7 3d ac ed bb 3d 98 b4 f5 bd e0 7c 3c bd
       0.12089345 0.09176192 -0.11997336 -0.046017528
0000c0 08 6a aa bd f0 22 ce bd a0 4d 22 3d 24 96 62 3d
       -0.08321005 -0.100652575 0.03962481 0.055318967
0000d0 08 fe e5 bd 52 69 ab 3d 4a a9 9f bd 94 b7 c0 bd
       -0.11230093 0.08369698 -0.07795961 -0.09410015
0000e0 32 58 cd 3d 5c 64 a8 3d 24 c4 d0 bd d6 0a da bd
       0.100265875 0.08222267 -0.10193661 -0.10646598
0000f0 38 44 e7 3d 6e 64 e8 3d b4 8d 34 3d 6c 52 a2 3d
       0.112923086 0.113472804 0.04408045 0.07925877
000100 e0 fc bb bb ee 46 96 bd 90 90 e7 bc 76 6b eb 3d
       -0.005736932 -0.073377475 -0.028267175 0.11495106
000110 f0 83 17 bc 20 31 ce bc 1e f3 e4 bd 2a 17 ad 3d
       -0.009247765 -0.025169909 -0.111791834 0.08451684
000120 fc 61 86 3d 50 80 08 3c 40 e8 27 bb ec 81 b7 3d
       0.06561658 0.008331373 -0.002562061 0.089603275
000130 92 54 f8 3d 1c 7e 3e bd a4 73 62 3d ec 6e 70 3d
       0.121255055 -0.046506986 0.055286065 0.058699533
000140 08 3a a2 bc 20 f0 c3 bb 38 95 97 3d c4 53 c7 bd
       -0.019803062 -0.005979553 0.07401508 -0.09732774
000150 b4 17 1f bd 80 9f ed 3a c0 6e 8c bc bc 74 1b 3d
       -0.038840964 0.00181292 -0.017142653 0.037953123
000160 9c d5 3e 3d 0e 57 f0 3d d8 f0 04 3d 80 7f 40 3b
       0.046590433 0.11735354 0.03245625 0.002937287
000170 06 15 d0 bd 18 92 8a bc 30 7f 86 3d c0 f5 f5 bb
       -0.1016026 -0.016915366 0.06567228 -0.0075061023
000180 aa 3b 86 3d 80 c5 5a 3b 00 de 25 bd cc f0 12 3d
       0.06554349 0.003338188 -0.04049492 0.035874173
000190 82 97 b9 bd da 02 f7 3d f4 91 08 3d c8 2f c4 bc
       -0.09062101 0.12061091 0.033342317 -0.023948565
0001a0 20 dc 8e bb b4 68 d2 bd fc be 2a 3d 40 cc 91 3c
       -0.004359737 -0.10273877 0.041686043 0.01779759
0001b0 d0 ab c2 3d c8 14 11 bd fa db bc bd d0 63 36 3c
       0.09505427 -0.03542021 -0.09221645 0.011132196
0001c0 4e bd ef bd d8 3d 66 3d 22 a3 b3 bd 4c 19 22 3d
       -0.11706029 0.056211323 -0.087713495 0.039574906
0001d0 80 40 0c bc 32 43 8a 3d 40 62 c4 3d 9c e0 29 3d
       -0.0085603 0.06751098 0.09589052 0.04147397
0001e0 5e d3 b1 3d 80 00 8b ba 7c 5d fc bd 40 80 b4 bb
       0.08682893 -0.0010605007 -0.12322518 -0.0055084527
0001f0 40 08 4d bb 80 f1 2e bd 38 68 cf bc 80 0f 90 bc
       -0.0031285435 -0.04271078 -0.02531825 -0.017585516
000200 2c fd 36 bd d8 3c ca bd 24 20 80 bd ac aa 9d bd
       -0.044675037 -0.09874886 -0.0625613 -0.07698569
000210 10 a0 32 3d 34 6c c2 3d c0 08 a6 bd 32 0e a8 bd
       0.04360968 0.09493294 -0.08107138 -0.082058325
000220 f4 01 d4 bd 88 7d 21 bd b0 85 32 3d 22 6f 80 3d
       -0.10351935 -0.039426357 0.043584526 0.06271197
000230 92 76 a1 3d aa 51 8e 3d 40 c5 94 3b 9a a2 dd 3d
       0.078839436 0.0694917 0.0045401156 0.108220294
000240 a6 c1 80 bd ce 08 ba bd 32 ff cc 3d cc da a2 3d
       -0.062869355 -0.090837106 0.10009612 0.079518884
000250 b8 a8 a3 3d 46 ad bb bd 08 cc 91 3d 86 7c d0 bd
       0.07991165 -0.09163909 0.07118994 -0.10180001
000260 80 7e 28 bd b4 39 d2 bd 18 41 8d 3c d0 f6 bf bd
       -0.041136265 -0.10264912 0.017242953 -0.093732476
000270 24 1e 6c bd 36 0c 80 3d 50 35 91 bc b8 74 2c bd
       -0.05764593 0.06252329 -0.017725617 -0.0421035
000280 da d8 e4 bd 20 3f 73 bd 28 dc cd bd 00 8f 1e 3b
       -0.11174174 -0.059386373 -0.10051757 0.0024194121
000290 f4 65 b4 3d ac d4 c8 bd 80 82 ef 3b e8 af 90 bc
       0.088085085 -0.09806189 0.007309258 -0.017662004
0002a0 00 05 ac bd f0 f2 5c bd 30 62 63 3d f0 99 62 3d
       -0.08399391 -0.05394262 0.05551356 0.055322587
0002b0 62 36 e5 3d 58 83 3e bd d2 4d eb 3d f0 47 be 3d
       0.11192013 -0.046511978 0.114894524 0.09291065
0002c0 00 5b d1 3a 58 4f bd bc f8 f7 99 3d e0 40 d2 3d
       0.0015972555 -0.023109123 0.075179994 0.1026628
0002d0 78 e6 be 3d a4 de 25 bd 74 07 17 3d 40 b5 ec 3b
       0.09321302 -0.04049553 0.036872342 0.007223755
0002e0 54 6a 64 3d 08 f8 f9 bd ae 11 ac 3d 80 f6 d8 bd
       0.055765465 -0.12205511 0.0840181 -0.10593891
0002f0 38 10 77 3d 20 8e c2 3d b8 0b b8 bd fe 66 cf bd
       0.0603182 0.094997644 -0.0898661 -0.10127066
000300 16 75 a5 bd 50 1e 52 bc 2a 47 f8 bd a0 a2 88 3c
       -0.08078973 -0.01282461 -0.121229485 0.016679108
000310 94 5d 76 bd 2c 94 a6 bd 40 c9 73 3d 42 83 f9 3d
       -0.060147837 -0.0813373 0.0595181 0.121832386
000320 78 ab 21 bd 44 81 1f 3d 6a b7 e9 bd 90 e9 04 3c
       -0.039470166 0.038941637 -0.114119366 0.008112326
000330 60 a6 15 bd e4 8b 82 3d 10 22 9d bc 8e f6 ce 3d
       -0.03653562 0.06374338 -0.019181281 0.1010562
000340 78 29 f8 3c 80 98 d4 bb 44 5b 51 3d 2c 85 bf bd
       0.030293211 -0.006487906 0.05111243 -0.093515724
000350 74 a8 81 bd a0 53 37 bc 60 92 d6 bb e0 1c 8c 3b
       -0.06330958 -0.011189371 -0.006548211 0.004275903
000360 a8 26 eb bd 46 21 a4 bd 30 84 73 bd e4 df f8 bd
       -0.114819825 -0.08014159 -0.059452236 -0.12152079
000370 ee 07 c8 bd a8 69 7f 3d 6a e1 d2 bd 0e 7e bf bd
       -0.097671375 0.06235662 -0.102969006 -0.09350215
000380 b8 e8 e7 3c 1e 93 e6 bd f4 4b 52 bd a4 be 5b bd
       0.028309211 -0.11258529 -0.051341966 -0.053648606
000390 f4 87 de 3d 66 08 8f 3d d0 8d c5 3d fc c8 cf 3d
       0.10865775 0.06984024 0.09646189 0.101457566
0003a0 d2 98 96 bd d0 3b bd 3c 28 7e d3 3d 06 1a cb 3d
       -0.07353367 0.02309981 0.10326797 0.09917073
0003b0 b0 76 b6 3c 00 55 f9 bb 20 1c cd bb 30 66 a4 3d
       0.022273391 -0.0076090097 -0.0062594563 0.08027303
0003c0 30 4c 77 3c 64 2f 1c 3d 5c 82 87 bd ca e9 f6 3d
       0.015093848 0.038131133 -0.06616661 0.120563105
0003d0 34 8a 40 bd d0 b4 57 bc f0 62 c5 3d 40 55 2d bd
       -0.0470068 -0.013165668 0.096380115 -0.04231763
0003e0 42 1a bb 3d 14 e1 ac 3d d6 6b fc 3d a0 83 b0 3c
       0.09135868 0.08441368 0.123252556 0.021547139
0003f0 14 a4 ac bd 40 86 64 bc 32 55 93 bd 7e fe 8f 3d
       -0.08429733 -0.013948023 -0.07193984 0.070309624

fc2.bias f4 [64]
000000 e0 f8 af 3c 00 6d ff 3b b6 e5 94 bd ee ad 9b 3d
       0.021480978 0.0077949762 -0.072703764 0.07601534
000010 50 51 06 bc 66 13 bd bd cc e8 5f bd 0c d5 48 3d
       -0.008198097 -0.092322156 -0.05466537 0.049031302
000020 1c be 9d 3d 98 23 e7 3d f0 17 7b bd 00 c4 02 3a
       0.07702276 0.11286086 -0.061302125 0.0004988313
000030 00 11 0e 3b 9a 27 ae bd 90 3d d0 bc 9e 48 f9 bd
       0.0021677613 -0.08503647 -0.02541998 -0.12172054
000040 da af 96 3d d0 09 a9 bc e8 ad 39 bd 30 c3 73 bd
       0.0735776 -0.020634562 -0.045331866 -0.059512317
000050 28 0b 4f 3d 04 34 51 3d 94 0e a3 3d 7c a4 c3 bd
       0.05054775 0.051074997 0.07961765 -0.09552857
000060 70 d4 84 3d f0 e4 af bd c6 a6 96 bd c8 3e da 3c
       0.06485832 -0.08588588 -0.07356028 0.026641265
000070 c0 4b 2a bc 7c a7 71 3d 12 d9 d9 bd bc 52 ab 3d
       -0.010394037 0.058997616 -0.10637106 0.0836539
000080 40 a2 7e 3d 60 2c f4 bb 98 d2 70 bd 1c 50 ea bd
       0.062166452 -0.007451579 -0.058794588 -0.11441061
000090 96 73 80 bd 08 43 03 3d b8 98 03 bd 4c a9 6a 3d
       -0.06272046 0.032046348 -0.032128066 0.05729036
0000a0 2c 3f d8 3d 54 19 7e 3d 48 d8 a9 bd 3a 5f a0 3d
       0.10558924 0.062035874 -0.082932055 0.07830663
0000b0 64 c0 26 bd 26 8e be 3d 9c f1 ee bd 68 05 a1 bc
       -0.04071082 0.093044564 -0.11667177 -0.019655898
0000c0 30 92 94 bc 2c 57 36 3d e8 96 2d 3d 7c 2d c5 bd
       -0.018136114 0.044516727 0.042380244 -0.09627816
0000d0 e2 3e 82 bd 6c 60 ad bd c0 b1 8b bd d6 b1 99 3d
       -0.0635965 -0.08465657 -0.068210125 0.07504623
0000e0 b0 28 bd bc 88 d0 16 bd 54 80 59 bd bc 0f 97 3d
       -0.02309069 -0.036819965 -0.0531009 0.07376048
0000f0 28 43 e3 bc 24 49 b5 3d 54 12 02 3d 24 1d 87 bd
       -0.027741984 0.08851841 0.03175576 -0.06597355

fc3.weight f4 [1, 64]
000000 a8 35 2c 3d 1a 73 83 bd 0c 63 aa bd aa 80 8c bd
       0.042043358 -0.06418438 -0.08319673 -0.06860478
000010 70 4b eb 3d 80 c8 f7 bc 68 40 62 3d 06 f2 b4 3d
       0.11488998 -0.030246973 0.055237204 0.08835225
000020 90 ca d4 3c 88 72 af bc e0 1d f7 bd 96 16 96 3d
       0.025975496 -0.021416917 -0.12066245 0.07328527
000030 20 33 8d 3c 40 d4 c0 bb 16 d6 ed 3d bc a1 07 bd
       0.017236292 -0.005884677 0.11613099 -0.033113226
000040 4c f4 60 bd 24 c8 d0 bd 00 23 19 bb 48 f1 44 3d
       -0.05492048 -0.10194424 -0.002336681 0.048081666
000050 c2 ec f2 bd 48 79 99 bd 98 57 56 bd 44 7f 70 bd
       -0.11861564 -0.07493836 -0.05232963 -0.05871512
000060 b6 28 e1 bd 38 be 54 bd 56 38 d7 bd 98 61 a2 bc
       -0.10994093 -0.05193922 -0.10508792 -0.019821927
000070 2c bf 0a bd 72 79 e7 bd 96 a1 c4 3d d0 47 52 3c
       -0.033873722 -0.11302461 0.096011326 0.012834504
000080 f0 ec 34 bd 34 1f a0 bd 60 25 49 3c 58 18 97 bd
       -0.044171274 -0.078184515 0.012276977 -0.0737769
000090 34 a9 94 3d b0 80 86 3d 94 de ec 3d 12 0d b9 3d
       0.072588354 0.06567514 0.11565891 0.09035696
0000a0 88 a9 2d bd 08 50 88 bc 12 1f b2 bd 60 fa 5b bc
       -0.042398006 -0.016639724 -0.086973324 -0.013426393
0000b0 44 9e c7 3d 9c a1 e1 bd aa 88 d6 3d d6 86 b6 bd
       0.09746984 -0.11017153 0.10475285 -0.08912437
0000c0 80 0e f6 3c e0 63 14 bc 8c 20 e3 3d 70 ab 95 3c
       0.030036211 -0.009057015 0.11090192 0.018270224
0000d0 4a 8d c1 bd 60 35 0d 3c 9c 2e 75 3d 00 cf b8 bb
       -0.09450777 0.008618683 0.059858903 -0.0056399107
0000e0 c6 38 bc 3d 10 cb b8 3c 1c dd 7e 3d 0c ac f4 3d
       0.09190516 0.022557765 0.062222585 0.11946878
0000f0 e8 ea 7a bd b4 e9 9a bd 54 fd 1c bd 60 f5 6f bc
       -0.06125918 -0.075641066 -0.03832753 -0.014645904
