data/models/rl_aca_20250316_214107.pt (torch, 23198 bytes, 5 tensors)

fc1.weight f4 [64, 11]
00000000: 9025 b7bd ea06 68be 0ebb 33be 80bb da3b
00000010: 4694 11be f828 323e 19b7 59be cb34 88be
00000020: 509f ef3d 34b9 82be 7047 fc3c d8c6 26be
00000030: 5c59 633e 006e 69bc d24f 1fbe e903 60be
00000040: 3806 8fbe 006c 10bd 704d cfbc 8042 f73b
00000050: 2020 733c 409f 6fbc f022 723e 20f2 f63d
00000060: 101a 17bd 3c6e 513e a0b7 513c aff3 92be
00000070: 883e ce3d a289 78be ec63 933d e084 983c
00000080: d0df d13d d1a0 20be a88c 2d3e e200 48be
00000090: ee55 48be 4439 6b3e 6070 a33c 1e97 45be
000000a0: 386e 32bd a0ac 143e 8ac7 81bd 7033 ebbc
000000b0: 5fdb 16be 4723 6abe 18a5 1ebd 736e 94be
000000c0: 8092 ff3c dc16 9b3d 6007 083c 0c56 86be
000000d0: 18ee 5d3d f5c3 91be c60f 01be 352e 90be
000000e0: c84e 5d3d 88e3 96be c0ca a5bd 0888 183d
000000f0: 58b0 e03d e080 993e 2e9a a7bd 141e 8b3e
00000100: eb38 97be 1c2e a83d 801b eabc 1cd6 713e
00000110: dc16 a4bd 6ce2 833e f4a9 4e3e 723b 4ebe
00000120: e079 cfbc 001d f4bc 5785 1cbe 10e9 bb3d
00000130: 80a1 ddbd 8818 39bd 74b7 0c3e 88b6 8a3d
00000140: 783e 15bd e02d 4d3e a69d 283e 1a2e 883e
00000150: ce42 22be c3cc 76be be91 273e 183d ad3d
00000160: d80e 633e 2e58 913e d0ab 0c3d c004 b33b
00000170: 2870 9c3d 7b3f 5dbe b4e8 4c3e f475 84be
00000180: 785f ac3d 14aa 17be f463 143e 10f5 8c3e
00000190: 4ad7 8a3e 882b 063e 58f4 20be 8877 223e
000001a0: bc17 c33d b4bc 273e f486 8d3e c0a9 173c
000001b0: 8c3c e13d 007d 093e 008f aebc e4ba c03d
000001c0: c81f 41bd e8f7 e53d 4e2f 38be 94ad 543e
000001d0: ebd3 80be 7977 39be 0206 e4bd e09d e33d
000001e0: 8a06 8ebe f071 e53d 0899 c53d b6f0 903e
000001f0: a44d 5d3e 50ea 4cbe 5881 a0bd 588c 26be
00000200: d8cb c73d 4a5a 963e 006a 4bbb a6c5 493e
00000210: 64f0 93bd 9ca2 ce3d 7fef 10be 2434 fa3d
00000220: aad1 143e bc07 5b3e 3e67 cdbd 9157 24be
00000230: cc11 923e 61a7 2cbe 04c0 30be 4828 06bd
00000240: 5029 3b3d 071d 87be 5f17 10be ecbb 2ebe
00000250: f230 973e 128c 91be 4cfa 8e3e 98c3 af3d
00000260: d2d2 0dbe 20ed 74bd 86c3 57be 5033 9cbc
00000270: 44a5 093e 68c0 ab3d 6225 d8bd a4d0 973d
00000280: a415 6fbd 2023 ce3c 7c62 b03d cc55 743e
00000290: 8057 e83c 8866 153d 2ca3 fe3d 0eaf 09be
000002a0: 9c38 053e 4dbe 21be 9eef 013e 0712 66be
000002b0: 4483 953e 624a 29be b083 90bd 7468 eb3d
000002c0: b8ea 643e ece6 a43d d816 71bd 5093 d6bc
000002d0: ca9e f9bd 4033 843e fe9e 883e a933 64be
000002e0: 802e 1f3b 60cf 963e c8e3 9f3d 0493 35be
000002f0: 28dd 08bd 4292 e0bd bc1d 7abd 00fa 38bb
00000300: 0eb5 3f3e 0cca 7dbd 3074 17bd 0ec5 973e
00000310: 00f1 fb3a 709e 8cbe 70dd 5e3d 987a 77be
00000320: d4f7 8b3e f72b 8dbe 3407 9a3e f94a 83be
00000330: e0a6 593e 2099 1d3c 065b 9abd 482d 56be
00000340: 80da 833d 9c97 1bbe 94c1 76be be4d 1e3e
00000350: 7424 c4bd 5038 443e 80d1 e9bb 80ab 733e
00000360: f004 52bd 961f 463e 40b7 88bd 8042 ffbd
00000370: 0a91 b2bd 549a 993e f96b 07be 6426 a53d
00000380: 082a 2c3e 9f4a 87be 80ed 5a3d 86b1 0b3e
00000390: 844a 4e3e 443c 6fbe 081f 703d 0407 6dbd
000003a0: ead8 843e 00a1 e5bc 380b f9bd 6ce0 173e
000003b0: ce7d 6abe ac78 85be 0cd0 823e 673d 7bbe
000003c0: 141a 7cbe 48d8 1bbd b00d 29be ccd6 6ebe
000003d0: c00c 93be 0006 3abb 5cff 613e 5e56 923e
000003e0: 1313 85be c691 83be c885 5b3e d856 7a3e
000003f0: 008b 46bd 53b8 09be 5891 50be b146 34be
-0.08942711 -0.22658888 -0.17551824 0.006675184 -0.14216718 0.17398441 -0.21261252 -0.26602778
0.11700308 -0.25531924 0.030795783 -0.1628679 0.22202057 -0.014247417 -0.15557793 -0.21876492
-0.27934432 -0.035259247 -0.02530548 0.007545769 0.014839202 -0.0146253705 0.2364614 0.120579004
-0.03689009 0.20452207 0.012800127 -0.2870154 0.10070521 -0.24271253 0.07196793 0.018618047
0.10247767 -0.15686347 0.16948187 -0.19531587 -0.1956403 0.22971064 0.019951046 -0.19295928
-0.043562144 0.14518976 -0.06336887 -0.02871105 -0.14732121 -0.2286502 -0.038731664 -0.28990516
0.031197786 0.075727195 0.00830254 -0.26237524 0.054182142 -0.28469816 -0.12603673 -0.28160253
0.05403021 -0.29470468 -0.08095312 0.037239105 0.10971135 0.29981136 -0.08183704 0.27171385
-0.29535612 0.0821192 -0.028577566 0.23616832 -0.080121726 0.25758684 0.2018202 -0.20139864
-0.02532667 -0.029798985 -0.1528524 0.091753125 -0.10821819 -0.04518941 0.13741857 0.06773096
-0.036436528 0.20037031 0.16466388 0.26597673 -0.15845796 -0.24101548 0.1636419 0.08458918
0.22173631 0.28387588 0.03434354 0.0054632127 0.076385796 -0.21606247 0.20010644 -0.2587124
0.08416647 -0.14810973 0.14491254 0.27530718 0.27117378 0.13102543 -0.1571821 0.1586591
0.09526011 0.16380578 0.27642024 0.00925678 0.109978765 0.1342659 -0.021308422 0.094106466
-0.04714945 0.11228925 -0.17986795 0.2076934 -0.2516168 -0.18111981 -0.111339584 0.11114097
-0.27739364 0.112033725 0.09648329 0.28308648 0.21611649 -0.20011258 -0.0783717 -0.16264474
0.09755677 0.2936576 -0.0031038523 0.19704303 -0.07223585 0.10089609 -0.1415386 0.12216976
0.14533105 0.21389669 -0.100294575 -0.16049029 0.28529203 -0.16860725 -0.17260748 -0.03275326
0.045693696 -0.26389334 -0.14071415 -0.17063874 0.2952953 -0.28427178 0.27925336 0.085822284
-0.13849953 -0.059796453 -0.2107068 -0.019067436 0.1344195 0.08386308 -0.10554005 0.07412842
-0.058370247 0.025163233 0.086125344 0.23860854 0.028362036 0.036474735 0.12433466 -0.13445684
0.13009876 -0.1579525 0.12689063 -0.22467814 0.2920171 -0.16532281 -0.070563674 0.11494532
0.22355163 0.08051857 -0.058859676 -0.026193291 -0.1218849 0.2582035 0.266838 -0.22285332
0.002428919 0.2945509 0.07807118 -0.17731863 -0.033414036 -0.109653965 -0.061063513 -0.0028225183
0.1872141 -0.061960265 -0.03697604 0.29642528 0.0019221604 -0.27464628 0.054410398 -0.2416786
0.27337515 -0.27572605 0.3008362 -0.25643137 0.21255064 0.009619027 -0.075368926 -0.20915711
0.0643816 -0.15194553 -0.24097282 0.15459344 -0.095772654 0.19162107 -0.00713557 0.23795891
-0.05127424 0.19347987 -0.06675577 -0.12463856 -0.0871907 0.30000556 -0.13224782 0.08063963
0.16812909 -0.2642412 0.053449154 0.13641939 0.20145613 -0.23362833 0.058623344 -0.05786802
0.25946742 -0.028030872 -0.12160343 0.14831704 -0.22899553 -0.26068628 0.25549352 -0.24535142
-0.24619323 -0.03804806 -0.16509128 -0.23324126 -0.28720665 -0.0028384924 0.22070068 0.28581518
-0.25991115 -0.25697154 0.21437752 0.24447191 -0.048472404 -0.1344922 -0.20367944 -0.17605092

fc1.bias f4 [64]
00000000: 3c83 933e 788f 1bbd 14ac 51be 688c 3abd
00000010: a89b 763e 30c9 693e 9215 433e 347a 5d3e
00000020: 704c e2bc 8096 38bb 4c22 b33d d8b5 233d
00000030: 86c4 973e 92d8 983e 30a2 4e3e 1c82 88bd
00000040: c265 4fbe 369d f5bd c628 463e 1c98 893e
00000050: b32b 96be 7649 9a3e 58df 6f3e 1049 e63d
00000060: 1c15 323e 4ea4 83be eaaf 36be 804f 8d3e
00000070: c910 81be b074 9e3c 245c 973e 1c6a 513e
00000080: 5014 c83d a6b0 86bd ea02 f3bd c943 90be
00000090: 9414 593e c90a 21be e0cd 0ebe 9032 b43d
000000a0: fe2e 163e 1c40 853e b0df 02be 4ce1 bc3d
000000b0: 3ae3 8e3e 3dc5 85be 7e68 083e b022 033d
000000c0: 386f 223e 0046 633b bc7b 693e f840 673e
000000d0: 601e 9dbc f400 5bbe 38a8 433d 68ba 353d
000000e0: b6c4 65be e42d 2f3e 0aef 953e d048 6bbd
000000f0: 1865 5b3d 2f61 8ebe a849 2c3d c8cc 753d
0.2881106 -0.03797862 -0.20475799 -0.045544058 0.24082816 0.22830653 0.19051197 0.21628648
-0.027624339 -0.0028165877 0.08746776 0.03996834 0.29642123 0.2985273 0.20179057 -0.066654414
-0.20253661 -0.11992876 0.19351491 0.26873863 -0.29330215 0.3013417 0.23425043 0.11244404
0.17390865 -0.25711292 -0.17840543 0.27599716 -0.2520812 0.01934275 0.29562485 0.20450634
0.09769499 -0.06576662 -0.1186579 -0.28176716 0.21199256 -0.1572677 -0.13945723 0.087987065
0.14666364 0.26025474 -0.12780643 0.092226595 0.27907735 -0.26127043 0.1332111 0.032015502
0.15862739 0.0034679174 0.22801107 0.22583377 -0.019179523 -0.21387082 0.047767848 0.044367224
-0.2243832 0.1710735 0.29283935 -0.057442486 0.053563207 -0.2780852 0.04206243 0.060009748

fc2.weight f4 [64, 64]
00000000: de62 a63d 72e6 b7bd 804e d2ba f47e 463d
00000010: d8c9 c5bc e852 ecbd f490 a33d 941a 65bd
00000020: 405d f0bb 9c26 403d 507e 813c 0622 dabd
00000030: 002c 4fbc 9074 f3bc 38c2 213d daed c1bd
00000040: 240a 39bd 24df f1bd 50df 153c e089 3c3c
00000050: 76f9 b03d f058 1a3c aaa0 a9bd 606c 6abc
00000060: d026 6cbd 3a17 8b3d 801b 6a3b d060 c03d
00000070: a05e 7a3d c681 b93d b0a2 7a3d 4eb0 d93d
00000080: 9054 6c3c 5a9c d7bd ca4f 9f3d 623a f93d
00000090: 7059 6f3c 94db 29bd 10b0 80bc 7411 b53d
000000a0: 64e9 f73d 5ecc edbd 88a5 3ebd 18b7 5abd
000000b0: 10e2 ca3d 9cce 3e3d 00d4 f83d e840 873c
000000c0: a260 f3bd d0df 89bd 22f3 ec3d 2ec1 a13d
000000d0: 70d8 fa3c a03a 3bbd d0f4 dc3d c806 163d
000000e0: 707b 04bd d0ed edbd ac2c 083d 5ce6 56bd
000000f0: d0ff bf3c 5cd9 b0bd 70f7 abbd 8476 3f3d
00000100: 82b6 a9bd 2c8d 973d 0047 85ba aae5 e93d
00000110: 84bf 38bd c0f0 d13b 88e1 06bd 4476 7abd
00000120: 4450 b73d f8f9 88bd 3879 bf3c bcd5 1c3d
00000130: 60f9 3fbd 4c85 eb3d aed1 8a3d ecaf 4dbd
00000140: 302b 1f3d 908e 6d3c d0d3 d03d 9c61 913d
00000150: 407e 4c3b 90d9 d53c 3475 453d 4675 d43d
00000160: a408 dcbd 00c1 c0bc 74a6 9c3d 8c4c 543d
00000170: 48c5 993c 5898 84bd 1a72 9c3d 7a0b f7bd
00000180: 6839 3bbd 0469 1dbd c8d6 2a3d 7aef da3d
00000190: 64bc fc3d 24b1 aa3d 087c e63d 00ee f53b
000001a0: eadb f03d 2cbd aa3d a46f 983d 025d b03d
000001b0: 34ff 7f3d 0003 78bb 68c5 90bc 325e d0bd
000001c0: 80d1 863a e45a ae3d f0e4 c7bd 60a9 9bbb
000001d0: 80bd 51bb f079 51bc 2c90 58bd d263 963d
000001e0: b802 aebc 40cf e9bd 2204 b13d b4f1 e0bd
000001f0: c8b7 b53d b824 a43d e035 b13d 2015 1e3c
00000200: 566b 9a3d e406 b23d ac7c 073d 68f4 e0bc
00000210: 8868 dd3c 380b 20bd 708e 9f3d f299 f2bd
00000220: 80cb ab3c 68ee 81bc 5ed5 a8bd 0e80 a3bd
00000230: 50bf 2dbc 1ad0 91bd 9486 b83d 90cc 753d
00000240: 8865 d4bd 4893 a53c 1e58 ad3d 4c8c 753d
00000250: 6015 e13b d0e3 fb3d 62b1 d2bd 383b b0bd
00000260: 701f 8e3d 94e7 89bd 9c9a 1fbd 489b 6bbd
00000270: 0ec3 d33d 6c9c 973d 5ca0 153d 369e de3d
00000280: ac5a e73d 34fd 09bd b0b9 623c a869 f33d
00000290: 34cf d9bd ee7b db3d e211 cfbd 0028 01bd
000002a0: a0df 5c3c 606b 5dbd e0d9 043d d008 203d
000002b0: 705f 923d ec11 7fbd 2035 75bd d8d0 a7bc
000002c0: e2a9 9f3d 82fa 87bd 98ef 783d 7868 e73d
000002d0: 0c87 e43d 6c7b 673d 844b febd e0a8 a83c
000002e0: 9044 27bc c8f6 ca3c 209b f83c 6cfe cabd
000002f0: 1e9c e5bd 587a 823d 508a 443d 18b1 70bd
00000300: 3217 b0bd 1891 78bd 5cba b3bd a860 6c3d
00000310: 808b 693b 80cd e1bd 584d e3bd 7ca7 943d
00000320: d868 fbbc 30cc e0bc 081f 8f3c dc0c cf3d
00000330: 3e88 db3d 0c79 763d 1447 143d e4d1 283d
00000340: 10e2 79bc d8c7 753d 403c c63d a070 8d3d
00000350: 24b3 31bd a84a 4b3d e84d 70bd 1025 6e3c
00000360: 1a14 f53d 8cbe 77bd 649b f63d b871 da3d
00000370: 00bc 383b f84d e73c 6866 7e3d cc94 c1bd
00000380: c081 edbd 7474 eabd 38af cdbc f89a b1bd
00000390: 00a5 6b3a 30f4 a23d 7e73 c03d 6a28 dd3d
000003a0: ce40 dabd 06c4 b4bd c0c0 733c 1487 02bd
000003b0: 4898 4a3d d462 b53d d6e1 e5bd c82f e73c
000003c0: 2a2f f13d d4d8 873d 8ab6 b5bd a8ac 60bd
000003d0: c04c a6bb b8f4 3ebd 18d5 8cbd 1c18 733d
000003e0: 38a0 cf3c 26ea 9e3d 944c 34bd 084a d03d
000003f0: f49a b7bd 7428 f1bd f228 bb3d f0b1 fcbd
0.08124326 -0.08979501 -0.0016045123 0.048460916 -0.024144098 -0.115392506 0.07986632 -0.05593355
-0.007335335 0.04691182 0.0158073 -0.10651021 -0.012644768 -0.029718667 0.039491862 -0.09469195
-0.045175686 -0.11810139 0.00914748 0.011507481 0.08641331 0.009420618 -0.08282597 -0.014308065
-0.057654202 0.067915395 0.0035721958 0.093934655 0.061125398 0.090579554 0.061190307 0.106293306
0.014424458 -0.105278686 0.077788904 0.12169339 0.014608726 -0.04146917 -0.015708953 0.088412195
0.121050626 -0.116112456 -0.04654458 -0.053397268 0.09906399 0.046583757 0.12149811 0.016510442
-0.118836656 -0.06732142 0.115698114 0.07898174 0.030620784 -0.045710206 0.10788882 0.03662756
-0.03234428 -0.11617625 0.033245727 -0.05246578 0.02343741 -0.08635208 -0.08396804 0.046743885
-0.08286764 0.07399973 -0.0010168254 0.11420758 -0.04510452 0.0064068735 -0.032929927 -0.061147943
0.08950856 -0.06688303 0.023373231 0.03828977 -0.046868682 0.11500034 0.067782745 -0.0502166
0.038859546 0.014499322 0.1019665 0.07098696 0.003120318 0.026104718 0.048207477 0.10373931
-0.107438356 -0.02352953 0.07648936 0.051830813 0.018770829 -0.0647437 0.07638951 -0.12062736
-0.045709044 -0.03843023 0.041708738 0.10690208 0.1234062 0.08334568 0.11254126 0.0075051785
0.11760695 0.08336863 0.07443169 0.0861149 0.06249924 -0.0037843585 -0.017672256 -0.10174216
0.0010285825 0.0851343 -0.09760463 -0.0047504157 -0.003200382 -0.01278542 -0.052871868 0.07343258
-0.02124153 -0.11416483 0.086433664 -0.10983601 0.08872944 0.08014816 0.08652854 0.009648591
0.07540004 0.086927205 0.03307788 -0.027460292 0.027027383 -0.0390732 0.0779084 -0.11845769
0.02097106 -0.015860751 -0.082438216 -0.07983409 -0.0106046945 -0.0711977 0.09010044 0.06000954
-0.10370928 0.02021183 0.08464073 0.05994825 0.006869003 0.12299311 -0.10287739 -0.08605045
0.0693959 -0.06733623 -0.038965806 -0.057521135 0.10339938 0.07402882 0.036529884 0.1087002
0.11296591 -0.03368874 0.013838217 0.11885387 -0.10635224 0.10716997 -0.10110833 -0.031532288
0.013481051 -0.05405748 0.032434344 0.039070904 0.071471095 -0.06227295 -0.059865117 -0.020485327
0.077960745 -0.066395774 0.06077537 0.11299223 0.11158571 0.05651419 -0.12416747 0.020588338
-0.010209218 0.024775878 0.030347407 -0.09911808 -0.112114176 0.063709915 0.047983468 -0.05876264
-0.08598174 -0.060685247 -0.087757796 0.057709366 0.0035636127 -0.11025524 -0.110987365 0.072585076
-0.030689642 -0.027441114 0.017470852 0.101098746 0.107193455 0.060174033 0.036200598 0.041215792
-0.015251651 0.06000504 0.096794605 0.06906247 -0.043383732 0.049631745 -0.058668047 0.014535204
0.11966725 -0.060484454 0.12041357 0.106662214 0.0028188229 0.02823542 0.06210938 -0.09452209
-0.115970135 -0.11447993 -0.025107965 -0.08672136 0.00089891255 0.07956731 0.093970284 0.10798724
-0.10656892 -0.08826451 0.014877498 -0.0318671 0.049461633 0.088567406 -0.112247154 0.028221026
0.11776574 0.066331536 -0.08872707 -0.054852158 -0.0050750673 -0.0466201 -0.06876582 0.059349164
0.025344953 0.07759504 -0.044018343 0.1017037 -0.08965102 -0.11775294 0.09138669 -0.123386264

fc2.bias f4 [64]
00000000: 26cd c33d 38d6 a9bd 90aa 933c c0bf 8ebc
00000010: 3841 30bd c04b 2c3d 18e0 aebd 6caa febd
00000020: ec04 2f3d 4033 323c 185d 04bd a047 23bc
00000030: cab4 b3bd c42a 10bd f42c 36bd 5435 56bd
00000040: 92a6 eb3d c0ce 303b 14d1 e83d fed2 c6bd
00000050: 6225 83bd d2f0 a73d 087b a3bc 7ac7 cf3d
00000060: 1c2f 763d 80b8 caba 6e9f 8a3d 5ebe b6bd
00000070: bc25 463d d033 0cbd 686b b53c 4c7a 31bd
00000080: 8632 adbd 4608 813d 7c28 723d 6461 f53d
00000090: b09a a93d 68a5 bebd 1021 d6bc eeba f3bd
000000a0: 284a c73d 342a 333d a273 fabd 806d f63c
000000b0: 700b 0b3c 74dc c73d a4f7 63bd ea27 eebd
000000c0: 70ce 53bc a45d 333d 7854 e33c 70ac af3c
000000d0: 7870 ed3d 6a4f c53d 588b 43bd e0f8 22bd
000000e0: d869 e13c 34e7 c1bd d869 003d 4069 613c
000000f0: bedc 8bbd 908c 7b3c 60cc 753c c08e 73bc
0.09560613 -0.08292812 0.018025666 -0.017425418 -0.043030947 0.04206443 -0.08538836 -0.12434849
0.042729303 0.010876477 -0.032315344 -0.009965807 -0.08774717 -0.035197034 -0.044476464 -0.05229695
0.1150638 0.0026978701 0.113680035 -0.09708212 -0.064036146 0.0820023 -0.019956127 0.10145469
0.06010352 -0.0015466362 0.0676869 -0.089230284 0.04837583 -0.0342291 0.022145942 -0.043329522
-0.08456902 0.06300406 0.05912064 0.119814664 0.082814574 -0.093088925 -0.026138812 -0.119008884
0.09730941 0.04374142 -0.122290865 0.03008151 0.008486614 0.09758845 -0.05565609 -0.11628707
-0.0129276365 0.043790475 0.027750239 0.02144453 0.11593717 0.09634288 -0.04774031 -0.039788127
0.02751629 -0.094679266 0.03135094 0.013758004 -0.068292126 0.015353337 0.01500234 -0.014865577

fc3.weight f4 [1, 64]
00000000: 481b 10bd 0210 b03d 400e 143d 1e88 a0bd
00000010: 2ae1 a63d 80a2 acbc 602f 9a3b e610 d1bd
00000020: 20ce e5bd cc29 5abd ceb9 83bd 5eb9 e13d
00000030: ecda 64bd 60e3 2cbd 261e 853d fcba acbd
00000040: ec37 943d e0b7 58bc a6b0 e83d 9c8f 89bd
00000050: 5a42 d2bd bc10 5fbd aef9 f33d f4a2 d7bd
00000060: 6cf5 643d 9493 433d caf9 82bd 7456 353d
00000070: f06a 1dbd 7cea 49bd 000f faba 4ce8 53bd
00000080: 9c90 0a3d 40aa 943d 0e6f bbbd 888c adbc
00000090: 3007 a2bc ee82 bc3d ba0b 80bd a03c 3a3d
000000a0: 328e 84bd 368b f1bd 1468 f5bd ca4a c6bd
000000b0: 909e a7bc 4c31 62bd 5eae 8dbd 6a9c ccbd
000000c0: 2ca2 4bbd 3ed1 ddbd c63c acbd 040b 763d
000000d0: 26be a63d 9492 37bd a8ef cb3d e65e f53d
000000e0: f802 fcbd 3c13 d53d ba1f b1bd 1092 2dbd
000000f0: 9818 b6bc d4bc 85bd 1821 f53d 1ccd 523d
-0.035182267 0.08596803 0.036146402 -0.07838462 0.081484154 -0.02107358 0.0047053546 -0.10208301
-0.11220956 -0.053262517 -0.06431924 0.11021684 -0.055872843 -0.04220903 0.06499891 -0.08434102
0.07237229 -0.013227433 0.11361818 -0.067168444 -0.10266562 -0.05445932 0.11912857 -0.10529128
0.055898115 0.047748163 -0.063953 0.0442719 -0.03843206 -0.049295887 -0.0019077957 -0.051735207
0.033829316 0.07259035 -0.091520414 -0.021185175 -0.019778818 0.0920466 -0.06252237 0.045467973
-0.06472434 -0.117941305 -0.11982742 -0.09682234 -0.02046135 -0.055222794 -0.069180235 -0.09990771
-0.049715206 -0.108309254 -0.08410029 0.0600691 0.08141737 -0.044817522 0.0995782 0.11980991
-0.12305254 0.10404059 -0.086486295 -0.042375624 -0.022228524 -0.06530157 0.11969203 0.05146514
