data/models/rl_aca_20250316_164013.pt (torch, 23198 bytes, 5 tensors)

fc1.weight f4 [64, 11]
-0.061061367 0.18447813 -0.013294369 0.16571614 0.11285481 0.2798487 -0.21169674 -0.1374153
-0.28263792 -0.05476728 0.30009222 -0.25268388 0.13433802 0.22835314 0.19592741 0.3007391
0.19045323 0.1912128 -0.07275753 -0.038645893 -0.117690355 -0.04523617 0.16694039 0.19169986
-0.062278852 0.054004937 -0.27534312 0.0459674 -0.24816075 -0.042236447 -0.18568519 -0.2388526
-0.16857058 -0.03269115 -0.018915623 -0.19815782 -0.21005496 -0.20622471 -0.17445438 0.26936644
0.075948745 0.23162764 -0.009860873 0.21719456 0.21122509 0.2287525 -0.117860645 -0.085886985
-0.19424748 0.04269117 0.0075292885 -0.29930574 -0.03513825 -0.22561115 -0.17274201 -0.27537
0.26984698 0.05742559 -0.28782076 0.036298364 -0.11511999 -0.09966119 -0.07242775 -0.15935391
0.20770347 -0.1946058 0.041686803 0.05151397 0.2867989 0.031775534 0.11870542 -0.29863134
0.25652677 0.24917221 0.030299217 0.20361638 -0.1206395 -0.21638283 -0.2559952 -0.21401344
-0.18614723 -0.13901275 0.009160697 -0.16326012 -0.2610347 0.29039443 -0.10735564 0.06479639
0.09079632 -0.24571656 0.08857152 0.012166113 -0.11890468 -0.14712597 -0.18507268 -0.24367346
0.23275119 0.2656479 0.2560349 0.09131655 0.2445187 -0.060872987 0.111994654 0.15026996
0.07775593 -0.1286762 0.124515414 0.06681219 -0.059472933 -0.19709393 0.15716422 -0.11740352
0.07478973 -0.01710385 -0.031823575 -0.08379772 -0.20679045 0.06496185 0.19796261 0.14855841
-0.08014768 0.2615403 -0.13659817 -0.19712022 -0.08943355 -0.16377087 -0.21073511 0.15480205
-0.29455355 0.15762356 0.22142708 -0.21264485 0.1266529 -0.1898582 0.25127238 -0.09465477
0.070803076 0.1638872 0.06674218 0.10601434 -0.24284253 -0.22427055 0.027482301 0.16354483
0.106861085 0.14969912 -0.24120317 -0.11679627 0.11049658 0.2645809 0.0017716885 0.09512806
-0.09481762 -0.0034597516 0.098330796 0.18780151 0.20922709 0.18499559 0.19389331 -0.21293914
-0.07168287 -0.2930212 0.15395826 -0.30008632 -0.045105457 0.2536592 0.19742653 -0.1392915
0.27050287 0.27505904 0.09074864 -0.016079158 0.12145698 -0.21768934 -0.24274799 0.30035198
0.15166542 -0.10630025 0.24342948 0.093637824 0.24857253 -0.25224262 -0.18570998 0.11740157
0.108359545 0.07844707 0.117545426 -0.28257623 0.053111255 -0.0551641 0.262868 0.10044962
-0.29442188 -0.264458 -0.08788806 0.22742248 -0.018731743 0.08085278 0.14885536 0.011354297
0.036354363 0.266589 -0.10465531 -0.054963574 0.28017646 -0.02667743 0.15499926 -0.20239803
0.18844983 0.12378088 0.018178225 0.30121064 0.13909182 0.18560302 -0.15219167 -0.07057531
-0.3004751 0.21695548 0.062111944 -0.17000747 -0.087488174 0.093206346 0.026701152 -0.19013119
0.12435609 -0.19690919 -0.20509607 -0.16520126 0.22649729 -0.0007773042 0.2629401 -0.09085135
-0.1704238 -0.2514893 0.27280056 -0.014026225 0.1357857 0.10048732 -0.19784896 0.27456063
0.08942917 0.20622092 0.020097673 0.14073104 -0.28262562 0.17344683 -0.14595053 -0.2988276
-0.18440978 -0.22100535 -0.10611503 0.112473935 0.0051059723 -0.12267442 0.17454934 -0.2583037
00000000: 7c1b 7abd d6e7 3c3e a0d0 59bc 7eb1 293e
00000010: 6c20 e73d 5448 8f3e 08c7 58be 99b6 0cbe
00000020: ebb5 90be a853 60bd b0a5 993e c85f 81be
00000030: e88f 093e 68d5 693e 32a1 483e 7afa 993e
00000040: 2c06 433e 4acd 433e e601 95bd 284b 1ebd
00000050: a407 f1bd 9049 39bd 6cf2 2a3e f84c 443e
00000060: 1c18 7fbd 4834 5d3d c6f9 8cbe 5048 3c3d
00000070: da1d 7ebe 2000 2dbd 4224 3ebe c795 74be
00000080: c49d 2cbe 28e7 05bd f0f4 9abc e2e9 4abe
00000090: a618 57be 922c 53be 2ba4 32be 66ea 893e
000000a0: 048b 9b3d cc2f 6d3e 808f 21bc 4068 5e3e
000000b0: 644b 583e 183e 6a3e ec60 f1bd 84e5 afbd
000000c0: d0e8 46be f0dc 2e3d 40b8 f63b 9a3e 99be
000000d0: 20ed 0fbd 9c06 67be 48e3 30be 4cfd 8cbe
000000e0: 6229 8a3e 1837 6b3d 3e5d 93be 98ad 143d
000000f0: 08c4 ebbd 2a1b ccbd 0055 94bd ac2d 23be
00000100: 38b0 543e be46 47be c8bf 2a3d 5000 533d
00000110: 4ed7 923e 1027 023d d41b f33d 35e6 98be
00000120: 7a57 833e 0027 7f3e 1036 f83c d080 503e
00000130: d811 f7bd 7693 5dbe ce11 83be 5726 5bbe
00000140: 619d 3ebe 5c59 0ebe c016 163c a92d 27be
00000150: 57a6 85be 94ae 943e 46dd dbbd f8b3 843d
00000160: 6cf3 b93d 1f9d 7bbe fc64 b53d 6054 473c
00000170: 4c84 f3bd 31a8 16be b183 3dbe 8985 79be
00000180: 5456 6e3e 0003 883e 0217 833e 2c04 bb3d
00000190: 1c63 7a3e f455 79bd 745d e53d 5ee0 193e
000001a0: 803e 9f3d b2c3 03be f001 ff3d d4d4 883d
000001b0: e499 73bd fed2 49be a8ef 203e 4271 f0bd
000001c0: 5c2b 993d 601d 8cbc 7059 02bd 249e abbd
000001d0: e0c0 53be b80a 853d b6b6 4a3e b21f 183e
000001e0: 7824 a4bd 9ce8 853e 64e0 0bbe e2d9 49be
000001f0: f028 b7bd 8db3 27be f2ca 57be 6e84 1e3e
00000200: b9cf 96be 1268 213e c8bd 623e 92bf 59be
00000210: 4cb1 013e 306a 42be c6a6 803e 5cda c1bd
00000220: 3401 913d 0cd2 273e 20b0 883d 0c1e d93d
00000230: b6ab 78be 2ea7 65be 9022 e13c 4c78 273e
00000240: fcd9 da3d ba4a 193e f7fd 76be e232 efbd
00000250: 084c e23d 2677 873e 0038 e83a 80d2 c23d
00000260: be2f c2bd 00bd 62bb a861 c93d 0a4f 403e
00000270: a03f 563e 7c6f 3d3e f88b 463e b80c 5abe
00000280: 78ce 92bd e006 96be 3ca7 1d3e eaa4 99be
00000290: 80c0 38bd 9edf 813e 2e2a 4a3e 6ea2 0ebe
000002a0: 5a7f 8a3e 8ad4 8c3e 6cda b93d 70b8 83bc
000002b0: 70be f83d f4e9 5ebe ee92 78be bcc7 993e
000002c0: 2e4e 1b3e f2b3 d9bd 9445 793e 30c5 bf3d
000002d0: cc89 7e3e f225 81be c22a 3ebe 3c70 f03d
000002e0: 9ceb dd3d dca8 a03d a8bb f03d d5ad 90be
000002f0: 308b 593d c0f3 61bd a296 863e 88b8 cd3d
00000300: 77be 96be 0a67 87be a8fe b3bd 70e1 683e
00000310: 5073 99bc 2496 a53d 8a6d 183e 6007 3a3c
00000320: 50e8 143d 5a7e 883e 8655 d6bd 7c21 61bd
00000330: 4a73 8f3e a08a dabc 20b8 1e3e 6e41 4fbe
00000340: fef8 403e d480 fd3d 80ea 943c 4838 9a3e
00000350: 166e 0e3e b80e 3e3e 22d8 1bbe ca89 90bd
00000360: dfd7 99be 9429 5e3e 1869 7e3d 7016 2ebe
00000370: 002d b3bd f8e2 be3d 60bc da3c c0b1 42be
00000380: 68ae fe3d 90a2 49be b404 52be 852a 29be
00000390: e8ee 673e 00c4 4bba 16a0 863e 4610 babd
000003a0: 9483 2ebe 35c3 80be 84ac 8b3e 40ce 65bc
000003b0: 680b 0b3e 4ccc cd3d eb98 4abe 3693 8c3e
000003c0: a426 b73d 942b 533e e0a3 a43c cc1b 103e
000003d0: 4eb4 90be 0c9c 313e 0e74 15be eeff 98be
000003e0: ebd5 3cbe 3a4f 62be d652 d9bd bc58 e63d
000003f0: 0050 a73b ba3c fbbd 10bd 323e 6240 84be

fc1.bias f4 [64]
-0.102711335 0.0068906844 0.03163591 0.008703321 0.038721025 -0.01928392 -0.09587172 -0.048502564
-0.09092614 -0.25593784 -0.10128096 0.06531522 -0.17875066 -0.08673103 0.12037134 -0.27031928
-0.098596945 0.12591782 0.24639386 0.16809517 -0.082052946 -0.009028614 -0.11143786 -0.10562272
-0.27825865 -0.14058381 -0.059646502 -0.16448577 -0.006660253 0.14497733 -0.22120458 -0.19363946
0.24456835 0.08397403 -0.15665266 -0.29627234 0.26949352 0.1477249 0.15768537 -0.25871366
-0.19262299 0.11888933 -0.017328858 0.1729396 0.001952827 0.18977544 0.1981012 0.028490216
-0.02804789 0.12865376 -0.09749372 -0.002816558 0.17939416 -0.13676031 0.2365247 0.04658851
0.15028587 -0.10938497 -0.23994315 0.11167359 0.032888383 0.12050861 0.2852022 -0.2487182
00000000: 525a d2bd 40cb e13b a894 013d 6098 0e3c
00000010: f099 1e3d 50f9 9dbc 6458 c4bd a0aa 46bd
00000020: 7c37 babd 490a 83be 646c cfbd fcc3 853d
00000030: 6a0a 37be 0aa0 b1bd 4085 f63d 4a67 8abe
00000040: 32ed c9bd 9af0 003e ac4e 7c3e 2421 2c3e
00000050: 600b a8bd c0ec 13bc 8839 e4bd ba50 d8bd
00000060: eb77 8ebe 34f5 0fbe e44f 74bd f56e 28be
00000070: 403e dabb f074 143e 7483 62be 6c49 46be
00000080: 2070 7a3e 94fa ab3d 8e69 20be 02b1 97be
00000090: 0efb 893e 3245 173e 4678 213e 1e76 84be
000000a0: f63e 45be 407c f33d 40f5 8dbc 1417 313e
000000b0: 00f6 ff3a 7e54 423e 0adb 4a3e 5064 e93c
000000c0: b0c4 e5bc d0bd 033e caaa c7bd 0096 38bb
000000d0: 1ab3 373e e50a 0cbe 8833 723e 98d3 3e3d
000000e0: 8ae4 193e 3a05 e0bd a8b3 75be 20b5 e43d
000000f0: f8b5 063d 38cd f63d 0606 923e fcaf 7ebe

fc2.weight f4 [64, 64]
-0.08441964 0.068697885 -0.091237426 -0.038219526 -0.09364952 0.03292477 0.038579285 0.042541772
0.0032860935 0.059855834 0.10333592 0.049964756 -0.0397629 0.05868064 -0.12369843 -0.011733547
0.03326364 -0.10033125 0.0095195025 0.09668794 -0.0403997 0.08679794 0.059975505 0.07283966
0.051908344 -0.029793948 -0.08154234 0.06804435 0.024200886 0.05086389 0.10305065 -0.06348759
-0.075949684 0.045809954 -0.08301599 0.052395195 0.07503976 -0.07732937 -0.057722658 0.047372162
0.09533377 0.068515554 -0.12060113 0.05351466 -0.03597395 -0.034396246 0.044141605 -0.115068
0.106510624 0.046850324 0.053502634 -0.017518044 0.069073364 0.084759265 -0.050880015 0.06761515
-0.11372203 -0.026533216 0.06994814 0.05845076 0.06340878 -0.025658265 -0.05656837 0.029963657
-0.029477298 0.07320589 0.08286022 0.07894647 -0.0049574524 0.10553014 0.004393548 0.0077837855
-0.00797762 -0.08591813 -0.116688 -0.10773879 -0.036705643 -0.07859734 0.062485427 0.06802757
-0.045214653 0.0964378 0.114278406 0.09863606 0.036322623 -0.013357788 -0.04038085 -0.07109952
-0.01828456 -0.01329425 0.121888965 0.05715546 0.061497822 0.026160926 -0.033971116 -0.042243257
0.007806152 -0.0704125 -0.033986807 0.08449447 -0.080443725 -0.122521475 -0.055545628 0.12243554
0.0008917302 0.0965004 -0.039006308 -0.030449003 -0.12205638 0.029580876 0.09633008 0.110939294
0.086190686 0.08313599 0.0491143 -0.10602519 0.11110312 -0.04697354 -0.0002373308 -0.035083815
0.087926984 -0.08268008 0.017773956 -0.035373464 0.042481825 0.08223055 -0.103186026 0.037478864
-0.07312107 -0.06899087 0.011704624 0.07167654 0.008238018 -0.12260489 0.09128931 0.006073028
0.06977956 0.12399018 0.005710274 0.115502596 0.10814977 -0.05832635 0.12456885 -0.08376233
-0.012900025 0.04917541 0.058944255 -0.05727914 0.034718186 0.1132092 0.06805277 0.10756594
0.09593102 0.023084462 0.017105728 0.010174319 -0.12372139 0.07565804 0.077567816 -0.038215086
0.05333118 -0.057920665 0.014118388 0.111117095 0.11953935 0.09500505 0.0036019683 0.079526335
-0.05860287 -0.100959465 0.06305377 0.05724597 0.07276623 0.025973305 -0.015903234 0.013398647
0.09630869 0.009431988 -0.10694447 0.11561136 0.053530857 -0.00071026385 -0.11292373 0.06596704
-0.10344422 0.09394179 -0.06735425 -0.11909869 -0.058095083 -0.060345158 -0.04931335 -0.052458942
-0.050266013 -0.032767653 -0.11007151 -0.031725794 -0.030755073 0.015666977 0.11375831 0.112809554
-0.03591609 0.051102206 -0.0064839125 0.013055533 -0.022210896 0.12270127 0.10727537 -0.1004951
0.04742454 -0.10678361 0.11789419 0.03408192 -0.11074437 -0.07061264 -0.017505929 -0.08872129
-0.111819685 -0.03189428 0.05412793 0.07828179 0.10325669 0.056978703 0.047475994 -0.10151741
-0.038338646 -0.0014393181 0.08674668 -0.059396118 -0.113223165 0.08841239 0.03909202 -0.0050504655
-0.06670235 -0.12159623 -0.019803897 0.11329916 0.040107757 -0.014801547 0.07162836 -0.0044845045
0.044995785 0.117575526 0.101790234 -0.094248906 -0.033219114 -0.055133775 -0.02037543 0.07301769
0.08808908 0.061556816 -0.08174515 -0.12477727 0.02003844 -0.07732335 -0.02067791 0.023245946
00000000: 34e4 acbd 7ab1 8c3d b0da babd 148c 1cbd
00000010: 52cb bfbd 20dc 063d 5005 1e3d 4840 2e3d
00000020: 805b 573b 642b 753d c8a1 d33d d8a7 4c3d
00000030: 6cde 22bd 1c5b 703d 9a55 fdbd 103e 40bc
00000040: 743f 083d 787a cdbd b0f7 1b3c 5404 c63d
00000050: 287a 25bd 1ec3 b13d e0a8 753d f62c 953d
00000060: d89d 543d 7012 f4bc acff a6bd d65a 8b3d
00000070: f040 c63c a856 503d 380c d33d c805 82bd
00000080: 828b 9bbd 38a3 3b3d 4a04 aabd 589c 563d
00000090: 72ae 993d dc5e 9ebd 986e 6cbd 5009 423d
000000a0: 5a3e c33d e251 8c3d bafd f6bd 3032 5b3d
000000b0: 6c59 13bd 14e3 0cbd d4cd 343d c6a8 ebbd
000000c0: 3e22 da3d 20e6 3f3d 9425 5b3d 0082 8fbc
000000d0: 5676 8d3d 4496 ad3d 9067 50bd d079 8a3d
000000e0: 18e7 e8bd 305c d9bc f840 8f3d 106a 6f3d
000000f0: 76dc 813d 4831 d2bc 3cb4 67bd 5876 f53c
00000100: 607a f1bc f8ec 953d 9eb2 a93d b0ae a13d
00000110: 2072 a2bb 3020 d83d c0f7 8f3b 200f ff3b
00000120: 90b4 02bc d8f5 afbd 1efa eebd 28a6 dcbd
00000130: a858 16bd a4f7 a0bd b8f0 7f3d 0a52 8b3d
00000140: 0033 39bd 2e81 c53d cc0a ea3d b401 ca3d
00000150: 08c7 143d a0da 5abc 6466 25bd a09c 91bd
00000160: 80c9 95bc 20d0 59bc eca0 f93d d81b 6a3d
00000170: 24e5 7b3d 704f d63c 4c25 0bbd 4407 2dbd
00000180: c0ca ff3b 6e34 90bd c035 0bbd 700b ad3d
00000190: aebf a4bd 8aec fabd d083 63bd 7cbf fa3d
000001a0: 00c3 693a 00a2 c53d 14c5 1fbd 3070 f9bc
000001b0: b2f8 f9bd 9853 f23c b448 c53d 2434 e33d
000001c0: be84 b03d 3443 aa3d 142c 493d bc23 d9bd
000001d0: 088a e33d 5467 40bd 00dc 78b9 0cb4 0fbd
000001e0: 1013 b43d 2c54 a9bd b09a 913c c4e3 10bd
000001f0: 6c01 2e3d 7e68 a83d 3253 d3bd 7083 193d
00000200: 80c0 95bd 164b 8dbd c0c4 3f3c 26cb 923d
00000210: c0f8 063c 4618 fbbd e4f5 ba3d 4000 c73b
00000220: 96e8 8e3d 90ee fd3d 401d bb3b a08c ec3d
00000230: a07d dd3d 9ce7 6ebd f41d ff3d 968b abbd
00000240: a05a 53bc 286c 493d 886f 713d 889d 6abd
00000250: a834 0e3d 3ada e73d 405f 8b3d 884b dc3d
00000260: 7c77 c43d a01b bd3c 5021 8c3c 30b2 263c
00000270: a461 fdbd 9af2 9a3d e0db 9e3d 6c87 1cbd
00000280: cc71 5a3d 383e 6dbd d050 673c 5c91 e33d
00000290: 0cd1 f43d 0292 c23d 000f 6c3b b4de a23d
000002a0: 9009 70bd d6c3 cebd 5622 813d c07a 6a3d
000002b0: 7606 953d f8c5 d43c 8047 82bc 0086 5b3c
000002c0: 7e3d c53d a088 1a3c b405 dbbd a6c5 ec3d
000002d0: 2c43 5b3d 0031 3aba 8e44 e7bd ba19 873d
000002e0: 90da d3bd 8e64 c03d 06f1 89bd 04ea f3bd
000002f0: 1cf5 6dbd 7c2c 77bd ccfc 49bd 30df 56bd
00000300: bce3 4dbd 6037 06bd 2c6d e1bd e8f2 01bd
00000310: 10f2 fbbc 0858 803c 1efa e83d b208 e73d
00000320: c01c 13bd 8c50 513d 0077 d4bb e0e6 553c
00000330: a0f3 b5bc ce4a fb3d 30b3 db3d 60d0 cdbd
00000340: 3c40 423d 5eb1 dabd 8272 f13d 7c99 0b3d
00000350: f2cd e2bd 5c9d 90bd 9868 8fbc 82b3 b5bd
00000360: b801 e5bd 94a3 02bd 40b5 5d3d 3452 a03d
00000370: 3e78 d33d 8062 693d 3076 423d 5ce8 cfbd
00000380: fc08 1dbd 80a7 bcba 3ea8 b13d 5849 73bd
00000390: 8ce1 e7bd 8e11 b53d f41e 203d 607e a5bb
000003a0: 3e9b 88bd 7207 f9bd c83b a2bc 6409 e83d
000003b0: 0848 243d 3082 72bc e4b1 923d c0f2 92bb
000003c0: 804d 383d 70cb f03d 6677 d03d 9205 c1bd
000003d0: c410 08bd f4d3 61bd 60ea a6bc 4c8a 953d
000003e0: 0c68 b43d 0023 7c3d 006a a7bd 3a8b ffbd
000003f0: a827 a43c b45b 9ebd b864 a9bc 486e be3c

fc2.bias f4 [64]
0.028023854 0.061235875 -0.103657305 0.10316068 -0.02742967 0.11304738 -0.012338713 -0.00029559433
0.033595756 0.05382003 -0.0336293 0.07771923 -0.03011398 0.08096154 0.03495747 -0.059908465
-0.11672492 0.11913554 0.0055829585 -0.03484507 -0.11604467 -0.07922709 -0.09256072 0.06515765
0.029140338 -0.034553424 -0.10716437 0.09793626 0.07578726 -0.0014157444 -0.059220076 0.124089584
0.0810599 0.027907357 0.02760823 0.026617914 -0.07055028 -0.018805608 -0.028633013 -0.025891766
-0.021524653 0.062270984 0.01838103 0.09072627 -0.08066213 -0.11227833 -0.06935793 -0.110494256
0.057793573 -0.0072333515 0.045975015 0.038754597 -0.033488348 -0.00099428 0.07775171 0.013005495
0.006731257 0.058370948 -0.087616205 -0.08424057 -0.009434611 0.06521158 0.041910216 -0.089446455
00000000: 4892 e53c 78d2 7a3d 484a d4bd e845 d33d
00000010: 30b4 e0bc 6285 e73d 5028 4abc 00fa 9ab9
00000020: b49b 093d 6472 5c3d e0be 09bd 422b 9f3d
00000030: 98b1 f6bc 2acf a53d 902f 0f3d 9462 75bd
00000040: 7a0d efbd 56fd f33d 40f1 b63b b4b9 0ebd
00000050: d4a8 edbd d041 a2bd 7a90 bdbd 6071 853d
00000060: b8b7 ee3c e487 0dbd fe78 dbbd ce92 c83d
00000070: 5a36 9b3d 8090 b9ba c090 72bd ae22 fe3d
00000080: bc02 a63d f89d e43c a82a e23c d00d da3c
00000090: aa7c 90bd 380e 9abc c88f eabc f81a d4bc
000000a0: 7854 b0bc dc0f 7f3d d093 963c b2ce b93d
000000b0: 3032 a5bd 2ef2 e5bd 880b 8ebd d04a e2bd
000000c0: f4b8 6c3d c005 edbb 4c50 3c3d 24bd 1e3d
000000d0: 142b 09bd 8052 82ba 4a3c 9f3d 0015 553c
000000e0: e091 dc3b 6016 6f3d 2070 b3bd 5286 acbd
000000f0: a093 1abc a68d 853d 0caa 2b3d b42f b7bd

fc3.weight f4 [1, 64]
0.10449554 0.01546599 -0.100671455 0.0074926466 0.10881576 -0.050833076 -0.09447794 0.010087267
0.023557052 0.12121554 -0.052425846 -0.01503782 -0.09452468 0.023905367 0.09539874 -0.07935639
-0.008880526 0.036658064 -0.072032616 0.06744221 0.008766279 -0.10645677 0.05191259 -0.10130425
0.11991155 0.049116448 -0.057542875 -0.09585042 0.112658456 0.0032987893 -0.035397485 0.07177319
-0.12389679 -0.08855377 0.0100637525 -0.025263697 -0.015156776 0.11291014 -0.024028733 0.018231764
0.11033693 -0.020276368 -0.053410664 0.11985353 0.025791898 0.055555895 -0.10212742 0.078785166
-0.07595287 -0.0914896 0.08773941 0.1224214 -0.09859595 0.033148184 0.03469202 -0.0023737848
0.08130996 -0.057085976 -0.074563056 -0.025222853 -0.07765494 -0.12123242 -0.06286611 0.042420387
00000000: c201 d63d 1065 7d3c d62c cebd e084 f53b
00000010: ccda de3d 5836 50bd a67d c1bd 1045 253c
00000020: b8fa c03c da3f f83d 7cbc 56bd 3061 76bc
00000030: 2896 c1bd 30d5 c33c 6a60 c33d 9a85 a2bd
00000040: a07f 11bc c426 163d d685 93bd 241f 8a3d
00000050: 70a0 0f3c 0206 dabd 4ca2 543d 9a78 cfbd
00000060: 3094 f53d 542e 493d 14b2 6bbd 3a4d c4bd
00000070: 7ab9 e63d 8030 583b f4fc 10bd d2fd 923d
00000080: 9abd fdbd ae5b b5bd 70e2 243c d0f5 cebc
00000090: 2054 78bc 6e3d e73d e8d7 c4bc c85a 953c
000000a0: 54f8 e13d a01a a6bc 24c5 5abd c475 f53d
000000b0: 8849 d33c 948e 633d 2e28 d1bd 1e5a a13d
000000c0: 2e8d 9bbd e65e bbbd b8b0 b33d 12b8 fa3d
000000d0: acec c9bd 64c6 073d 3819 0e3d 8091 1bbb
000000e0: d685 a63d fcd2 69bd 84b4 98bd 28a0 cebc
000000f0: 8e09 9fbd b448 f8bd f2bf 80bd 00c1 2d3d
