data/models/rl_aca_20250316_220325.pt (torch, 23198 bytes, 5 tensors)

fc1.weight f4 [64, 11]
000000 ae cb cb bd 80 6f bd bb ec e9 16 be 80 c6 78 3e
       -0.09950958 -0.005781114 -0.14737672 0.24294472
000010 e0 03 72 bd d4 79 c8 bd 00 8a 7f 3d bd aa 34 be
       -0.059085727 -0.09788862 0.062387466 -0.17643256
000020 40 90 f1 3c 22 24 34 3e a8 7e 3d 3d 3a 9d 2b 3e
       0.02948773 0.17591909 0.046263367 0.16759196
000030 c1 c9 76 be cc 0d 36 3e 3d 3a 83 be bc 77 71 3e
       -0.241004 0.177787 -0.2563037 0.23580831
000040 48 a6 1f 3d 40 f6 14 3c 84 e1 93 be 60 09 11 bd
       0.038976938 0.009091914 -0.28882992 -0.03540933
000050 74 d4 3e be 0a 25 90 3e 44 bd 40 be 9e 23 37 3e
       -0.18635732 0.2815326 -0.18822199 0.1788468
000060 5e 0a cb bd da ad 74 be c6 89 86 3e ab 95 54 be
       -0.09914087 -0.23894444 0.26276988 -0.20760219
000070 88 3b 1b bd 80 01 aa 3d 38 76 48 bd e2 71 4b be
       -0.03789857 0.08301067 -0.048940867 -0.19867662
000080 20 ea d1 bc 12 a5 4a be e4 92 80 be 6c 09 0a be
       -0.025624335 -0.19789532 -0.2511207 -0.13480157
000090 58 c4 49 be 5a e3 36 be f4 c8 05 3e 17 6b 16 be
       -0.19703805 -0.17860165 0.13064939 -0.14689289
0000a0 c0 71 04 3e ae 3c d0 bd 40 9a 3e 3d bc 1f 49 3e
       0.12934017 -0.10167824 0.046533823 0.19641012
0000b0 88 ee 8e be 90 50 b7 3c 4c 32 6e 3e b0 ae 2a 3e
       -0.2791636 0.022377282 0.23261374 0.166682
0000c0 20 44 1b bc 8d 87 24 be 64 ef d8 bd 4c fe 64 be
       -0.0094766915 -0.16067334 -0.10592535 -0.22362632
0000d0 ca 3e 0b 3e 40 b8 63 3d 22 0c 09 3e 44 fc 6a 3e
       0.13598171 0.055595636 0.13383535 0.22947794
0000e0 0f ed 98 be e8 f5 73 3e 4c 6f 1d be f4 36 3e 3e
       -0.2986836 0.23824275 -0.15374488 0.1857565
0000f0 a0 1a c5 bc a4 81 fe bd 8a 42 18 be 9e 3e 47 3e
       -0.024060547 -0.12427071 -0.14869133 0.1945748
000100 83 6f 05 be 44 a7 7f bd 42 07 85 bd 72 f1 8b be
       -0.1303082 -0.062415376 -0.06495525 -0.27332646
000110 f8 43 25 be e0 b4 4d 3c f5 04 15 be 70 ba 40 bd
       -0.1613921 0.012555331 -0.14552672 -0.0470528
000120 c0 ae 6d be 20 1e 9d bc a0 80 e7 3d 8c f5 90 be
       -0.23211193 -0.019179404 0.1130383 -0.28312337
000130 93 21 49 be b0 fd 99 3d 7a 2e 91 be ac 8d 82 be
       -0.19641714 0.0751909 -0.2835577 -0.25498712
000140 ae cb 48 be 14 8e 61 3e b4 ab 95 be 88 84 53 3d
       -0.19608948 0.22026855 -0.29232562 0.051640064
000150 85 42 7c be ca e4 ef bd 2c ff 79 3e ba b0 0b be
       -0.2463475 -0.1171356 0.24413747 -0.13641635
000160 00 c7 b8 3c af 65 82 be 9c 46 47 be 48 14 29 bd
       0.022555828 -0.25468203 -0.19460529 -0.041279107
000170 20 ac 4d be da d9 99 3e 9c 6f 54 3e bc 4a 97 bd
       -0.20085192 0.3004902 0.207457 -0.07387301
000180 48 e0 6d 3e 50 20 bd 3c 02 05 6c be 09 2e 1c be
       0.23230088 0.023086697 -0.23048785 -0.15251936
000190 c4 9c cd 3d 18 c6 87 bd 80 ec 58 bc c0 80 a5 3c
       0.10039666 -0.0662958 -0.01323998 0.020202994
0001a0 da a6 02 3e c0 c5 41 bd ce d7 8c bd 00 02 83 3d
       0.12758961 -0.04730773 -0.06877099 0.06396866
0001b0 09 bd 8d be 40 5d 51 bd 30 82 8e bc d8 fa 4d 3e
       -0.27683285 -0.05111432 -0.017396063 0.2011522
0001c0 52 3d 8f 3e d0 6d f1 bc d0 d6 f8 3d 5d be 7b be
       0.2797647 -0.029471308 0.12150347 -0.24584337
0001d0 9a 30 4e be 80 c4 69 bd 00 70 89 38 12 a0 38 be
       -0.20135728 -0.057072163 6.553531e-05 -0.18029812
0001e0 66 5d 9b bd 44 4d d6 3d 86 ae 87 3e c6 d7 45 be
       -0.07586174 0.10463956 0.26500338 -0.19320592
0001f0 40 ab de 3b ac 17 de bd 80 b1 b3 bb 00 b5 d4 3a
       0.006795317 -0.10844359 -0.005483806 0.0016228259
000200 04 4d ef bd 3f e5 07 be 8c ec 79 be f8 9b fd bd
       -0.116846114 -0.13271044 -0.24406642 -0.12383264
000210 66 5c 89 bd 7c 20 96 3d 38 a5 51 bd fc c6 e9 bd
       -0.06707077 0.07330415 -0.051182956 -0.114149064
000220 06 25 11 be 80 96 26 3c e2 d0 df bd 78 8c 5e 3d
       -0.1417428 0.010167718 -0.10928513 0.05433318
000230 a0 3b 0a 3c 90 c6 3d 3d e0 5b 95 bc b8 62 2e 3e
       0.008437067 0.046331942 -0.018232286 0.17029846
000240 2c d5 66 bd 80 c0 67 bb 48 f7 5b 3e 10 98 c2 3d
       -0.05635564 -0.0035362542 0.21481049 0.0950166
000250 bc a4 1b 3e ba e6 70 be b0 7f 8e be 62 d8 82 3e
       0.1519956 -0.23525515 -0.27831793 0.25555712
000260 23 be 4b be e8 e4 da 3d 24 74 61 3e a0 38 8e 3e
       -0.1989675 0.10688192 0.2201696 0.27777576
000270 4e 1e 08 3e 58 98 de bd ca 94 e9 bd 20 f1 53 be
       0.1329281 -0.10868901 -0.114053324 -0.2069745
000280 2b f8 93 be 02 49 92 3e 80 a0 9a 3c 10 95 16 3d
       -0.28900275 0.28571326 0.01887536 0.03676325
000290 f0 0d 35 bd 9b ff 51 be 47 1c 65 be 10 9d c6 3d
       -0.044202745 -0.20507662 -0.22374068 0.09697926
0002a0 26 a1 3d 3e 49 62 84 be 20 bb ef bd 98 07 91 3d
       0.18518505 -0.25856236 -0.11705613 0.070815265
0002b0 32 d4 27 3e 7c 07 fa bd 14 64 8f 3d b6 90 86 bd
       0.1638954 -0.12208459 0.0700151 -0.0657057
0002c0 a9 b4 98 be a2 d5 fe bd 78 4f 91 bd c0 09 3e be
       -0.29825333 -0.12443091 -0.070952356 -0.18558407
0002d0 58 49 4e 3e a2 07 8c 3e 40 ea b8 bc 14 3e df bd
       0.20145166 0.27349573 -0.022572637 -0.10900512
0002e0 e9 5e 3a be 9a 28 95 bd bc c3 95 bd f0 71 3d be
       -0.18200268 -0.07283135 -0.07312724 -0.18500495
0002f0 04 b1 19 3e bc 1d 59 be b0 bf 98 3e be 08 ef bd
       0.15008932 -0.21202749 0.29833746 -0.11671589
000300 c8 98 07 3e b6 5e 82 3e 6c 64 54 3e f2 4f 97 3e
       0.13241875 0.25462884 0.20741433 0.2955318
000310 c4 aa cd 3d d4 56 2e 3e 48 b7 da bd 40 af 81 be
       0.100423366 0.1702531 -0.106794894 -0.25329018
000320 f4 84 d6 bd 7c cf de bd d6 7f 16 3e 03 9d 3a be
       -0.104745775 -0.10879418 0.14697203 -0.18223958
000330 6c 61 6b 3e 38 bb 47 be e8 5b be bd ce dd 89 3e
       0.22986382 -0.19505012 -0.092948735 0.26927036
000340 12 23 da bd 7c 92 66 3e ba bb b3 bd 9b 36 0b be
       -0.106512204 0.22516817 -0.087760404 -0.13595049
000350 83 1e 40 be a5 04 80 be a6 bb 99 be e8 52 fb bd
       -0.1876164 -0.25003543 -0.30025977 -0.122716725
000360 68 7f 95 be 2f 97 7a be 11 a6 8d be d8 82 8f 3e
       -0.29198766 -0.24471734 -0.2766576 0.28029513
000370 88 68 42 3e 55 39 50 be 0a cc 85 3e 48 17 a8 bd
       0.18985188 -0.2033437 0.26132232 -0.082075655
000380 54 67 52 3e a6 2e 95 3e b8 e1 04 bd 3a e1 3d 3e
       0.20547229 0.29137152 -0.032441825 0.18542948
000390 1c 41 bf bd 56 b7 84 bd ca 95 54 be 08 b7 15 3e
       -0.093385905 -0.06480281 -0.20760265 0.14620602
0003a0 0a 34 cb bd 40 81 9c 3b 30 71 15 bd 60 1a fd 3d
       -0.09922035 0.00477615 -0.036484897 0.12358546
0003b0 f0 fc 2a bd b8 0f 57 3d 22 fa 91 3e 12 b1 3e 3e
       -0.041745126 0.052505225 0.2851115 0.18622234
0003c0 18 18 c5 3d 38 f0 62 3e ae e2 13 3e fe e8 a2 bd
       0.09623736 0.22161949 0.1444194 -0.07954596
0003d0 4c 1b cc bd fe 70 99 bd f7 c2 14 be a0 37 21 3c
       -0.09966144 -0.07492255 -0.14527498 0.009839922
0003e0 d8 4c 28 bd b2 36 22 be 5a 95 84 3e 49 1c 27 be
       -0.04108891 -0.15841177 0.25895196 -0.16319384
0003f0 80 dc 77 3c 58 9b 70 3e 7e 2d 2b 3e 90 9e a3 bd
       0.015128255 0.23496759 0.16716573 -0.07989228

fc1.bias f4 [64]
000000 98 7e 4c bd a2 f8 65 be f8 f7 18 bd b4 2c 81 be
       -0.049925417 -0.22458127 -0.037345856 -0.25229418
000010 30 79 ef bd f0 17 89 3e c6 b7 84 be 00 08 e4 bb
       -0.116930366 0.26776075 -0.25921458 -0.0069589615
000020 98 a2 94 3e 2c 3b 42 3e b3 f7 12 be 8b e7 74 be
       0.290303 0.18967885 -0.14352302 -0.23916452
000030 26 c0 1a 3e 98 91 b3 3d a8 9a 5a 3e 5a 3b b2 bd
       0.15112361 0.08768004 0.21348059 -0.08702727
000040 f6 6c 27 3e 60 b9 2d 3e 23 b5 15 be e2 d8 fa bd
       0.16350159 0.16965246 -0.1461988 -0.12248398
000050 4e d5 89 be 47 ce 21 be 74 20 ee bd e0 27 65 bc
       -0.2692055 -0.15801345 -0.11627284 -0.013986558
000060 5e ac 37 3e 9e 4b 8d bd 40 e3 88 bc 2c d0 a1 bd
       0.17936847 -0.068991885 -0.016709924 -0.07901034
000070 90 f5 87 bc b4 6c e2 3d c6 e6 03 be 38 fc 80 bd
       -0.016596586 0.1105589 -0.12881002 -0.06298107
000080 20 9f 1a be b4 df 3b be 40 ad 2d bd e0 8a 80 3e
       -0.15099764 -0.18347055 -0.042401552 0.25105953
000090 e4 73 cd 3d ed 88 2c be c0 0d 11 3e 0a c6 86 3e
       0.1003187 -0.16849108 0.14165401 0.26322967
0000a0 f6 9b 9c bd e4 18 08 be 70 9a bd bc 6b bb 05 be
       -0.07646935 -0.13290745 -0.02314493 -0.13059776
0000b0 4c 48 22 3e 38 35 85 3e 90 c6 a6 3c 3e 30 05 3e
       0.15847892 0.26017165 0.020358354 0.13006684
0000c0 28 4b ad bd b4 de fb 3d b8 a7 35 3d dc df c0 3d
       -0.084616005 0.122983366 0.044349402 0.09417698
0000d0 4c ab 8d 3d 28 9b 71 3e 18 e5 26 bd 1e a6 94 3e
       0.06917438 0.23594344 -0.040745825 0.29032987
0000e0 00 79 a2 3a 9a ad 81 bd e0 a9 3a 3c b6 65 92 3e
       0.001239568 -0.0633194 0.01139304 0.28593224
0000f0 78 ed fd bd 40 a1 c7 bd 04 3e 8d 3d f8 8d c6 bd
       -0.12398809 -0.09747553 0.06896594 -0.09695047

fc2.weight f4 [64, 64]
000000 56 bc be 3d 3a 25 84 3d c6 e9 8f bd ba 1c b8 bd
       0.09313266 0.06452413 -0.070270106 -0.08989854
000010 78 95 e5 3c be da fb bd f8 f9 62 3d d0 6a be bc
       0.028025374 -0.12297581 0.05541417 -0.023244292
000020 ec ef 34 3d 30 96 f3 3c fc c5 c4 3d ea c2 f8 bd
       0.04417412 0.0297347 0.09608075 -0.12146552
000030 9c 61 46 bd b0 d3 26 3d 8c ce a1 3d a0 a0 52 bd
       -0.04843293 0.040729225 0.07900724 -0.051422715
000040 6e c9 99 3d e0 e7 3d 3c 60 e3 c6 3c fc 4c 2f bd
       0.07509123 0.011590928 0.024278343 -0.042798027
000050 c2 7f f4 3d 64 de 9b 3d 30 1c 85 bc 28 6c be bc
       0.1193843 0.07610777 -0.016248792 -0.023244932
000060 48 42 7a 3d d4 93 83 bd 60 36 c8 3c b4 0d 2d 3d
       0.061098367 -0.0642468 0.02443999 0.042249396
000070 90 92 d6 bc ba f6 b1 bd ca f5 93 bd bc 97 ca bd
       -0.026192933 -0.086896375 -0.07224615 -0.09892222
000080 f0 af f6 3d 58 80 fa bc 00 c4 df bd 78 0b 30 bd
       0.12045276 -0.030578777 -0.10926056 -0.042979687
000090 84 35 a7 3d fc 35 41 bd bc 2e 54 bd 88 c4 c3 3d
       0.08164504 -0.047170624 -0.051802382 0.0955897
0000a0 e0 31 df 3c b0 df 5a 3d c0 15 59 3c 70 80 5f bd
       0.027245462 0.05343598 0.0132498145 -0.054565847
0000b0 9e dc 8f bd 98 ee e7 bc 00 49 47 3a 7e 0b aa 3d
       -0.07024501 -0.028312013 0.00076021254 0.08302973
0000c0 78 93 52 3d f0 93 96 bc 60 9b 0e bd 96 19 fd bd
       0.05141017 -0.018381089 -0.034816146 -0.12358396
0000d0 02 ff ba 3d da 17 fb bd d2 f9 9b 3d a0 83 2a 3c
       0.0913067 -0.12260409 0.07616009 0.010407358
0000e0 ce 3d e1 bd 76 e0 8d bd c4 4a 39 bd 00 3a c2 39
       -0.109981164 -0.06927578 -0.045237318 0.00037045777
0000f0 04 bd 03 bd 98 aa 92 3c 5c 30 ae 3d a0 d7 c4 bb
       -0.03216268 0.017903611 0.085053176 -0.00600715
000100 a4 60 be bd a2 d3 95 bd 7c b2 96 3d 70 eb 81 3d
       -0.092957765 -0.073157564 0.07358262 0.06343734
000110 da 2d a8 3d 0e ae d5 3d 90 d8 b5 bd 38 98 fb 3d
       0.082118705 0.10433589 -0.08879197 0.12284893
000120 e8 0d 0c bd 60 b8 ac 3d 68 a9 c5 bc a6 7e ef bd
       -0.03419295 0.08433604 -0.02412863 -0.11694078
000130 70 01 8b 3d 4a 98 fc bd e4 90 6e bd 88 a1 5e bd
       0.067873836 -0.12333734 -0.058243647 -0.054353267
000140 50 14 a9 bc c8 fe c0 bc 44 c3 20 3d 9e 77 ae bd
       -0.020639569 -0.02355899 0.03924872 -0.08518909
000150 00 71 88 3d 00 0e 45 bd e0 27 43 3d d0 fc 88 bd
       0.06662178 -0.048109055 0.04764545 -0.06688845
000160 38 cd a2 3d f8 f0 bc 3c 90 c0 d2 bc c0 a2 ce 3d
       0.079492986 0.023064122 -0.025726587 0.10089636
000170 38 98 af 3d d4 87 0d bd 80 c8 e3 3c c0 ed 71 bc
       0.08573955 -0.034553364 0.027805567 -0.014766157
000180 de 38 8e bd 18 3f 97 3d ea c1 d8 bd 40 7e 1e bc
       -0.0694444 0.07385081 -0.10583861 -0.009673655
000190 40 80 e6 bd 80 b2 c8 ba 04 2e df bd 10 14 97 3d
       -0.112549305 -0.0015311986 -0.10897449 0.073768735
0001a0 8e d2 ce bd d8 ae f3 bc c0 2a 2b bd ce ac b6 bd
       -0.10098754 -0.029746458 -0.041788816 -0.08919679
0001b0 40 3d 8d bb a0 18 af bc f0 b0 ea 3c 30 ac cb 3d
       -0.00431028 -0.021374047 0.028648823 0.099449515
0001c0 d4 92 a5 3d 20 83 ef bd d0 aa 5d 3c 30 09 02 3d
       0.08084646 -0.11694932 0.013529494 0.031747043
0001d0 ac 10 81 3d f8 2f a1 bc e8 f8 7d bd 40 5a 35 bc
       0.06302008 -0.019676194 -0.062004954 -0.011068881
0001e0 60 44 48 3d 90 a8 e1 bd 54 2e 44 bd 68 7a 4c bd
       0.048893332 -0.11018479 -0.047895744 -0.049921423
0001f0 dc d6 a1 bd 50 e2 d5 bd 74 b6 d2 bd fa fd de bd
       -0.07902309 -0.10443556 -0.102887064 -0.10888286
000200 e8 dd f0 bc 2c 6a ea 3d 10 38 6f bc 9c d4 65 bd
       -0.029402688 0.11446032 -0.014600769 -0.056110963
000210 98 e2 ea bc b4 39 78 3d a0 ee 18 bd 30 76 4c 3d
       -0.028672501 0.060601905 -0.037336946 0.0499174
000220 f4 f1 8c bd 60 f9 bc 3b 14 0a c7 bd bc d3 95 3d
       -0.068820864 0.0057670325 -0.09718719 0.07315776
000230 76 ec dd 3d 80 7c 42 3d fe 29 d5 bd 4c 48 5c 3d
       0.10836117 0.047482014 -0.104084 0.053779885
000240 58 2b 2f 3d 5a bc f3 3d 98 7e 59 3d 14 1a 1e 3d
       0.042765945 0.119011596 0.053099245 0.03859909
000250 f4 92 8a 3d 60 a8 02 bc 50 bb 69 3d 34 21 4d 3d
       0.0676631 -0.007974714 0.0570634 0.050080493
000260 00 33 3f ba f0 fe 97 3d ca 41 c9 3d ac eb 0d 3d
       -0.00072936714 0.07421672 0.098270014 0.034648582
000270 40 93 b7 bb 52 66 be bd 8c f1 b3 3d 18 d1 a5 bc
       -0.0056022704 -0.0929686 0.08786306 -0.020241305
000280 fe 03 e8 bd 6e 20 c1 3d ba f9 d5 bd 64 81 06 bd
       -0.113288864 0.094300136 -0.10448022 -0.03283824
000290 8c 78 a1 3d 34 1a 4f 3d 00 a9 c9 3b 0c 5b 21 bd
       0.078843206 0.0505621 0.0061541796 -0.03939347
0002a0 dc 18 7e 3d d0 10 35 bd 30 5b 27 bc 6c 1b d6 3d
       0.062035426 -0.044205487 -0.010214612 0.10454449
0002b0 84 4d 23 bd a0 db 52 bc 38 2b 8f bd 74 13 73 3d
       -0.039868847 -0.0128697455 -0.06990665 0.059344724
0002c0 80 a0 74 bc e0 a7 32 bd 70 52 bc bc ec b2 8d 3d
       -0.014930844 -0.04361713 -0.022988528 0.06918892
0002d0 90 96 80 3c 38 f8 87 3d 98 1b fe 3d ec 7c 27 3d
       0.015696794 0.06639141 0.12407607 0.04089062
0002e0 48 35 2c bd 80 26 0f 3d f4 63 cb bd 58 99 cd 3c
       -0.042043 0.034948826 -0.09931174 0.025097534
0002f0 9e bc a6 bd a0 3f 31 bc 8c 9a 71 3d d4 65 48 3d
       -0.081414446 -0.010818392 0.058985278 0.048925236
000300 a8 9e b3 bc 2a a9 f4 3d 14 68 de 3d d4 2c c7 bd
       -0.02192624 0.11946328 0.10859695 -0.09725347
000310 b0 95 9a bc 34 73 cb bd ac 47 5f bd d0 24 1b 3c
       -0.018870205 -0.099340826 -0.05451171 0.009469226
000320 80 47 e0 3b 38 a6 e0 bd de 6a e9 bd 4c 58 b5 bd
       0.006844461 -0.10969204 -0.113973364 -0.08854732
000330 6c 8f b0 bd de 0f fe 3d 5e 9a ee bd 80 16 7f bb
       -0.086211056 0.1240537 -0.11650537 -0.0038923323
000340 7e 10 e5 bd 80 fa 1b bb b0 95 e9 bc 9c 66 d0 3d
       -0.11184786 -0.0023800433 -0.02851376 0.10175821
000350 3c 18 e5 bd 90 26 e5 3d e0 18 68 bc 70 a5 1f 3d
       -0.11186263 0.11188996 -0.014166087 0.038976133
000360 24 a5 69 bd c0 f4 0e 3c 8c ea 06 bd 20 6b a5 3b
       -0.057042256 0.008725345 -0.032938525 0.0050481707
000370 c6 59 ba 3d 5e 8f cc 3d d0 6b 0c bd 60 16 94 3d
       0.09099154 0.099882826 -0.034282506 0.0723083
000380 7c 90 3b bd 90 ea bd bc c8 15 dc bc 58 f1 ff bc
       -0.045792088 -0.023183137 -0.026865855 -0.031243011
000390 22 d1 c3 bd 7e 02 c4 bd ca 33 9e 3d ee 98 e2 bd
       -0.09561373 -0.09570788 0.07724722 -0.11064325
0003a0 00 9c 57 3d c0 d3 b0 3b 56 9c d5 3d 16 93 ad 3d
       0.052639008 0.0053963363 0.10430209 0.0847532
0003b0 0c de 9e 3d 60 a2 ce bb fe 62 ad bd aa 4b 80 bd
       0.07757196 -0.0063059777 -0.08466147 -0.06264432
0003c0 10 b2 de 3d 60 d9 88 bc 32 af 8b 3d da 5a f2 bd
       0.108738065 -0.016705215 0.06820525 -0.11833735
0003d0 0c 63 02 3d ae 84 f3 3d 42 f1 fa bd 68 32 97 bc
       0.03183274 0.11890541 -0.122530475 -0.018456653
0003e0 aa ef ec bd 90 5b cf bd 6a e5 ba 3d 56 4a f3 3d
       -0.1156915 -0.10124886 0.091257885 0.11879413
0003f0 c0 e3 e0 3b a0 86 3b bd fc 8e 85 bd b8 ac fe bd
       0.0068630874 -0.045782685 -0.06521413 -0.12435287

fc2.bias f4 [64]
000000 a8 50 49 bd a8 ad d2 3d 02 3d fa 3d 50 5b f2 3d
       -0.049149185 0.102870286 0.122186676 0.11833823
000010 b0 42 aa bd 04 b9 ad bd 40 db 43 3c 00 74 9b b9
       -0.08313501 -0.084825546 0.011954129 -0.0002965033
000020 da e3 c2 bd f8 90 c2 bd 44 35 96 bd 78 92 88 bd
       -0.095161155 -0.09500307 -0.07334378 -0.06668562
000030 7c aa bb bd a0 bb d9 bc d6 cc 97 bd aa e0 a7 bd
       -0.09163377 -0.026578724 -0.07412116 -0.08197148
000040 fc be 69 bd 34 b6 b5 bd 44 6a af bd 50 c0 1e 3d
       -0.057066903 -0.08872643 -0.085651904 0.038757622
000050 76 21 b2 3d b0 77 d3 3d f8 38 8d bc bc 15 e9 3d
       0.086977884 0.10325563 -0.017239079 0.11381099
000060 20 ee 82 3d c4 8c 0b bd e8 82 df bd 64 bb c6 3d
       0.06393075 -0.03406979 -0.1091364 0.09703711
000070 d0 53 71 3c 56 05 ef bd 40 3a 35 3b aa 13 c6 bd
       0.014729455 -0.116709396 0.0027653128 -0.09671719
000080 9e 89 cc 3d c0 ef c6 bd 44 bd e2 3d 7e 91 cb 3d
       0.09987186 -0.097136974 0.11071256 0.0993986
000090 1e 1c 9d 3d da 64 e0 bd 04 48 f4 bd 22 01 8b 3d
       0.076713786 -0.10956736 -0.119277984 0.067873254
0000a0 c8 45 fd 3d a0 83 c2 3d 8c 6b c5 bd 1e a4 89 3d
       0.12366825 0.09497762 -0.096396536 0.06720756
0000b0 06 3f 85 3d a8 a1 5f bd f2 5a 8a bd e2 03 d2 3d
       0.065061614 -0.054597527 -0.06755628 0.10254647
0000c0 a0 5f 7f bd 64 0e 9b bd 12 5a 80 3d ca 81 ee bd
       -0.062347054 -0.07571104 0.062671795 -0.11645849
0000d0 54 45 1f 3d 06 ae 8a bd f8 ab 2a bd 3e 2c d5 3d
       0.038884476 -0.067714736 -0.04166791 0.10408829
0000e0 1a 5f d2 3d f0 5b 9f bc ce e7 b3 bd c0 06 6d 3d
       0.102720454 -0.019453019 -0.087844476 0.057867765
0000f0 00 4b b3 3d 70 e0 1c bd b8 75 57 3d d4 b7 13 3d
       0.087545395 -0.038299978 0.0526025 0.036063984

fc3.weight f4 [1, 64]
000000 34 f4 a1 bd 12 6b a0 bd 0a d5 f9 3d e0 23 8c bb
       -0.07907906 -0.07832922 0.12198837 -0.0042767376
000010 fa ef fe 3d e4 85 59 3d 70 78 b9 3d 50 f0 50 bc
       0.12448116 0.053106204 0.09056175 -0.012752607
000020 7c dd cd bd a0 d5 86 3b 70 4b df bd 3e 3c aa 3d
       -0.100520104 0.0041148216 -0.109030604 0.083122715
000030 00 26 52 3c 2a 92 8e bd 30 0c 11 3c 00 6e 0a ba
       0.012826443 -0.06961472 0.008853003 -0.00052806735
000040 20 b9 3d bd c0 c9 f7 bc 12 6f 9c bd 60 dd fc 3c
       -0.046319127 -0.03024757 -0.076383725 0.030867279
000050 ac 00 cf bd cc 3d 05 bd 46 a8 fb 3d c0 f0 c0 bd
       -0.1010755 -0.032529637 0.12287955 -0.094209194
000060 54 bc 09 3d d8 42 8a 3d ac 13 93 bd 82 7e da 3d
       0.03362687 0.06751031 -0.071814865 0.10668661
000070 36 6e c8 bd 60 2d cc bb dc b4 11 3d 3a 11 c7 bd
       -0.09786646 -0.006230995 0.03557287 -0.097200826
000080 a4 e9 81 3d 4c 76 96 3d 4c a3 70 3d c4 62 18 bd
       0.063433915 0.07346782 0.058749482 -0.037203565
000090 58 18 b0 3d 50 c0 74 3d b0 3e 38 3d 00 7d 36 3d
       0.08598393 0.059753716 0.04498166 0.044552803
0000a0 1a e9 91 bd 1e 66 e0 bd 38 08 13 3d 24 91 75 bd
       -0.07124539 -0.10956977 0.03589651 -0.05995287
0000b0 28 09 14 3d 80 bd 60 3d e6 18 f0 bd 40 3b ea 3c
       0.036141545 0.05486822 -0.11723499 0.028592706
0000c0 c6 b0 a2 bd 00 51 d0 3b 00 50 cb 39 26 fb b5 bd
       -0.07943873 0.006357312 0.00038778782 -0.088857934
0000d0 30 59 f3 bc 64 03 b9 bd 20 c1 c3 bb 2e 02 f1 bd
       -0.029705614 -0.0903385 -0.00597395 -0.11767994
0000e0 f0 da 05 bd 68 25 a0 3d 92 0a bf bd 68 e3 ed 3d
       -0.0326795 0.07819635 -0.09328188 0.1161564
0000f0 b0 86 36 3d d4 28 47 3d 1c a8 1a bd ac 7b 6c 3d
       0.04456204 0.04862292 -0.037757978 0.05773513
