data/models/rl_aca_20250316_214156.pt (torch, 23198 bytes, 5 tensors)

fc1.weight f4 [64, 11]
000000 0c 28 8a 3d 8c c4 3a be 44 72 59 bd 3a b4 26 be
       0.067459196 -0.18239039 -0.053087488 -0.16279688
000010 13 fe 4f be b4 21 96 3e 10 b2 a1 3d 55 ed 7f be
       -0.20311765 0.29322588 0.07895291 -0.24992879
000020 86 35 1f 3e 6e 3e 43 3e 98 15 7d 3e 10 dc 53 3e
       0.15547761 0.19066784 0.24715269 0.20689416
000030 ac cb 76 bd 78 3e f5 3d b4 3b 84 be 7f 1e 21 be
       -0.06025283 0.119748056 -0.258268 -0.1573429
000040 5c 56 03 3e 1c 9c 5b 3e 00 07 11 3b 3d ee 3d be
       0.12825912 0.2144627 0.0022129416 -0.18547912
000050 48 d1 57 3d ea 5e 62 be b0 ed 68 3d b0 28 f1 bc
       0.05268982 -0.2210652 0.0568673 -0.029438347
000060 20 53 f1 3c 64 2f b5 3d 6e 7d 91 3e ed 98 16 be
       0.029458582 0.0884693 0.28416008 -0.14706774
000070 74 63 70 3e d2 6b 3e 3e c2 b9 8c 3e 80 e1 06 3e
       0.23475438 0.18595818 0.27485472 0.13171959
000080 80 4f 8a bb a6 28 ee bd 60 8f ee 3d 2c f7 96 3d
       -0.004220903 -0.11628847 0.1164844 0.07371363
000090 83 fe 4c be b8 8d 93 be 18 5d c1 3d 46 bb 37 be
       -0.20018964 -0.2881906 0.09441584 -0.17942533
0000a0 e8 80 24 3e 64 82 86 be 72 9a 99 3e c8 a6 ca 3d
       0.16064799 -0.26271355 0.30000645 0.09895092
0000b0 70 7f c2 3d 1b d1 90 be 14 47 04 be fe bc 98 be
       0.09496963 -0.28284535 -0.12917739 -0.2983169
0000c0 ec 9d 5b 3e 76 09 8f bd 40 df 39 3d 60 91 0a be
       0.21446961 -0.069842264 0.045378923 -0.13532019
0000d0 6a 98 81 be e4 a5 72 3e 30 9c 26 bd cc 53 5f be
       -0.25311595 0.23696095 -0.040676296 -0.2180931
0000e0 14 b4 a3 3d 9c 54 43 be 20 3f 9e bc 35 95 50 be
       0.079933316 -0.19075245 -0.01931721 -0.20369418
0000f0 28 20 60 3e fc c3 45 be 40 da 35 3e df 63 1b be
       0.21887267 -0.19313043 0.17759037 -0.15174817
000100 d0 39 87 3e 30 2e 71 3d 70 90 8f 3c d8 98 69 3e
       0.26411295 0.05888194 0.017524928 0.22812212
000110 24 f8 50 be b0 54 58 3d 4c b2 8a 3d c4 aa 04 3e
       -0.20407158 0.05281514 0.06772289 0.12955767
000120 88 5a 17 bd ad ac 3c be c0 ea 82 3b d7 05 18 be
       -0.03695157 -0.18425246 0.0039952695 -0.14845978
000130 60 9e 0d be e0 a4 0a 3d 20 34 1d bc 9c 6a 43 be
       -0.13829947 0.033848643 -0.009594947 -0.19083637
000140 3c 0f 75 bd bd 86 52 be b8 d4 61 be 80 57 24 bc
       -0.05982898 -0.20559211 -0.22053802 -0.010030627
000150 ce 6a 82 be 86 a7 f4 bd 28 53 68 be ba 9e 98 bd
       -0.2547211 -0.11946015 -0.22687972 -0.0745215
000160 b0 47 24 3e 7c c3 c1 3d d0 21 80 be b1 b6 6b be
       0.16042972 0.09461114 -0.25025797 -0.2301891
000170 54 19 bd 3d 00 c1 3e 3d d0 3b dc 3c 8c 33 83 3e
       0.092333466 0.046570778 0.02688399 0.25625265
000180 8c 7e bb 3d da 6a a3 bd d0 3d d8 3c b0 ce 61 3d
       0.09154996 -0.07979365 0.026396662 0.055128753
000190 03 92 37 be 57 04 83 be 38 31 44 3d a8 20 9a 3d
       -0.17926793 -0.2558925 0.0478985 0.0752576
0001a0 61 74 1a be 2a 6a 47 3e c8 6b 9f 3d e6 e3 8b 3e
       -0.15083458 0.19474092 0.077842295 0.2732231
0001b0 8e 63 04 3e 00 8a 86 3a de 78 89 be f4 82 a2 bd
       0.12928602 0.0010264516 -0.26850027 -0.079351336
0001c0 32 0c 06 3e 18 95 66 3e f9 51 3e be a0 d9 3e be
       0.1309059 0.22517812 -0.18585958 -0.18637705
0001d0 cc 65 65 3e 20 5f 50 3d bd 1e 9a be ef 01 22 be
       0.22402114 0.05087197 -0.30101576 -0.1582105
0001e0 47 97 1e be ae 87 00 3e 83 b0 93 be e4 cb 31 be
       -0.15487395 0.12551758 -0.28845605 -0.17362934
0001f0 eb ad 40 be dc 65 dc 3d e9 71 8f be e0 63 8c 3d
       -0.18816344 0.10761616 -0.28016594 0.06854987
000200 74 43 96 3d 38 44 6b 3d 38 b7 6b 3e 20 4e 26 bd
       0.073370844 0.057438105 0.23019111 -0.04060185
000210 35 89 8a be 48 04 55 3e 48 e9 36 3e 2c bc 91 3e
       -0.27057806 0.20802414 0.17862427 0.28463876
000220 0c af df 3d 9a 1f da bd 28 ed c9 3d f0 91 db 3c
       0.109220594 -0.10650559 0.09859687 0.026802987
000230 ab 3a 46 be e0 22 44 3e dc f3 cb 3d 98 51 4a be
       -0.19358318 0.19153929 0.09958622 -0.19757688
000240 b0 05 9b bc 96 d0 0e 3e ac ef 7f 3e a4 40 03 be
       -0.01892361 0.13946757 0.24993771 -0.12817627
000250 e6 17 23 be 42 15 13 3e 10 de fb 3d cc d4 f3 3d
       -0.15927085 0.14363578 0.122982144 0.11905822
000260 cb 5b 4e be cf 36 81 be f4 b0 24 3e a8 fb 02 3d
       -0.20152204 -0.25237128 0.16083127 0.03197828
000270 70 b3 89 bc 18 c2 28 3e 75 69 1a be 60 31 87 3c
       -0.016809195 0.16480291 -0.15079291 0.016503036
000280 68 f7 50 be 2d 41 95 be 40 f4 80 3e ec 94 59 3e
       -0.20406878 -0.29151288 0.25186348 0.21248215
000290 c8 0e 77 3d ba 87 50 be 54 f5 79 be 90 d4 18 3d
       0.06031683 -0.20364276 -0.24409992 0.03731209
0002a0 24 d5 99 3e 80 9c 6f bb dd 5b 71 be b4 a3 69 3e
       0.30045426 -0.0036561787 -0.235702 0.22816354
0002b0 0c 14 69 3e 68 26 64 3d c0 c8 72 3e 10 e7 00 bd
       0.22761554 0.05570069 0.23709393 -0.03147036
0002c0 82 dd 8f 3e 80 ac 55 bc 1a 9c c7 bd ed 8a 62 be
       0.28098685 -0.0130416155 -0.09746571 -0.22123308
0002d0 40 db 4e 3c a8 e8 3f 3e ba dd 38 3e 1e f7 44 be
       0.012625515 0.18741095 0.18053332 -0.19234893
0002e0 12 ca 19 3e 90 d3 fd 3c 2c 93 9d 3d a2 db 1e 3e
       0.1501849 0.03098467 0.076940864 0.15513471
0002f0 e4 f5 6a 3e c5 90 21 be 9a 5b b4 bd 00 1a 21 3b
       0.22945362 -0.15777881 -0.08806534 0.0024582148
000300 dc db 57 3e 3e bf a8 bd 70 71 96 be fc 40 a0 3d
       0.21079963 -0.082396016 -0.2938342 0.07824895
000310 e2 de 3a 3e 4e 0d 8e 3e 0c 2f 81 be c0 fc 15 bc
       0.18249086 0.27744526 -0.25231206 -0.009154499
000320 e5 14 16 be d4 1a d7 bd 88 b0 7c 3e 14 aa dd 3d
       -0.14656408 -0.10503164 0.24676716 0.108234555
000330 4a d1 d3 bd 68 45 ff 3d a4 ca a7 bd 2c 80 7e 3e
       -0.10342653 0.1246441 -0.081929475 0.24853581
000340 e0 33 ce 3c d9 5c 6f be 70 63 5b 3e a6 42 96 3e
       0.02517122 -0.23375262 0.21424651 0.29347724
000350 74 7d 7d 3e 10 47 6c 3d 60 8f 65 3e 98 7e 88 be
       0.24754888 0.057684958 0.22417974 -0.26659083
000360 9c bb 58 3e f6 29 45 be 7c 67 54 3e 06 86 87 3e
       0.21165317 -0.19254288 0.20742601 0.2646944
000370 38 c1 43 be 60 a0 71 bc 80 d8 7c bd f8 20 74 3d
       -0.19116676 -0.014747709 -0.061729908 0.059601754
000380 80 f6 77 3b 60 d5 3b bd 98 72 13 3e ce a3 77 be
       0.0037836134 -0.045857787 0.14399183 -0.2418358
000390 b8 c5 54 bd e4 df 6e 3e cf 7a 2f be 8c 63 5e 3e
       -0.05194637 0.23327595 -0.17136692 0.21717662
0003a0 f4 59 4f 3e d0 bb c6 3d 4d 91 73 be e0 8d 55 3c
       0.20249158 0.09703791 -0.23785897 0.013034314
0003b0 94 8e 80 3d 70 16 91 3e 80 ea 7d 3c b0 7f d2 3d
       0.062771946 0.2833743 0.015497804 0.10278261
0003c0 7c be 29 be 70 03 93 be 27 d4 15 be 2c f7 5f be
       -0.1657657 -0.2871356 -0.14631711 -0.21871632
0003d0 07 78 55 be 88 d7 57 3e fa fa 59 be 99 b2 80 be
       -0.20846568 0.21078312 -0.21287146 -0.2513626
0003e0 c0 f7 6c 3d 1a fa b3 bd 16 8d 8d 3e b2 9c a4 bd
       0.05785346 -0.087879375 0.27646703 -0.080377
0003f0 40 fd 7b 3c 90 48 92 be 8d c8 83 be da 6d 12 be
       0.015380204 -0.28570986 -0.25738946 -0.14299718

fc1.bias f4 [64]
000000 b2 b7 86 be 5b a9 98 be a0 db 09 3d 34 35 58 be
       -0.26312023 -0.29816708 0.033656716 -0.21114045
000010 b6 cf 8b be a8 bc 21 bd e7 64 94 be 36 f1 95 be
       -0.27306908 -0.039486557 -0.28983232 -0.29285592
000020 ec 14 88 3e a0 b3 0a be 00 e7 4a 3e 8c fe 95 3e
       0.26578462 -0.13545084 0.19814682 0.29295766
000030 20 5b 0d 3c 5c 80 22 be 4c 2f ee bd 98 6f 91 3e
       0.008627683 -0.15869278 -0.11630115 0.28405452
000040 00 99 8c be 98 4d 02 be d4 a9 10 be 68 16 60 3d
       -0.2746048 -0.12724912 -0.14127284 0.05470887
000050 d9 bc 72 be a0 e5 1d 3d 43 a5 85 be 7e 63 0d 3e
       -0.23704852 0.038549066 -0.26102647 0.13807485
000060 30 17 05 3d dc 13 96 3d 45 89 33 be f4 01 66 3e
       0.032492816 0.073280066 -0.17532833 0.22461683
000070 30 36 eb 3d 8e c5 27 be 7c 97 8d 3e 0e aa 98 3e
       0.11484945 -0.16383955 0.27654636 0.2981724
000080 10 37 71 be d2 4a 03 3e 22 55 ea bd 10 b7 fb 3d
       -0.23556161 0.1282151 -0.11442019 0.12290776
000090 bc df 72 3e 75 7c 27 be ce fc 20 be 28 46 85 be
       0.2371816 -0.1635607 -0.15721437 -0.26030087
0000a0 82 49 2e 3e 80 1b 33 be c0 73 73 be f0 92 b7 3c
       0.17020229 -0.17490959 -0.23774624 0.022408932
0000b0 40 d5 fb bb c2 9e 82 be 3c 4e 00 3e 30 10 77 3e
       -0.0076853335 -0.25511748 0.12529844 0.24127269
0000c0 14 62 95 3e 10 ad ef 3c c6 7d 37 be 93 4b 0a be
       0.2917639 0.029257327 -0.17919073 -0.13505392
0000d0 e4 44 db 3d 20 9c bc 3c c6 b2 d1 bd 3d 10 8c be
       0.10706499 0.023023665 -0.102391765 -0.2735614
0000e0 c4 b4 72 be 10 2d a8 3c 53 e0 48 be 80 9f 4b 3e
       -0.23701769 0.0205293 -0.19616823 0.19885063
0000f0 c0 29 2b 3e a8 e1 4b bd 0c e2 14 3e c0 6c ad bb
       0.16715145 -0.04977575 0.14539355 -0.005292505

fc2.weight f4 [64, 64]
000000 c8 80 83 3d dc 06 4c 3d 68 15 d3 3c fa 0a ef bd
       0.064210474 0.04981123 0.025767043 -0.116720155
000010 aa d9 ec bd 00 28 1d 3d 90 86 57 bd 80 c9 ca 3b
       -0.115649536 0.038368225 -0.052618563 0.0061885715
000020 e8 c0 d4 bc 40 49 3f 3c 68 22 c8 bd 04 cd 40 bd
       -0.025970891 0.011675179 -0.097721875 -0.047070518
000030 cc 5d 0b 3d 34 a5 a8 bd 3e 3e 9b 3d e2 91 ef 3d
       0.034025 -0.08234635 0.07580231 0.11697747
000040 98 68 0b bd 00 79 5f 3b 16 b5 a6 bd 70 ad c3 3c
       -0.034035295 0.0034099221 -0.08140008 0.023886412
000050 54 18 72 bd c2 da c2 bd 10 39 13 bd da 77 83 bd
       -0.059105232 -0.09514381 -0.03594309 -0.06419344
000060 3a 7b 98 bd ea 6f b4 bd e0 53 a4 3c 04 9c a0 bd
       -0.074453786 -0.088104084 0.020059526 -0.078422576
000070 94 2e 4c 3d 78 ba d0 3d c4 48 23 3d a0 a0 f9 3d
       0.049849108 0.10191816 0.039864317 0.1218884
000080 20 8f e3 3c 48 b4 95 3d 70 33 37 bd 06 1b 98 3d
       0.027778208 0.073097765 -0.04472679 0.07427029
000090 fa e0 ed 3d 38 37 ca bc a4 34 94 3d 10 ef b4 bc
       0.116151765 -0.024684533 0.07236603 -0.02208665
0000a0 18 9d 9a 3d 2c b6 41 bd 3a 41 f0 bd 6a af db 3d
       0.075494945 -0.047292873 -0.11731191 0.10726817
0000b0 d2 af 8b bd d8 60 90 3d 20 2a af 3c 2c 68 50 bd
       -0.068206444 0.070497215 0.021382391 -0.050880596
0000c0 30 ce bb bc ac c2 5b bd 98 e0 a4 3d e8 4d 5c bd
       -0.022925466 -0.05365245 0.0805065 -0.053785235
0000d0 4e b4 bc 3d 5e f9 d1 bd 38 fb f4 3c b4 91 54 3d
       0.09214078 -0.10252641 0.029904947 0.051896766
0000e0 a0 9a 25 bc f4 a6 8b 3d b2 a2 f8 3d 70 b5 ec 3d
       -0.010107666 0.06818953 0.12140407 0.11558044
0000f0 00 fd 6c bd 4c b3 7b bd 0a 1a 87 bd 28 bd 1d 3d
       -0.057858467 -0.061450288 -0.065967634 0.03851047
000100 c8 9c 71 3d f4 8c 6d bd 26 ca b3 bd 1c 12 48 3d
       0.05898741 -0.05799575 -0.08778791 0.048845395
000110 30 da 8e bd 40 dc 5a 3b 2c 51 48 3d 78 2e d8 3c
       -0.0697521 0.003339544 0.048905537 0.026389346
000120 f8 b8 8b bc 20 20 88 bb 40 10 ff 3c 84 5c fd 3d
       -0.017055973 -0.00415422 0.031135678 0.123711616
000130 de ef 91 bd 7c 2a a0 bd f4 c6 d5 3d 5c d0 a3 bd
       -0.07125829 -0.07820603 0.10438338 -0.07998726
000140 f6 38 91 bd d0 5c bc 3c 54 cf 36 bd 9c 9a 25 3d
       -0.070909426 0.022993475 -0.044631317 0.04043065
000150 9a 14 c6 3d 98 92 87 bc 6a da d6 bd 00 44 8e bc
       0.09671898 -0.016549394 -0.10490878 -0.01736641
000160 4c 75 6e bd 80 6a a9 3a 76 3f 8d 3d c0 e4 90 bc
       -0.05821733 0.0012925416 0.0689687 -0.017687201
000170 84 82 0f 3d dc 27 48 3d 20 0e bc 3b b0 8f 91 bd
       0.03503658 0.048866138 0.0057389885 -0.07107484
000180 0e 03 80 3d 98 88 a2 3d 74 c9 ef bd c0 f0 21 bd
       0.06250583 0.079362094 -0.11708346 -0.039536238
000190 ae a2 93 bd 70 57 11 3c 0e c4 9d 3d 4c 21 7b 3d
       -0.07208763 0.008870944 0.0770341 0.06131105
0001a0 ca 52 a5 bd 30 eb 4d 3d 96 fb fb 3d 08 81 c4 3d
       -0.080724314 0.05027312 0.123038456 0.09594923
0001b0 06 25 f0 3d 36 81 94 bd 58 de c5 3d e2 3e b0 3d
       0.11725812 -0.072512075 0.09661549 0.08605744
0001c0 bc 9d 9d 3d 4e e7 ef bd f0 cd 4f 3d 60 28 55 bd
       0.07696101 -0.1171404 0.050733507 -0.052040458
0001d0 10 1d 95 bc 30 4c 07 bd 52 b2 db 3d 34 61 9e bd
       -0.018202335 -0.033031642 0.10727371 -0.07733384
0001e0 0c db cc 3d b8 a0 b6 bc c8 f2 a0 3d ac 99 8d 3d
       0.100027174 -0.022293434 0.07858807 0.06914076
0001f0 b4 09 92 3d c0 c8 c7 bb e8 e2 a2 3d a0 b4 64 3d
       0.07130757 -0.0060969293 0.07953435 0.05583632
000200 10 b1 b8 3c 10 da da 3c 04 98 2a bd 88 59 bc bc
       0.022545367 0.026715308 -0.04164888 -0.02299191
000210 dc 2c bf 3d 84 5d ba bd 90 1f df 3d 90 e1 ff bd
       0.09334728 -0.09099868 0.10894692 -0.124941945
000220 44 e7 86 3d c4 4e 07 bd 0c a2 25 3d 18 7a c8 3d
       0.06587079 -0.0330341 0.040437743 0.097889125
000230 50 cf d2 bd f4 ea 06 3d c0 85 0a bc 78 16 de bc
       -0.10293448 0.032938913 -0.00845474 -0.027110323
000240 24 92 87 bd 2a 6d e3 3d a6 36 d8 3d e8 98 09 3d
       -0.06619671 0.11104806 0.10557298 0.03359309
000250 f0 42 7f 3d 50 ae 04 3d 6c 5c 17 bd c6 0e b6 3d
       0.062319696 0.0323928 -0.036953375 0.088895366
000260 d4 a7 c1 3d d0 a6 d1 3c cc 61 a3 bd 30 e5 73 bd
       0.09455839 0.025592238 -0.07977638 -0.059544742
000270 98 f0 36 bd 30 ba 0b bd e4 22 3d 3d 10 30 ef 3d
       -0.04466304 -0.03411311 0.046175852 0.11679089
000280 a0 bc f7 bc 60 1b 33 3d 50 29 be 3c 98 d6 37 3d
       -0.03024131 0.04372728 0.023213059 0.044882387
000290 42 1a 9c bd f6 2a f6 3d 94 72 10 bd 3e f5 8c 3d
       -0.07622196 0.12019913 -0.03526552 0.06882714
0002a0 10 a3 53 3d 40 3c 5b bb 50 65 1c bd 90 bf 06 bc
       0.05166918 -0.003345266 -0.038182557 -0.008224383
0002b0 26 d0 cb 3d 14 0a ae 3d 7c 22 af 3d 6e 52 81 3d
       0.099518105 0.08498016 0.08551499 0.0631455
0002c0 10 74 21 3c 26 b2 91 3d 3c 60 e1 3d 28 8b a5 3c
       0.009854332 0.07114057 0.110046834 0.020207956
0002d0 84 7b 3d bd f8 43 3f 3d 6e 93 f0 3d aa 2e 8c 3d
       -0.04626037 0.04669568 0.1174687 0.06844838
0002e0 e0 ad 35 3d 22 3b d6 3d 12 6b a8 3d 38 00 05 bd
       0.044355273 0.104604974 0.08223547 -0.03247091
0002f0 d8 4d 27 bd 9c c3 3d bd 00 ce d4 bc 50 e8 68 3d
       -0.040845722 -0.046329126 -0.025977135 0.056862175
000300 80 04 ff bc 9a 6b c9 bd bc 4c 57 bd d0 0f 28 bc
       -0.031130075 -0.098349765 -0.052563414 -0.010257676
000310 d6 25 a5 bd 00 9b 2d bd e0 22 6e bd 18 0f f9 bd
       -0.08063857 -0.042384148 -0.05813873 -0.12161082
000320 a8 77 eb bc e0 8f e0 bd 38 a1 d3 bd 24 f4 ad bd
       -0.02874358 -0.10964942 -0.103334844 -0.08493832
000330 bc e5 6e bd b0 e6 88 3d 78 ea be bc 22 55 8e 3d
       -0.05832456 0.06684625 -0.023305163 0.069498315
000340 c0 c8 94 bc 18 a6 cd bc d0 15 5d bc 28 90 61 3d
       -0.018162131 -0.025103614 -0.01349397 0.05506912
000350 b2 20 f9 3d 08 9f 03 bd 80 68 5d bb 44 17 67 bd
       0.12164439 -0.032134086 -0.003378421 -0.056418672
000360 d0 43 84 3c f0 c0 4a 3d 14 38 84 3d f8 cd 4c 3d
       0.016145617 0.049500406 0.064560086 0.050001115
000370 80 c1 3a bb e0 04 1d bd 40 30 34 3b 44 44 db 3d
       -0.0028496683 -0.038334727 0.002749458 0.1070638
000380 d0 27 fa bd 9c 9c 69 3d 3a eb eb bd 58 72 71 bd
       -0.12214625 0.05703412 -0.11519475 -0.058946937
000390 fe cc c2 3d 7e 0a d0 3d ac f0 eb 3d 98 df 99 3d
       0.095117554 0.10158251 0.11520514 0.0751335
0003a0 40 cf cb bc 68 3a 28 bd 00 c6 5d 3d 40 8c bd bb
       -0.024879098 -0.041071326 0.054143906 -0.0057845414
0003b0 90 3a f1 bc 00 df 44 bd 04 c5 a2 bd ea 28 c1 bd
       -0.02944687 -0.048064232 -0.07947734 -0.09431632
0003c0 5c 08 ec 3d 6e 06 8a 3d 00 7e 77 bd 3a 65 b8 3d
       0.11525032 0.067395076 -0.060422897 0.090036824
0003d0 70 11 45 bc a4 ef 73 bd b0 64 4b 3c c0 de 99 3d
       -0.012028083 -0.05955471 0.0124141425 0.07513189
0003e0 aa 3f ff bd f4 b7 89 3d 2e 28 8d bd fc dc 6a bd
       -0.12463315 0.067245394 -0.06892429 -0.057339653
0003f0 20 42 ad bb 5a eb d9 3d a4 b0 d7 bd dc 99 0c bd
       -0.0052874237 0.10640593 -0.105317384 -0.03432642

fc2.bias f4 [64]
000000 f4 64 bf 3d 78 6e 53 bd a4 ce f1 3d 04 fa 76 3d
       0.09345427 -0.051619023 0.11806992 0.060297027
000010 a6 a5 be bd 28 a7 0b bd 74 f1 73 3d b0 c9 15 bd
       -0.09308939 -0.03409496 0.05955644 -0.036569297
000020 ba 81 85 3d 12 93 a2 bd 78 72 c6 3d 5c 38 d6 3d
       0.06518884 -0.07938208 0.09689802 0.104599684
000030 72 d7 e8 bd 70 80 92 3d 4e c0 f1 3d a6 31 98 3d
       -0.11369218 0.07153404 0.11804257 0.07431345
000040 cc 61 43 3d f4 ea 14 3d d8 f2 4c bd 70 ce 97 bd
       0.04770069 0.03635688 -0.05003628 -0.07412422
000050 e0 46 b2 bb 50 5b 86 3d a6 72 a7 bd 82 5e eb bd
       -0.005440578 0.06560385 -0.08176164 -0.11492635
000060 b0 37 7e 3d 48 4c a9 bd 80 cb 97 3c 76 7c a3 3d
       0.062064826 -0.082665026 0.018529654 0.079827234
000070 1e 4c d5 bd 88 e1 ec bc 94 07 3a bd 72 ec f5 bd
       -0.10414909 -0.028916135 -0.045417383 -0.12007989
000080 b0 4b 67 bc c0 dc e5 3b 08 b1 3b 3d c6 b4 c0 bd
       -0.014117166 0.007014841 0.045823127 -0.0940948
000090 70 1a 16 3d ee de 92 bd b0 a7 e5 bc 00 22 77 3a
       0.036646307 -0.07171427 -0.028034061 0.00094273686
0000a0 c0 dc 0e 3c dc e0 1a bd c0 4b c4 bd f0 de d6 3c
       0.008719623 -0.0378121 -0.09584761 0.026229352
0000b0 a4 88 12 3d ec 5f dc 3d 32 ae e2 bd c0 55 f9 3c
       0.035774842 0.10760483 -0.11068381 0.030436397
0000c0 f8 78 23 bd 38 57 e5 bd bc 3a 8c 3d e4 eb f4 3d
       -0.039910287 -0.11198276 0.0684714 0.11959055
0000d0 5e cc 95 3d d0 65 78 bc 58 2c cb bd 68 f5 91 bd
       0.073143706 -0.015160993 -0.09920567 -0.07126886
0000e0 3c a9 26 3d d4 3e 7b bd 72 d7 d6 bd e6 72 ff 3d
       0.04068874 -0.061339214 -0.10490312 0.12473087
0000f0 38 9c 5f 3d 36 a9 de bd fc 14 7b 3d 38 ca c2 bd
       0.05459234 -0.10872118 0.06129931 -0.095112264

fc3.weight f4 [1, 64]
000000 aa 0a ef bd c0 75 b2 3d 74 35 39 bd 78 bf 7d 3d
       -0.11671956 0.08713865 -0.045216992 0.061950177
000010 c0 87 c1 bd ec eb 1d bd b8 2e f1 3d 90 b3 4a 3d
       -0.094497204 -0.03855507 0.11776489 0.04948765
000020 6c 0b 66 bd 50 db 9c bc 84 cf 62 bd f8 43 55 3d
       -0.056163236 -0.019147545 -0.055373684 0.052066773
000030 98 e8 aa 3c 42 57 8d bd 54 f2 11 bd bc 9c bf 3d
       0.020862862 -0.06901409 -0.035631493 0.093560666
000040 88 3d 00 3d a0 a5 0f 3d 08 51 b7 bc 08 25 03 bd
       0.03130868 0.03507006 -0.022377506 -0.032017738
000050 d8 1a 7a 3d b0 a0 0a bd f4 82 dc 3d 58 7e 84 bd
       0.061060756 -0.03384465 0.10767165 -0.06469411
000060 cc 28 e3 bd 2c 5c ed bd 78 a5 89 bc 68 df f8 3d
       -0.11091766 -0.11589846 -0.016802534 0.12151986
000070 86 fa e6 bd f0 c3 ee bc a0 63 04 3c 10 62 9c bc
       -0.11278252 -0.029146165 0.008080393 -0.019089729
000080 9a c3 d3 3d c4 5e 7c 3d b0 78 b0 bd 60 da e7 bc
       0.103400424 0.061613813 -0.08616769 -0.028302372
000090 4e bc 89 bd 1c 97 40 bd 58 06 f7 bd 34 dd 74 3d
       -0.067253694 -0.04701911 -0.12061757 0.05978127
0000a0 86 dd 8f bd 80 13 92 bb 36 cd c0 3d 7c 6b 66 bd
       -0.07024674 -0.004457891 0.09414141 -0.05625485
0000b0 82 aa a0 3d 84 5f b3 3d d6 6d dc bd e0 c6 6f bc
       0.07845022 0.087584525 -0.10763137 -0.014634818
0000c0 cc a2 57 bd a0 68 4d 3c 60 43 d1 bb f2 49 a5 3d
       -0.05264549 0.012537152 -0.0063862056 0.080707446
0000d0 60 ac 65 3d ae 97 9f bd 8c 56 5b 3d f0 16 27 bd
       0.056072593 -0.077926025 0.053549334 -0.04079336
0000e0 7c b5 7d bd 80 4c 66 3c 92 7d f8 bd c4 82 9c 3d
       -0.061940655 0.014056325 -0.12133326 0.07642129
0000f0 56 33 b0 3d 00 32 64 3c 00 dd 82 3b f0 9e 50 3d
       0.086035416 0.013927937 0.0039936304 0.050932825
