data/models/rl_aca_20250316_213901.pt (torch, 23198 bytes, 5 tensors)

fc1.weight f4 [64, 11]
00000000: c49d 273e c0eb c2bb b096 573e 4ced ba3d
00000010: cc35 563e 30e7 2dbe e1de 81be 7919 08be
00000020: ec79 603e 728a 99be 7a34 d8bd 94a4 f03d
00000030: 301f 353e da00 863e 7451 8abe 28ec d73d
00000040: bc56 633e 8ca5 393e 1a39 373e e720 94be
00000050: 0bc7 95be 78b5 84be d058 aabc 9008 16bd
00000060: f4d2 133e f235 4abe cc34 6d3e f243 263e
00000070: 98c4 7dbe c0ea c4bc 259f 15be c2c4 79be
00000080: 6e49 c6bd a8ac 113d d612 57be ecda db3d
00000090: 5411 8a3e 4c68 b83d 66a5 88be 647b d83d
000000a0: 4c5a b23d 7d83 22be 3875 e73d 08ee 3e3d
000000b0: 4026 c63d 18ae 403d 1e84 273e 7cc3 653e
000000c0: 05a9 0bbe 8a50 c7bd d50c 5bbe fbaa 25be
000000d0: 1cbd d33d 2ca8 503e 2c97 853d e03a 243c
000000e0: 781e 733e f8fa 23bd 80a9 d7bb c877 7c3e
000000f0: da80 a7bd 28ac 973d 985a 6fbe a044 513c
00000100: 98b3 95be 3439 c33d 4058 8fbe 12da 10be
00000110: e63f 9abe 708f 813c f4c4 f53d 76d0 82be
00000120: 2510 8dbe dcec 4b3e d8b1 693d ae1f 163e
00000130: 688d 19bd 94d9 9f3d dcec 813e 64b2 963d
00000140: 280f 58be 742e 86bd 00b1 b43a a8d8 7cbe
00000150: c694 59be bb7a 5ebe 4072 bcbc bc84 5e3e
00000160: 541d ae3d 008c 8cb9 10a1 d1bd f13c 8fbe
00000170: 6d85 21be 7355 21be aeb1 893e fe5c 013e
00000180: 76ed cabd ca74 9dbd 18b2 973e 80f3 2b3b
00000190: 10ff 8abc cea8 823e 0221 883e 980d 94bd
000001a0: 842d f0bd 7c0f 46be 7c09 93bd dc92 743e
000001b0: d07b f03d daca 8dbe b008 603e 4899 b5bd
000001c0: 605e 79be 503e ff3c 0438 8f3e 3370 5bbe
000001d0: 38a3 713e 2050 53bc cea3 8f3e 01c0 13be
000001e0: 2028 023c c02b 93bc 94db 73be b0c2 f2bd
000001f0: 4f35 84be d05e e73d 6121 99be 446e c03d
00000200: da5b dbbd ce53 32be b027 303e 2853 d73d
00000210: 4007 c4bc 1c28 7e3e 70b7 febc ace2 51be
00000220: 3c02 d8bd 18ac 423e daf6 8cbe 20c3 0e3d
00000230: 8a7b 213e f286 893e e021 82bd 167f 153e
00000240: 0ebd 4dbe ecb4 363e 20a0 8e3d 94d9 b4bd
00000250: 80bc b13b e4e8 14be d0a1 98bc f8c2 20be
00000260: 1da9 87be ade0 89be 64c9 503e 044f 73be
00000270: 0405 833e c0cc 9c3c 1059 da3c 744f 123e
00000280: d6a2 873e 4c52 173e 5ad7 80be 81b4 86be
00000290: 92d5 d3bd ec3b 903e a6f2 323e 58a4 263e
000002a0: e407 58bd d2a7 72be e058 19bc a4ba ccbd
000002b0: 7afa 163e 6a9e 4dbe b350 21be 3028 a5bc
000002c0: 4cca 99bd d40e 21be 1291 88be 1e16 f6bd
000002d0: 40ad 083e 1ef4 63be e46f 8fbe 4041 ba3d
000002e0: c1d4 91be 003c 0cbb 8c86 ad3d b43e c3bd
000002f0: d613 56be f226 e0bd c09a 93be faf6 1f3e
00000300: cac8 143e 228b a4bd 04b9 73be 70bc 8bbe
00000310: e01f 26be d851 19bd 6e18 8f3e fccd 4c3e
00000320: eeee 86bd 8043 933b 10d9 653d 5a91 d3bd
00000330: 4a93 40be e2db fabd 50ab 21be d801 82be
00000340: 6db9 86be 69a5 29be ce67 98be 3434 c43d
00000350: 745b 5a3e a03b 4fbc 6247 48be 0ec0 233e
00000360: 9890 343e 0031 d3bb 3c65 76bd 7078 3fbe
00000370: c66d e6bd 18ad 043e 18b9 26bd f257 85be
00000380: d0a8 773e 4fa2 92be 9d08 2cbe 419b 94be
00000390: 6089 5ebe 34b0 893d 707a 343d 2998 52be
000003a0: f8a2 73be 506a 313d f885 1c3d 58b8 42bd
000003b0: f0e7 c93c 408e e93d 544d 98be c085 be3b
000003c0: 7845 973e d088 7a3e 88ee 7abd b05f 893d
000003d0: f353 95be 355b 88be 7874 e8bd 7492 193e
000003e0: 5886 a13d ea35 0d3e 09d2 94be 80ef d2bb
000003f0: 2449 e83d fa27 493e a0cf 5b3c ef51 8cbe
0.16368777 -0.0059485137 0.21053576 0.09127292 0.2091896 -0.16982722 -0.25365356 -0.13290967
0.2192151 -0.29988438 -0.10556884 0.11750141 0.17687678 0.26172525 -0.2701527 0.1054309
0.22201055 0.18129557 0.17892876 -0.28931352 -0.2925342 -0.259197 -0.020794302 -0.03662926
0.14435941 -0.19747141 0.23164672 0.16236857 -0.24782026 -0.024037719 -0.1461149 -0.24391463
-0.09681974 0.03556505 -0.21003279 0.107351154 0.26966345 0.09004268 -0.2668869 0.1057041
0.08708629 -0.15870471 0.113016546 0.046613723 0.09675264 0.04704103 0.16358992 0.22437853
-0.13638695 -0.097321585 -0.21391614 -0.16178505 0.10338804 0.20376652 0.06522974 0.0100238025
0.23742092 -0.040034264 -0.0065814853 0.24655068 -0.08178873 0.07405883 -0.23374403 0.012772709
-0.29238582 0.09532395 -0.27997017 -0.14145687 -0.30126876 0.015815467 0.120004565 -0.25549668
-0.2755138 0.19914573 0.05705437 0.14660522 -0.03748837 0.078051716 0.25376022 0.07358244
-0.21099532 -0.06551829 0.001378566 -0.24692023 -0.21248159 -0.21726505 -0.023003697 0.21730322
0.08501688 -0.0002680719 -0.10235798 -0.27976182 -0.15773554 -0.15755253 0.2689337 0.1263313
-0.09908573 -0.07688291 0.29628062 0.0026237667 -0.016967326 0.25519413 0.26587683 -0.07229155
-0.117274314 -0.19341844 -0.071795434 0.23884147 0.11742365 -0.27693826 0.21878314 -0.08867127
-0.24352407 0.031157643 0.27972424 -0.2142952 0.2359742 -0.012897521 0.2805466 -0.14428712
0.007944137 -0.017965198 -0.23814231 -0.1185354 -0.2582192 0.11297381 -0.2990828 0.093960315
-0.10710879 -0.17414781 0.1720264 0.10513908 -0.023929238 0.24819988 -0.03109333 -0.20496625
-0.10547301 0.19010961 -0.27532083 0.034854054 0.15769783 0.26860768 -0.063541174 0.1459926
-0.2009165 0.17842454 0.06964135 -0.08830562 0.0054240823 -0.14541966 -0.018631846 -0.15699375
-0.2649621 -0.26929227 0.20389324 -0.23760611 0.25589764 0.019140601 0.026653796 0.14288121
0.2649142 0.14777488 -0.251643 -0.2630959 -0.1034347 0.28170717 0.17475376 0.1627363
-0.0527419 -0.23696831 -0.009359568 -0.099965364 0.14743987 -0.20079961 -0.1575344 -0.020160764
-0.07509288 -0.15728313 -0.2667318 -0.12015937 0.1334734 -0.22261092 -0.28015053 0.09094477
-0.2848263 -0.0021398067 0.084729284 -0.09533444 -0.20906004 -0.10944928 -0.28829002 0.15621558
0.1452972 -0.0803435 -0.23801047 -0.27292204 -0.16223097 -0.037431568 0.27948326 0.20000452
-0.06588541 0.0044941306 0.05611521 -0.10330458 -0.18806186 -0.122489706 -0.15788007 -0.25392032
-0.26313344 -0.16567005 -0.29766697 0.095802695 0.21323949 -0.012648493 -0.1955848 0.15991232
0.17633283 -0.0064450502 -0.06015514 -0.18698287 -0.11251406 0.12956655 -0.040703863 -0.2604366
0.2418549 -0.28639457 -0.1680016 -0.290247 -0.21732092 0.06723061 0.044062078 -0.20565857
-0.23792636 0.043314278 0.0382137 -0.047539085 0.02464673 0.11404085 -0.29746497 0.005814284
0.29545188 0.24466252 -0.061262637 0.06707704 -0.2916561 -0.26632085 -0.1135034 0.14997274
0.07886952 0.13790098 -0.29066494 -0.006437242 0.113420755 0.19644156 0.013416201 -0.2740626

fc1.bias f4 [64]
00000000: 3c2b 7e3e 6e64 84be 6023 68be 3066 d9bd
00000010: 987e 3b3e 0dec 2ebe b08f 93be 408f dfbc
00000020: eade 903e 93d0 33be c0df eb3b 0060 25be
00000030: 10e4 e73d 142e 863d c1f4 93be 806f e0bc
00000040: 4006 f23d 3423 64bd 0b19 09be b07e f33c
00000050: d0b3 e53c f80b efbd 9e0e 2ebe 8fa2 09be
00000060: d3ab 27be e026 e63c 8d55 6dbe 4a74 903e
00000070: c6e4 2cbe 9b42 8abe ccad 3bbe 92ec 46be
00000080: 366b 023e 85fb 86be 887d 7bbd a43b f33d
00000090: 414b 12be 60ac 183d f431 20be e073 0e3e
000000a0: 6058 2a3d 90be 88bd 8888 503d ea5f a0bd
000000b0: c139 88be 60d4 1dbe 8ea8 a8bd e0d2 3ebd
000000c0: d483 82bd a2eb 183e 4498 c63d 38c4 7f3e
000000d0: 2076 443d 8761 77be b73f 7ebe b00f 623e
000000e0: 4733 6fbe 101b 4f3e c4ed d3bd 3ce6 923d
000000f0: 6233 973e 28f8 533e 044e e63d f03e 8c3c
0.2482118 -0.25857872 -0.22669744 -0.10615194 0.1831001 -0.17082234 -0.28820562 -0.027289987
0.2829507 -0.17560034 0.007198304 -0.16149902 0.11322796 0.065517575 -0.2889767 -0.027396917
0.11817598 -0.055697635 -0.1338846 0.029723495 0.028039843 -0.11672205 -0.16997764 -0.13440917
-0.1637414 0.028094709 -0.23177166 0.28213722 -0.16884145 -0.2700394 -0.18328017 -0.19426182
0.1273621 -0.2636377 -0.061399013 0.1187661 -0.1428652 0.037273765 -0.15644056 0.1391139
0.041588187 -0.06676972 0.050911456 -0.07830794 -0.26606563 -0.15413046 -0.08235274 -0.046587825
-0.063728005 0.14933637 0.09697011 0.24977195 0.047964215 -0.24158297 -0.24828993 0.22076297
-0.23359405 0.20225167 -0.103480846 0.0717282 0.2953139 0.20700133 0.11245349 0.017119855

fc2.weight f4 [64, 64]
00000000: 7800 583d 405f 20bc 40a1 2e3d d2a9 ae3d
00000010: b840 693d a891 7fbd 3ab1 8b3d 0cca e3bd
00000020: dc81 913d 70dc 763d a608 d73d 9e1f 84bd
00000030: 20db 4a3d 3671 e2bd ec47 813d da31 fd3d
00000040: 70f5 073d 102a 253d f036 dfbc 1c12 8c3d
00000050: 48b4 fdbc e672 f3bd cae0 b93d de14 8ebd
00000060: ceaf ddbd 6074 8cbc d8c9 5b3d 5c65 f43d
00000070: 96f8 fa3d 20ba 68bc be22 d73d d0f4 8c3d
00000080: 7455 04bd 9830 33bd 4053 cebd c06a d63c
00000090: e081 303d ac3f f93d 1041 a0bc d05f e63c
000000a0: 501f 6a3d 803f c03c e888 dcbc 9cbb 07bd
000000b0: d404 f33d e0f6 15bd 00c4 33ba 00d9 eeba
000000c0: dc5f 9a3d 60d9 733d 6c9b 46bd a6ba eabd
000000d0: b663 c8bd 387e f03d a066 b73d ee0c e13d
000000e0: e81d ac3d ce9d 8cbd e8aa 9bbc 54c8 aabd
000000f0: 402d 453c 7e17 9dbd f0f2 24bc 165f d93d
00000100: 409e 2f3b 3cbf 9fbd 9632 b6bd b898 f0bc
00000110: d692 b13d 1676 af3d fa9c 80bd 684b 23bd
00000120: 08f9 cebc 183b a5bc 40cc ff3d c43e bcbd
00000130: 7ab4 d9bd 50f6 9f3c 042a 8bbd 206f c1bc
00000140: 027e ebbd d073 29bc 70b3 bb3d b28e 8ebd
00000150: 08a3 cdbc 0a01 ab3d 160f b63d d0ed d0bc
00000160: b08b 75bc ecd5 17bd 809e 463c 9230 febd
00000170: a488 01bd 1ef8 cd3d 00af ec3b 481c 5ebd
00000180: 5003 d13d f880 8fbd e8b6 353d 6c6a 263d
00000190: 644e 0dbd 64cd a03d c6bd a63d 7842 9a3d
000001a0: 7c04 a5bd 9c57 693d e4d9 703d 380f 2bbd
000001b0: c882 8dbc 0063 763d a4e3 5f3d c058 b2bb
000001c0: 7050 e73d ea94 d1bd 7ccc 82bd 002c eabc
000001d0: 24ae a6bd ac1a b43d cc4f 4ebd 58fa bfbc
000001e0: c057 323b 4013 0ebc a0c3 3dbc 0058 ddbd
000001f0: f8fd ee3c 22ef f93d 1876 f83c dc77 4d3d
00000200: 60cb e9bd 0406 6b3d 2440 17bd 90c2 113c
00000210: cc36 02bd 8ec4 c6bd e0b5 52bc 40c9 c13c
00000220: 3841 5abd 5cc0 113d 7077 243d 7017 273c
00000230: e4c2 aa3d 74fb f0bd 2492 ca3d 24c8 6b3d
00000240: d0d6 6b3d 30df 773d 603b e93d e0aa 50bd
00000250: 805e fa3c b689 c3bd 889e ec3d 6c11 763d
00000260: eedf d53d 0012 543a 401f fc3b 60a1 dfbc
00000270: 203b 363c 287a f1bc 40fd 5ebc 682c 5dbd
00000280: c073 a9bb f8b8 be3c 8062 793b 1a5b 883d
00000290: da57 f9bd 58c5 da3d 907e 633d dc00 7ebd
000002a0: a450 25bd 1a1e 80bd 60fc 0abc 80cc 023d
000002b0: a85e 4bbd a21d bfbd 14cd 60bd 7840 7f3d
000002c0: acd1 30bd 063f 803d 64be 3abd 9008 f63d
000002d0: f857 763d b0c0 363d 40ce 48bb ee4a f73d
000002e0: dc30 78bd 101d 73bd 2cd0 053d aece e03d
000002f0: 809a 8abb aab8 c0bd 2cd4 f43d 50cb 2d3c
00000300: 50a2 6abd 124e 87bd 047d 57bd 7497 f73d
00000310: c4c8 48bd 2cff fabd 58ce 883d 30e8 753d
00000320: b6e2 b63d 8e46 dc3d 50e4 ba3c 2c85 e03d
00000330: b2e6 be3d 24a4 3f3d 60a3 d93b 5aaa f63d
00000340: ea9c cbbd 4ec2 813d cc46 20bd c086 cf3c
00000350: e8b5 b03c 6afe 9ebd de32 82bd 4037 12bb
00000360: 1e92 d5bd f879 78bd 7836 b6bc 8841 d1bd
00000370: e08a fd3d b871 203d cc2e 77bd 006a 8639
00000380: ac9e 3abd 00eb d63a e02f 85bc 385f c93c
00000390: 8cb1 13bd c0e7 45bd 24ae 96bd f0d3 8bbc
000003a0: 16aa b53d 78ba df3c 088e e53d b427 193d
000003b0: c0ae f0bb d00d fcbc a460 c7bd 8048 7f3c
000003c0: f037 c5bc 389c d03c 1002 fe3c d87a 2d3d
000003d0: 889b a0bd 5668 b1bd b055 843c b027 363c
000003e0: d61e f43d 5652 e4bd 5e1f d33d c868 d83d
000003f0: c455 15bd dc3d 4ebd 809b d03d 6a54 dc3d
0.052734822 -0.009788334 0.04263425 0.085284844 0.056946486 -0.062394768 0.06820913 -0.11122522
0.07104847 0.06026882 0.104996964 -0.06451343 0.04952538 -0.110567495 0.06312546 0.12363024
0.03319305 0.040323317 -0.027247876 0.068393916 -0.030969754 -0.118871495 0.09076078 -0.06937574
-0.10824548 -0.017145336 0.05365929 0.11933395 0.12254445 -0.014204532 0.105046734 0.06882632
-0.032308057 -0.043747514 -0.100744724 0.02617395 0.04309261 0.121703476 -0.019562274 0.028121859
0.05715877 0.02346778 -0.02692075 -0.033137903 0.11866155 -0.03661239 -0.00068575144 -0.001822263
0.07537815 0.059533477 -0.048488066 -0.114613816 -0.09784643 0.11742824 0.08955121 0.10988794
0.08404142 -0.06866036 -0.019002393 -0.08338991 0.012034714 -0.076704964 -0.010067686 0.10613839
0.0026797205 -0.07800147 -0.08896367 -0.029369697 0.08670585 0.08567445 -0.06279941 -0.039866835
-0.025265232 -0.02016978 0.124901295 -0.09191659 -0.10630126 0.01952663 -0.06795123 -0.023612559
-0.114986435 -0.010342553 0.09165084 -0.06960811 -0.025102153 0.083498076 0.08889596 -0.025504023
-0.014986917 -0.037069246 0.01212275 -0.12411608 -0.03162445 0.1005709 0.00722301 -0.05422619
0.1020571 -0.07007021 0.044363886 0.040628836 -0.034498587 0.07851675 0.08141665 0.07532209
-0.08057496 0.056968316 0.058801547 -0.04176256 -0.017274275 0.060153008 0.054660454 -0.0054427087
0.11294639 -0.10233481 -0.063866585 -0.028585434 -0.081386834 0.0879415 -0.05036907 -0.023434803
0.0027212948 -0.008671582 -0.011582285 -0.108078 0.029173836 0.12203814 0.030329749 0.050163135
-0.11415744 0.057378784 -0.036926404 0.008896485 -0.03179054 -0.097054586 -0.012860745 0.023655534
-0.053284854 0.03558384 0.040152967 0.010198459 0.08337954 -0.11766711 0.09891155 0.057563916
0.057577908 0.060515583 0.11388278 -0.05094421 0.03056264 -0.09547751 0.11553675 0.06007521
0.10443102 0.00080898404 0.007694155 -0.02729863 0.011122495 -0.029477194 -0.013610184 -0.053997427
-0.005171269 0.02328156 0.0038053095 0.06658001 -0.121749595 0.106821716 0.05554062 -0.06201254
-0.040360108 -0.062557414 -0.008483022 0.031933308 -0.049650818 -0.09331824 -0.054883078 0.06231734
-0.04316871 0.06262021 -0.045591727 0.12013352 0.060142487 0.044617355 -0.0030640513 0.120748386
-0.06059347 -0.059353888 0.03266923 0.10976921 -0.0042298436 -0.09410222 0.11954531 0.0106075555
-0.0572837 -0.066066876 -0.05260946 0.12089434 -0.04901959 -0.122557014 0.06679982 0.060035884
0.089299604 0.10755645 0.022813946 0.109629005 0.093213454 0.046787396 0.0066417903 0.12044211
-0.09942038 0.06335889 -0.039130017 0.025332808 0.021571115 -0.077633694 -0.063573584 -0.0022310764
-0.1042826 -0.060663193 -0.02224277 -0.10217577 0.12380004 0.03917095 -0.060347363 0.00025637448
-0.045561478 0.001639694 -0.01625818 0.024581537 -0.036057994 -0.048316717 -0.073574334 -0.017068833
0.08870332 0.027310595 0.11208731 0.03739138 -0.0073450506 -0.030768305 -0.097352296 0.01558125
-0.024074525 0.025465116 0.031006843 0.04235348 -0.07842165 -0.086624786 0.01615414 0.011117861
0.11919944 -0.11148517 0.10308717 0.105668604 -0.036458746 -0.050351962 0.10185909 0.10758288

fc2.bias f4 [64]
00000000: b8e0 4cbd 1ce9 983d 002a e83b 209a c83b
00000010: f647 a0bd 9659 823d 144a 003d 5097 1a3c
00000020: 8073 263d 00f8 97ba a821 cf3d 40ce de3c
00000030: 10bd 6fbc 6844 723d b055 733c 906b 01bc
00000040: c0bf a8bb b2ce 9dbd 20da c03b 2041 c4bb
00000050: b8c2 32bd 88e2 c53d 9052 85bd 34f5 46bd
00000060: d4c9 fe3d 8096 11bb 9030 ad3c cc0e fa3d
00000070: 4007 0d3d 5295 883d a879 f83c 8cd9 c6bd
00000080: 70da e33d c854 d0bd a825 db3d 9ead 80bd
00000090: 5056 0f3c 30f0 48bc 3072 4bbd d032 8cbd
000000a0: 5215 f4bd a288 9abd 5258 ce3d 4455 33bd
000000b0: 3cbb 92bd f09c 21bd c09c bdbb 7879 98bc
000000c0: fc22 6f3d 5092 22bc 4258 b63d 0001 bfbc
000000d0: 84ec 173d 484e 613d 88dd 3a3d ac50 3ebd
000000e0: f8ba e33d 1eb8 87bd ee97 9e3d b27e 8bbd
000000f0: c44e 57bd 3874 d13d d6ef b8bd 801e 4cbd
-0.050018996 0.07466337 0.007085085 0.0061218888 -0.078262255 0.063647434 0.031320646 0.00943549
0.040637493 -0.0011594296 0.10113841 0.027197957 -0.014632478 0.05914727 0.014851972 -0.00789918
-0.0051498115 -0.077054396 0.0058853775 -0.005989209 -0.04364273 0.09662348 -0.06509888 -0.048573688
0.124408394 -0.002221495 0.02114132 0.122098535 0.034430742 0.066691056 0.030331448 -0.097094625
0.11125648 -0.10172421 0.10700542 -0.06283115 0.008748606 -0.012264296 -0.049669445 -0.06845629
-0.11918129 -0.07545592 0.100754395 -0.043782488 -0.071646184 -0.039456308 -0.0057865083 -0.018612608
0.058382973 -0.009922579 0.089035526 -0.023315907 0.037090793 0.055006295 0.045621425 -0.046463653
0.11119646 -0.066269144 0.07743822 -0.068112746 -0.05256535 0.10227245 -0.0903012 -0.049833775

fc3.weight f4 [1, 64]
00000000: 50b8 3bbd 0050 4438 8006 d3bb c0e7 4bbd
00000010: da98 b1bd ce5e 963d 18fa f3bc 72a5 dcbd
00000020: c44c b8bd 5cb2 fc3d b8a8 823d 3824 d6bd
00000030: 0098 573b 34f6 64bd 2eba a0bd b457 23bd
00000040: 248a a0bd ba82 be3d 42ca bfbd 8297 acbd
00000050: b694 e4bd 5e9d ff3d 98fd 7abd 8838 d43d
00000060: 82d5 dcbd 9c59 ed3d c06e e0bc a21c aebd
00000070: 124f 95bd 5aa7 b83d c0e2 d53c 3e0d 93bd
00000080: 909e 81bc 8aeb afbd 0879 9cbd 9032 c3bc
00000090: 000d e1bc da42 a93d ca36 ff3d ce85 9ebd
000000a0: c2ad f93d d679 f53d a0ad 2b3d 8066 c43a
000000b0: 2ac0 e9bd c410 89bd 28f5 e83d a8f9 3f3d
000000c0: 5246 d4bd 5269 b6bd c046 e6bb aeb1 f63d
000000d0: 923c d4bd f827 a43d 103d d83c 329f 8e3d
000000e0: aedc 843d da24 943d 48af a93d a813 343d
000000f0: e040 2d3c 6a5c a93d 80d9 37bb 0439 963d
-0.04583007 4.6804547e-05 -0.006439984 -0.04978156 -0.08671732 0.07342301 -0.02978234 -0.10773744
-0.08999017 0.12338707 0.06379837 -0.10456127 0.0032896996 -0.05589886 -0.07848011 -0.039878562
-0.07838848 0.09302278 -0.093647495 -0.08427335 -0.11161177 0.12481187 -0.061277002 0.10362345
-0.10782911 0.11589357 -0.02739656 -0.08501555 -0.07290472 0.09016295 0.0261091 -0.0718026
-0.015822679 -0.085898474 -0.076402724 -0.023827821 -0.02747202 0.08264704 0.12461622 -0.07740365
0.12191345 0.11986129 0.04191363 0.0014984161 -0.114136055 -0.06692651 0.11374885 0.04686895
-0.10364975 -0.08906807 -0.007027477 0.120456085 -0.10363115 0.08015436 0.026396304 0.06963958
0.06487404 0.072335914 0.08285385 0.04396406 0.010574549 0.0826958 -0.0028053224 0.073350936
