data/models/rl_aca_20250316_214849.pt (torch, 23198 bytes, 5 tensors)

fc1.weight f4 [64, 11]
00000000: f807 363d 509c 403d 2a3f 67be a6cb 1cbe
00000010: a21f 983e 68e0 1ebd 0043 633b 94e8 233e
00000020: c078 693e dafa 3d3e 80b9 08bc d6d8 3abe
00000030: 4886 983d 408f 0b3d 6af1 113e 0e6a 883e
00000040: a4d0 37be b48d 773e 4010 543d c853 6a3e
00000050: 506f 993d 8061 8c3e 48ae 1a3d 54eb ab3d
00000060: 800a f0bd e089 4abd 14e0 733e e884 853d
00000070: a06e 4b3e dda4 8dbe e099 e8bc 0628 853e
00000080: c0de 93bc 1239 223e d6b2 c0bd 46fb 8f3e
00000090: 3ff6 1cbe c5b8 95be 18a4 523e f0d1 37bd
000000a0: 7550 78be 80a1 413e c7a3 35be d08e 4d3e
000000b0: c821 a63d 89ee 44be 8ee9 2d3e d47f ab3d
000000c0: 5ea8 80be 581e 723d 74fb 503e 0c0e 5b3e
000000d0: 71f3 14be 043c 853e 3cac f7bd 4011 c3bb
000000e0: c41c 80bd 52c9 1abe 2a53 823e 880c 743e
000000f0: ac91 b53d 4e81 bbbd 6899 48bd 9c04 073e
00000100: 38be 7b3e 4434 81bd 0b0c 06be 0019 f43c
00000110: 182a 163d 50c4 a8bd 395d 26be 540f d93d
00000120: 18da 6d3e a030 34be 18a8 d1bd aa09 343e
00000130: c83d 4f3e ba9c bcbd 787f 3e3e f721 34be
00000140: 644b 58bd 25f2 86be 6cec d0bd c8b8 2c3e
00000150: 3a9e 353e 2ae5 59be a087 15bc 6e13 3e3e
00000160: b0af 933c 1ce6 55be 38ee 2bbd 343a 4ebe
00000170: be0f 48be f0b1 583d 186c 533e caa4 08be
00000180: ee4e 82be c4b5 033e 7a43 903e 5862 443d
00000190: 9017 9f3d 08a0 59be 10da dabc c096 6fbd
000001a0: 068f 153e 38cf 683e bae8 90be 0ede 81be
000001b0: 34df 743e 7a90 903e cad6 e5bd d0ec 9ebc
000001c0: a459 533e d7bf 1ebe 74d2 47be 00f4 06bd
000001d0: fc88 3c3e 985b 803d 68ba 943e 0245 5cbe
000001e0: 3a0c 82be 62e5 203e e096 34bc 30e2 fcbc
000001f0: dce7 a03d 8078 923b 506b 1bbd 6022 a4bc
00000200: a071 6e3e 34fd c93d e011 223d 700e 71bd
00000210: 90cf 78be 0027 6bbe 19da 6fbe 8042 24bb
00000220: e000 df3d 8075 41bd a04f 1f3c af19 89be
00000230: 98ec c93d 2e68 04be 2031 79bd c875 743d
00000240: a233 933e 9255 843e d08e 8a3d 40c3 cfbc
00000250: 445d 573e d2c8 98be 72e3 27be 7c74 df3d
00000260: 61b9 83be 9a43 2abe 9098 483e b559 1cbe
00000270: 602a 863c 7311 77be 1ac6 09be 7871 89be
00000280: 0888 36bd 35e2 34be 4057 613c 0a88 423e
00000290: b82b 383d 8381 75be 944e 003e 10f7 6d3e
000002a0: a70e 44be e04c c23c 0230 23be c0a1 adbb
000002b0: daea 163e c158 16be 520d 903e ed8e 2cbe
000002c0: acce 8d3e 40c8 ed3b 1d74 74be f666 a9bd
000002d0: a0dc a2bc 3ef9 63be 2ca1 883e 6ca8 69bd
000002e0: a05d ecbc 221e 51be d034 7abd 74c8 843e
000002f0: c254 47be 1c36 fe3d 58da 49bd 4a7f 843e
00000300: 7211 67be ec4a 81be d496 3cbe 9b19 20be
00000310: 007b ac3a c0a3 b73d b073 cfbc 000a f73d
00000320: d28e 1b3e 1447 7a3e 5c0d f73d d02b 68be
00000330: 70c7 cdbd 186d 3fbe a4fe 183e c065 903d
00000340: 5422 8fbe c6ef a1bd 7e71 8dbe 4ebb 2a3e
00000350: 68d4 5e3e 4c0b 233e b429 79bd cc80 e63d
00000360: 60f1 b03d a83f 763d 5cb3 573e 4cd8 903e
00000370: 0afa 0fbe 9864 30bd 40c1 87bc d01a 2cbd
00000380: 5081 8a3e 8c35 8a3e d1ef 6abe 7044 df3d
00000390: 002f c33b 72db 70be bc18 c03d 8285 41be
000003a0: 1c78 983d f8d4 093e 17cb 29be 3882 1b3e
000003b0: 0051 513e c706 8ebe 0eab 803e 5c57 943d
000003c0: 160c 38be e8dc 0a3d 199c 21be dce4 8bbd
000003d0: a8f1 6d3e 5c77 c63d 72ac f8bd ce5e 963e
000003e0: 60b6 99bd 44c7 c0bd f00b b8bd e90f 1cbe
000003f0: 244b 973e 143e 933e 2082 93be 01b5 0bbe
0.044441193 0.04702407 -0.22582689 -0.1531206 0.29711634 -0.03878823 0.0034677386 0.1600669
0.22799969 0.18552724 -0.008345008 -0.18246779 0.07447487 0.03407216 0.14252248 0.26643413
-0.17950684 0.24175149 0.05177331 0.22883523 0.07491934 0.27418137 0.037763864 0.08394495
-0.11720753 -0.049447894 0.23815948 0.065194905 0.19866419 -0.27664843 -0.028393686 0.26007098
-0.018050551 0.15842083 -0.0940911 0.28121394 -0.1532831 -0.2924253 0.2057041 -0.044877946
-0.24249442 0.18909264 -0.17738257 0.2007401 0.08111912 -0.19231619 0.16983625 0.08373991
-0.25128454 0.05911097 0.20408422 0.21392077 -0.1454599 0.2602235 -0.12093398 -0.005952984
-0.062554866 -0.1511586 0.25454074 0.23832905 0.08865675 -0.09155522 -0.048974425 0.13185352
0.24584281 -0.06308797 -0.13090532 0.029797077 0.036661237 -0.08240569 -0.16246499 0.10598627
0.23227727 -0.17596674 -0.102371395 0.17581812 0.20238411 -0.09209581 0.18603313 -0.17591082
-0.052806273 -0.26356617 -0.10201344 0.16867363 0.1773614 -0.21278825 -0.009126574 0.185621
0.01802811 -0.20888561 -0.04197523 -0.2013939 -0.19537255 0.05290407 0.20646703 -0.13344112
-0.25450844 0.12862307 0.2817648 0.04794535 0.07768166 -0.21252453 -0.026715308 -0.058493376
0.1460534 0.22735298 -0.28302556 -0.25364727 0.2391327 0.28235227 -0.112226084 -0.01940003
0.20639664 -0.15502869 -0.19513875 -0.03294754 0.1841163 0.0626747 0.29048467 -0.215107
-0.25399953 0.15712503 -0.0110222995 -0.030869573 0.07856724 0.004469931 -0.037944138 -0.020035923
0.23285532 0.09862748 0.03956783 -0.05885166 -0.24297929 -0.22964096 -0.23423041 -0.002506405
0.10888839 -0.047231197 0.009723574 -0.26777408 0.0985958 -0.12930366 -0.060837865 0.059682637
0.2875033 0.25846535 0.067655206 -0.025361657 0.21031672 -0.29840714 -0.16395357 0.109108895
-0.2572737 -0.1662735 0.19589448 -0.15268596 0.016377628 -0.2412775 -0.13454476 -0.26844382
-0.044563323 -0.17664416 0.013753712 0.18997207 0.04496357 -0.23975186 0.12529975 0.23238778
-0.19146214 0.023718297 -0.15936282 -0.005298823 0.14738026 -0.14682294 0.28135163 -0.16851397
0.2769674 0.0072565377 -0.23872419 -0.08271591 -0.019880593 -0.22263047 0.26685464 -0.057045385
-0.028853238 -0.20421651 -0.061085522 0.25934184 -0.19465926 0.12412664 -0.049280494 0.25878364
-0.22565249 -0.25252473 -0.18416911 -0.15634768 0.0013159215 0.0896678 -0.025323719 0.12062454
0.151912 0.24441177 0.12063095 -0.22672963 -0.10047805 -0.1869396 0.14940888 0.07050657
-0.27955878 -0.07907061 -0.2762565 0.16673014 0.21760714 0.15922278 -0.060830787 0.11255035
0.08639789 0.0601193 0.21064514 0.2829002 -0.14060226 -0.043064684 -0.016571641 -0.042017758
0.27051783 0.26993978 -0.22943045 0.10901725 0.0059565306 -0.23521212 0.09379718 -0.18898585
0.07444784 0.13460147 -0.16581379 0.15186393 0.20441055 -0.27739546 0.25130504 0.07243225
-0.1797336 0.03390208 -0.15782203 -0.06830761 0.23236716 0.09690735 -0.12142266 0.29369205
-0.075054884 -0.09413007 -0.08986652 -0.15240444 0.29549515 0.287583 -0.28810215 -0.13643266

fc1.bias f4 [64]
00000000: 04bb d13d d06a 163d 9ced 403e b8f4 92be
00000010: 04a9 903d 003c b139 1cef b33d 89f1 03be
00000020: 3ec1 163e 10b6 18bd b466 6b3e beb5 cdbd
00000030: b325 81be f896 843e b0b8 ff3d deec c3bd
00000040: cc5e 9c3d d8bc 253e 52f9 47be 1664 a2bd
00000050: 888d 583e 0060 ea38 8e9b 80be 7050 85bc
00000060: 558e 69be ac0d 6abe c20a 71be 44fd e93d
00000070: a007 98bc e865 993d 9870 61bd 10d4 e7bd
00000080: 0f78 4dbe 504a 523e 4031 c03d c4b5 64bd
00000090: 38cf 25bd d05e 673e 9c88 81be 76e9 8fbd
000000a0: e471 7dbd 1480 713e 3074 153e 1ca1 65be
000000b0: e839 b73d c83d 953e 0752 92be 1c06 1bbe
000000c0: f0fb 81be 64fb 75be 284f 163d ed5b 6fbe
000000d0: c002 923e 18d9 943d 6f3c 82be 188a 43be
000000e0: 68c2 7abe 1492 7dbd e6f7 4dbe 7834 14bd
000000f0: d145 85be e82a 88be 4afb 983e 2076 d23d
0.102407485 0.036722958 0.18840641 -0.2870233 0.07063487 0.00033804774 0.08785841 -0.12885107
0.14722154 -0.037283003 0.22988397 -0.1004443 -0.25224075 0.2589643 0.12486398 -0.09566663
0.076352686 0.1618532 -0.19528702 -0.07929246 0.2114774 0.00011175871 -0.2511868 -0.016273707
-0.22808202 -0.22856778 -0.2353926 0.1142526 -0.018558323 0.0749014 -0.05503902 -0.113197446
-0.2006533 0.2053616 0.09384394 -0.055837408 -0.040480822 0.22594762 -0.25299537 -0.07026951
-0.061876193 0.23584014 0.14595103 -0.2242474 0.089465916 0.29148698 -0.28578207 -0.1513905
-0.25387526 -0.24021679 0.036696583 -0.2337491 0.28517723 0.0726797 -0.25436732 -0.19095647
-0.24488223 -0.06190689 -0.20114097 -0.03618285 -0.26029828 -0.26595235 0.29879218 0.10276437

fc2.weight f4 [64, 64]
00000000: d01e 9ebc 4c70 27bd e8ef 43bd d488 e93d
00000010: 3c57 9d3d 14b6 a33d 286a b8bc 58bd 99bc
00000020: 0801 983d b898 c5bc 6010 143c 8e1c ab3d
00000030: 7858 c43c e8e1 073d ee70 c3bd 34f8 6a3d
00000040: 8ead f43d c895 efbc 58c2 d2bc a045 223c
00000050: c4b4 d73d c218 c73d e8bb 9abc e07d 7dbc
00000060: a0b8 123d f419 2d3d 7c10 993d d69a a73d
00000070: 0005 b73a 4482 5ebd 42eb d3bd f00c 59bd
00000080: ca83 cdbd c0fd febd 802b cc3d 28c7 33bd
00000090: 20d2 cabd c0c8 523b 0c05 b3bd 5439 8b3d
000000a0: 7c3b 1cbd 7ca5 9a3d 8851 6dbd 007f 9e3d
000000b0: a0ed f4bb 7253 f5bd f8f8 adbc 4c94 b93d
000000c0: 9c18 4e3d b4f8 493d 009d 6dbb c899 7c3d
000000d0: 5099 7d3d aafc ac3d 2eef d13d eccd ba3d
000000e0: 10e8 19bd 401a 97bb a8d6 943d ea9a c9bd
000000f0: a879 86bd ec81 553d 707a a9bc c4df 103d
00000100: 44cd debd d8c4 aebd 643d 0b3d f2cb c63d
00000110: 509f 2fbc b0f7 b3bc 1058 c0bd 688a b73c
00000120: f691 bd3d 5c85 6d3d 3e68 d43d 7ef3 cc3d
00000130: 508e 783d d2d1 e9bd e8b6 bcbc 1e1e 87bd
00000140: dcbb b5bd c0d0 0c3d 7241 b2bd d0e8 713d
00000150: b0b5 40bc 9ac7 d7bd 600b cc3d f884 90bd
00000160: 4041 8cbb 54ac 43bd c04b ccbb a88a c03c
00000170: 0c18 923d 0ca1 fa3d a08a 263c a04d d83c
00000180: f000 7a3d 34c5 19bd 8060 6e3d aee9 833d
00000190: a8ec 15bd d0f1 7a3c 70c6 6c3d 2871 443d
000001a0: 9c6c 433d 9244 dc3d b205 813d 1006 a93d
000001b0: 84e7 8abd 44b5 7ebd 9296 de3d 50e6 9b3c
000001c0: 60df 7f3c c0c9 55bc 060e 8d3d a08d 49bc
000001d0: da85 c13d 6098 0dbd 7624 c4bd e822 94bd
000001e0: ac6e 07bd 4a82 dd3d e810 4dbd 3082 ee3d
000001f0: f86b c33c 6cda 8ebd c852 e7bc 20de ddbd
00000200: 1830 5bbd 7244 b73d 084a 83bc 200b 05bc
00000210: b0d3 c13d 2c98 c7bd 6679 c13d 2e94 d73d
00000220: b6f6 adbd a485 e4bd a6a8 ce3d 60a6 363c
00000230: a0ab 99bb 400a 613d b0ca 00bd 20b6 efbc
00000240: d6b1 a1bd 0669 a3bd d88f b9bd e08c c83c
00000250: 403a 48bb 8cee cc3d 9073 45bc f0a5 7dbc
00000260: 0085 45ba 0cdc 403d 4e5d 86bd 60c4 cebb
00000270: b087 c2bd 68cd cbbc 5e89 fa3d a625 de3d
00000280: ea75 ae3d 7cd7 7b3d 5a7e 993d a0c5 34bd
00000290: c22e f53d f0f9 8cbc 68f1 c2bc 54c2 d5bd
000002a0: b0b2 cebc 6447 e7bd a056 debd 5c1c 013d
000002b0: 72d4 b0bd fcd5 69bd ec12 e43d b499 27bd
000002c0: d6e3 a73d e684 ee3d ba14 95bd eaf8 ddbd
000002d0: 00c1 e9bd f802 1b3d 18a7 ec3c 9ce4 e2bd
000002e0: 4697 c33d f8cc 223d c05a 213c 0026 cc3d
000002f0: 60de 323d 0028 ab3b 50ad f23d 96cc 9ebd
00000300: ae49 cb3d fc3a 29bd 403a 7d3d 4003 a3bc
00000310: 605d b2bd a66d d3bd 0075 b03b f62d afbd
00000320: 22c8 833d 780b 73bd 2cb1 3abd 0803 c6bd
00000330: 90ad aa3d 408e b9bc 6a4a d2bd 7e7e bfbd
00000340: 30ca d43d 308b 69bc bc03 8b3d bc92 3cbd
00000350: 9cdd 3d3d 623a cb3d 507e df3c bae4 983d
00000360: 18aa a83c 12e4 c5bd f6d7 f6bd 602f c9bd
00000370: e033 68bc ceae 95bd 0099 82bc 6042 b9bc
00000380: b434 e4bd 6c58 673d a85d c0bc a03d 263c
00000390: b0c0 983d d8f3 d83d 561c a53d a0d2 44bd
000003a0: 8c4e 90bd 804b 813a 0cab b33d b404 93bd
000003b0: a019 5fbd cc2d d93d f4c2 963d ec84 a1bd
000003c0: 5a6b c8bd c0d2 553d 00f6 3a3d acc3 bebd
000003d0: f880 bcbd 0877 fe3c c47f a0bd 54d5 d9bd
000003e0: a4a0 f8bd 742d 6abd 98dd 133d 9898 e03c
000003f0: 0634 8b3d 702a 9fbc aefa fbbd 1cb9 803d
-0.019301802 -0.04087858 -0.047836214 0.11403051 0.07682654 0.07993713 -0.022511557 -0.018767044
0.07422072 -0.024120674 0.009037107 0.08355056 0.023967966 0.033174425 -0.09543024 0.05736561
0.119471654 -0.029246226 -0.025727436 0.009904295 0.10532525 0.09721519 -0.018888429 -0.0154719055
0.035820603 0.04226108 0.07473847 0.081838295 0.0013963282 -0.05432345 -0.10347606 -0.052990854
-0.100349024 -0.12450743 0.099692345 -0.043891102 -0.099033594 0.0032163113 -0.08741197 0.06798044
-0.038142666 0.07551095 -0.057939082 0.07739067 -0.007474616 -0.119788066 -0.021236882 0.090614885
0.050316438 0.049309447 -0.003625691 0.061670095 0.06191379 0.08446629 0.10250698 0.09121308
-0.037574828 -0.0046112835 0.07267505 -0.09844001 -0.06566173 0.052125856 -0.020688266 0.03536965
-0.10878995 -0.08533639 0.033994094 0.09706868 -0.010719135 -0.021968693 -0.093917966 0.022404864
0.092563555 0.05798851 0.10371445 0.1000738 0.060682595 -0.11416973 -0.023036435 -0.06597541
-0.08873722 0.034378767 -0.08703889 0.059059918 -0.011762068 -0.10536118 0.09963107 -0.07056612
-0.0042802393 -0.047771767 -0.006234616 0.023503616 0.07133493 0.122377485 0.010164887 0.026404202
0.06103605 -0.037541583 0.0581975 0.06441055 -0.036602646 0.015316442 0.057806432 0.047959477
0.047711 0.10755266 0.062999144 0.082531095 -0.06782439 -0.062184587 0.10868563 0.01903072
0.015617222 -0.013048589 0.068874404 -0.012301832 0.09449358 -0.034569144 -0.09577267 -0.0723322
-0.03306453 0.10815866 -0.05006495 0.11645925 0.023855194 -0.069752544 -0.028237715 -0.108333826
-0.053512663 0.08948602 -0.016026512 -0.008120328 0.09464204 -0.09745821 0.09446983 0.1052631
-0.08494322 -0.111583024 0.10090761 0.011148065 -0.0046896487 0.054941416 -0.031443298 -0.029261649
-0.07895248 -0.07979016 -0.09060639 0.024481237 -0.0030552298 0.10006437 -0.012051478 -0.015481457
-0.0007534772 0.047084853 -0.06560765 -0.006310031 -0.094985366 -0.024878219 0.12233232 0.108470246
0.08518584 0.0614848 0.07494803 -0.044133782 0.11971809 -0.017209023 -0.023796752 -0.10437456
-0.02523169 -0.112929136 -0.10856366 0.031521186 -0.08634271 -0.057088837 0.111364216 -0.040918067
0.08197753 0.11646442 -0.07279344 -0.10838492 -0.11413765 0.037844628 0.02888827 -0.1107876
0.095503375 0.039746255 0.009848297 0.099681854 0.043669105 0.005223274 0.11849463 -0.077538654
0.09926163 -0.041316018 0.06182313 -0.01989901 -0.08709216 -0.10323648 0.0053850412 -0.08553688
0.06434657 -0.05933711 -0.04557912 -0.09668547 0.08333886 -0.022650838 -0.102680996 -0.09350298
0.10390127 -0.014254376 0.06787822 -0.046038374 0.04635392 0.09923245 0.02728191 0.07465501
0.02058892 -0.096626416 -0.1205291 -0.09823489 -0.014172524 -0.07308732 -0.015942097 -0.022614658
-0.11142865 0.05648081 -0.023482159 0.0101465285 0.07458627 0.105933845 0.08062045 -0.04805243
-0.070462316 0.000986442 0.08772859 -0.071786314 -0.054467797 0.10604438 0.07361403 -0.07886681
-0.09786101 0.05220294 0.04564476 -0.09314665 -0.09204286 0.031062618 -0.07836869 -0.10636392
-0.12140015 -0.057172254 0.0361 0.027416512 0.06797032 -0.019429415 -0.12303673 0.06285307

fc2.bias f4 [64]
00000000: c021 8cbd 8853 883c 808b f9bb a439 5ebd
00000010: 2ee7 8fbd da48 fcbd 30b5 b43d 2681 fdbd
00000020: 90c8 603d 68d6 173d 3425 8dbd e2a1 81bd
00000030: fed4 b7bd 50fb 173d 00d7 af3d 60b3 023d
00000040: b087 363d e817 c03d a0de 21bc 547c 21bd
00000050: 0039 1bbd 1c4b e03d 6a3b b5bd 9059 ba3d
00000060: 8c13 343d c409 133d 62a8 f3bd 64cb f83d
00000070: 6833 9b3d 44ed e93d c02a c73d 3483 163d
00000080: 440d 6dbd 42f7 e43d 5059 213d 7aa4 fb3d
00000090: 44fd 9c3d 3093 33bd 0643 bcbd 60c9 28bd
000000a0: 52a0 b5bd c098 07bc e4cd a6bd 3035 893c
000000b0: d0a2 52bd c0ca 283c 10a5 33bc f021 adbc
000000c0: 403d 353b 50a1 bbbc 6016 80bb 5e14 eb3d
000000d0: d8ce d83d 9044 c3bc 4099 cb3c 3c09 b93d
000000e0: 6ca6 4e3d a27e d6bd d0f4 023d a08d 7d3c
000000f0: d6e2 d53d f661 dc3d 00f2 3bbb 3277 f8bd
-0.06842375 0.016641393 -0.0076155066 -0.05425419 -0.07026516 -0.12318583 0.08823621 -0.12378149
0.05487877 0.037069708 -0.068918616 -0.06329705 -0.08976172 0.037104905 0.0858593 0.031909347
0.044562995 0.0937956 -0.009879738 -0.03942521 -0.037896156 0.10951826 -0.08849223 0.09099114
0.043963954 0.035897985 -0.11897351 0.12148169 0.07578164 0.11422208 0.09724951 0.03674622
-0.05787398 0.11179973 0.039391816 0.12287231 0.07665494 -0.04384154 -0.09192471 -0.04120767
-0.08868469 -0.0082761645 -0.08144739 0.016748995 -0.0514248 0.010302246 -0.010964647 -0.021134347
0.0027654916 -0.022904068 -0.0039089173 0.11478494 0.10586327 -0.023836404 0.024853349 0.090349644
0.05045168 -0.10473372 0.031971753 0.015475661 0.10443656 0.10760872 -0.0028678179 -0.1213211

fc3.weight f4 [1, 64]
00000000: 58f0 dabd 142d a23d 5c7d 473d 66a3 ac3d
00000010: 6c01 19bd 74ac 35bd 7622 96bd 60a4 fb3b
00000020: 8e4c dabd 58fc e83c 9a34 b63d 7acb 90bd
00000030: 7cf7 ccbd 70fe 34bd 80a8 c13d 70fa 153c
00000040: e853 7a3d 50ef 96bd d0f2 93bc b6c8 afbd
00000050: 70b0 03bc c0db 75bb 4411 5a3d 6268 b03d
00000060: e4f8 593d 006b babc 80b8 e93d b4c6 4fbd
00000070: 6264 aebd 006e 3b3b 98cd edbd c06b a73c
00000080: 90cd 9dbd fe02 993d 3cd6 d93d 28d1 2fbd
00000090: 60ac 273c 8080 cb3d a8e5 98bc 7457 f1bd
000000a0: b067 aa3d 403c c53c 8c85 03bd 80c0 e83a
000000b0: 5a97 b83d 3cac 7b3d b8aa 3cbd 2014 503d
000000c0: a0f8 7fbc c8e4 0ebd 70df fb3c 826c b1bd
000000d0: a8b3 86bd c05d a13d b6c5 873d c465 013d
000000e0: 70e3 2a3c 0474 c9bd b0e1 42bd b047 76bc
000000f0: c05a 2e3b 0442 133d 9e7b 96bd 5cd3 de3d
-0.10690373 0.07918754 0.048703536 0.08429603 -0.03735487 -0.044353917 -0.07330792 0.007679507
-0.10659133 0.02844064 0.08896752 -0.0707006 -0.100081414 -0.044187963 0.09455967 0.009153947
0.061115175 -0.07369864 -0.018060118 -0.085832044 -0.008037671 -0.0037515014 0.053239122 0.086136594
0.053215876 -0.0227561 0.11412144 -0.050726607 -0.0851524 0.00285995 -0.116114795 0.020437121
-0.077052236 0.07471274 0.10636565 -0.042924076 0.0102339685 0.09936619 -0.018664196 -0.117842585
0.08320558 0.024076581 -0.032109782 0.0017757565 0.09013243 0.061443552 -0.046061248 0.050800443
-0.015623242 -0.03488615 0.030746192 -0.08663274 -0.065772355 0.078792095 0.06629507 0.031591192
0.010430202 -0.09836581 -0.047578514 -0.01503174 0.0026604384 0.03595163 -0.07347797 0.10880157
