data/models/rl_aca_20250316_213956.pt (torch, 23198 bytes, 5 tensors)

fc1.weight f4 [64, 11]
0	0x3dc80fa0	0.09768605
1	0xbd8757be	-0.06608532
2	0xbe56fadc	-0.20994133
3	0x3b195a00	0.0023399591
4	0x3d9f23a4	0.0777047
5	0x3d2148d0	0.03937608
6	0x3e679540	0.22615528
7	0x3e05d4fa	0.13069525
8	0xbe4ef83b	-0.2021188
9	0xbe039a79	-0.12851895
10	0xbd94262c	-0.07233843
11	0xbdd2808e	-0.10278426
12	0xbe80f1a4	-0.25184357
13	0xbe8b8514	-0.27249968
14	0xbddf139c	-0.10892412
15	0x3e80daae	0.2516684
16	0xbdd837f2	-0.10557546
17	0x3e5d4fc0	0.21612453
18	0xbccdf6d0	-0.025142103
19	0x3e7c89d4	0.24661952
20	0xbdcba5f8	-0.099437654
21	0x3e058bb2	0.13041571
22	0xbdcdb3c4	-0.10044053
23	0x3e83cb1c	0.25740898
24	0x3c12e320	0.008965284
25	0xbdbed118	-0.09317225
26	0x3d300d48	0.042981416
27	0xbe902d33	-0.28159484
28	0x3e5cd558	0.21565759
29	0xbe673ff2	-0.22582987
30	0x3e325f68	0.17419207
31	0x3e15c696	0.14626536
32	0x3b449780	0.0029997528
33	0x3e856a60	0.2605772
34	0xbb474f80	-0.0030412376
35	0xbcf6a5b0	-0.030108303
36	0x3cd3bc70	0.02584669
37	0xbe49695f	-0.19669102
38	0xbd5f6548	-0.05453995
39	0xbd8e1cd4	-0.06939092
40	0xbdf57786	-0.11985688
41	0xbddc6c60	-0.107628584
42	0xbc446960	-0.011988014
43	0xbe1ca081	-0.15295602
44	0xbcadf1a0	-0.02123338
45	0xbe87fe1f	-0.26561067
46	0x3cf781a0	0.030213177
47	0xbe85a46c	-0.26102006
48	0xbe8747ac	-0.2642187
49	0x3d6b4a78	0.057444066
50	0x3bcf33c0	0.0063233078
51	0x3d16c8a0	0.036812425
52	0x3e52dd3c	0.20592207
53	0xbe3e9182	-0.18610194
54	0xbd59bd20	-0.05315888
55	0xbbdf89c0	-0.006821841
56	0xbde12116	-0.10992639
57	0xbe2c3ce6	-0.16820106
58	0x3e940b92	0.28915077
59	0x3d13cb40	0.036082506
60	0xbe968062	-0.29394823
61	0x3e73877c	0.23782152
62	0x3e0eff40	0.13964558
63	0xbd8d050c	-0.06885728
64	0xbe1f236a	-0.15540853
65	0xbe2bb20f	-0.16767143
66	0x3e4b75a4	0.19869095
67	0x3e8bd23e	0.2730884
68	0x3d20b8b8	0.03923866
69	0x3dbfc8b0	0.0936445
70	0x3e3867f8	0.18008411
71	0xbe34eeb4	-0.17669183
72	0x3d784aa8	0.060618073
73	0xbcfc1090	-0.030769616
74	0x3e388990	0.18021226
75	0x3e560714	0.20901138
76	0xbe4f12a4	-0.20221955
77	0x3d4b9f80	0.049712658
78	0x3e025a5a	0.12729779
79	0xbdba1bce	-0.090873346
80	0x3da0f164	0.078585416
81	0x3dd164cc	0.102243036
82	0xbe40ce6a	-0.1882874
83	0xbe1bb077	-0.15204035
84	0xbded5c4c	-0.1158987
85	0xbe678a8a	-0.22611442
86	0xbe8a0546	-0.26957148
87	0x3e947e8a	0.29002792
88	0x3dfad91c	0.122484416
89	0xbdcb2564	-0.09919241
90	0x3e76cce0	0.24101591
91	0x3dee8398	0.11646193
92	0xbdf647e4	-0.12025431
93	0x3e816f74	0.25280344
94	0x3e40f59a	0.1884369
95	0xbe4097ba	-0.18807879
96	0xbe75ed6a	-0.24016348
97	0x3e995b9a	0.299527
98	0xbe14c813	-0.14529447
99	0x3e14f678	0.14547145
100	0xbe8e11de	-0.27748007
101	0x3e817858	0.25287127
102	0xbd2acee8	-0.041701227
103	0xbdc08f9e	-0.09402393
104	0x3e2fd796	0.17172083
105	0x3d9535fc	0.07285687
106	0xbe357cfa	-0.17723456
107	0xbe75ee11	-0.24016596
108	0x3e208320	0.1567502
109	0xbdf8e612	-0.121532574
110	0x3d0b0260	0.03393781
111	0x3d718930	0.058968723
112	0xbe2a4afb	-0.16630165
113	0xbe924861	-0.28570846
114	0xbe0a60b8	-0.13513458
115	0x3e091ca4	0.13389832
116	0x3e5bd484	0.21467787
117	0xbda94f8e	-0.08267127
118	0x3ddad184	0.10684493
119	0xbd721520	-0.059102178
120	0xbe02dc6d	-0.12779398
121	0xbca2f430	-0.019891828
122	0x3e9065ee	0.28202766
123	0x3e070448	0.13185227
124	0x3cf288e0	0.029606283
125	0x3ddba300	0.10724449
126	0x3d48d038	0.049026698
127	0x3bf00240	0.007324487
128	0x3e93dc9e	0.28879255
129	0x3e00196e	0.125097
130	0xbbe84bc0	-0.007089108
131	0x3e56327c	0.20917696
132	0xbe8eb881	-0.2787514
133	0x3e3ff1f6	0.18744645
134	0x3e94f874	0.29095805
135	0xbde44498	-0.11145896
136	0xbe9946c7	-0.2993681
137	0xbe4173ac	-0.18891782
138	0xbd1970f0	-0.03746122
139	0xbe7ae3dd	-0.24500985
140	0x3e60ade4	0.21941334
141	0xbe97c48e	-0.29642147
142	0xbe148124	-0.14502388
143	0xbd94a5a2	-0.072581545
144	0x3e8f938e	0.28042263
145	0xbe8f1a96	-0.2794997
146	0x3e9109f4	0.28327906
147	0xbe97ed78	-0.29673362
148	0x3e89e00c	0.26928747
149	0xbe8e5f01	-0.27806857
150	0xbe5f01fa	-0.21778098
151	0x3e2af694	0.16695625
152	0x3dea9d80	0.11455822
153	0x3e2fbf30	0.17162776
154	0xbe4a8ae3	-0.19779544
155	0x3e07b17a	0.13251296
156	0xbe282cee	-0.1642339
157	0xbd197d58	-0.037473053
158	0x3e89d074	0.2691685
159	0xbe021c28	-0.12706053
160	0x3e772b6c	0.24137658
161	0xbe1566b2	-0.14589956
162	0x3e939a8e	0.28828853
163	0xbe4352d7	-0.1907457
164	0x3e5ee0cc	0.2176544
165	0xbe5c69a2	-0.2152467
166	0x3d5a3728	0.053275257
167	0x3e918808	0.28424096
168	0xbc5a4a00	-0.013323307
169	0x3b9a6ec0	0.0047129095
170	0x3d5768b8	0.052590102
171	0x3e48f9f0	0.19626594
172	0xbe83a300	-0.25710297
173	0x3e5af028	0.21380675
174	0xbcc81c50	-0.024427563
175	0xbe07deae	-0.1326854
176	0x3e849afe	0.258995
177	0x3df965b8	0.121776044
178	0x3dfeb7fc	0.12437436
179	0xbe43f1f6	-0.1913527
180	0x3e93eaa6	0.2888996
181	0x3b7f4800	0.0038952827
182	0xbe6588bc	-0.22415441
183	0x3e579130	0.21051478
184	0x3e49e368	0.19715655
185	0xbe3fa1d6	-0.1871408
186	0xbe95b343	-0.29238328
187	0xbe823199	-0.25428465
188	0xbe568dbd	-0.20952506
189	0xbd65e2a4	-0.056124344
190	0xbe8a97e9	-0.27069023
191	0xbe19c42e	-0.15016243
192	0x3e80dfd0	0.25170755
193	0x3c8bc660	0.017062366
194	0xbe49044a	-0.19630542
195	0x3e89754e	0.2684731
196	0xbe0f19ee	-0.13974735
197	0x3e824372	0.25442082
198	0x3db13434	0.08652535
199	0x3ddeb1f4	0.108737856
200	0xbe5a178c	-0.21298045
201	0xbe5c8db8	-0.21538436
202	0xbd2db538	-0.04240915
203	0xba8a3f00	-0.001054734
204	0xbe95702f	-0.29187152
205	0x3e043676	0.129114
206	0x3e2915b0	0.1651218
207	0xbb943f00	-0.0045241117
208	0xbdeb9998	-0.11503905
209	0x3d9c0b64	0.0761936
210	0xbc517ac0	-0.012785614
211	0xbe7ad844	-0.24496561
212	0xbe88a47b	-0.2668799
213	0x3e387afe	0.18015668
214	0xbe6ea8b2	-0.2330654
215	0xbe530f4e	-0.20611307
216	0x3e48826e	0.19581005
217	0xbe690b20	-0.2275815
218	0x3e99da40	0.30049324
219	0xbdc24e84	-0.09487632
220	0xbe87d739	-0.2653139
221	0xbe8570ea	-0.2606271
222	0xbd6cceec	-0.057814524
223	0xbe3affc0	-0.18261623
224	0xbe301269	-0.17194523
225	0x3aac3f00	0.0013141334
226	0xbdbf08be	-0.09327839
227	0xbdc3c758	-0.09559506
228	0x3e31f1da	0.17377415
229	0x3ddfc748	0.10926682
230	0x3dcc8220	0.09985757
231	0x3e8567c8	0.2605574
232	0x3d911270	0.07083595
233	0xbe5665ee	-0.2093732
234	0x3d93f974	0.07225314
235	0x3d8f96cc	0.07011184
236	0xbe767d42	-0.2407122
237	0x3de27b58	0.11058682
238	0x3d44a4b8	0.04800865
239	0x3dc64450	0.09680998
240	0x3e2ef96a	0.17087331
241	0xbd4695a0	-0.048482537
242	0x3d032478	0.0320172
243	0x3db7c410	0.08972943
244	0xbe99bbc4	-0.30026066
245	0xbe84a807	-0.25909445
246	0x3cc98590	0.02459982
247	0xbe96cd92	-0.29453713
248	0x3e88fd86	0.26755923
249	0xbc5a6bc0	-0.013331354
250	0xbcd04720	-0.02542454
251	0xbd1214a8	-0.03566423
252	0xbe7d4760	-0.24734259
253	0xbdf942ca	-0.12170942
254	0x3e5e149c	0.2168755
255	0xbc32e760	-0.010919422

fc1.bias f4 [64]
0	0x3e6facdc	0.23405784
1	0x3e82448c	0.25442922
2	0xbe100ad2	-0.14066628
3	0x3cee9e70	0.029128283
4	0x3df00124	0.117189676
5	0xbd95c9e4	-0.07313898
6	0x3e80bcac	0.25143945
7	0xbdf584b2	-0.119882
8	0xbe3851fa	-0.18000022
9	0xbe9914bf	-0.2989864
10	0x3d2155d8	0.039388508
11	0xbd612ad4	-0.054972485
12	0x3e83f686	0.2577402
13	0xbc2856a0	-0.010274559
14	0x3e227ce4	0.15867954
15	0x3e0608de	0.1308932
16	0xbe012583	-0.12611966
17	0x3e35c21a	0.17749825
18	0x3cd9b720	0.026576579
19	0x3e6a7140	0.22894764
20	0xba7fcc00	-0.00097578764
21	0xbe49227a	-0.19642058
22	0x3de319cc	0.11088905
23	0xbdf93390	-0.12168038
24	0xbe92f0db	-0.28699383
25	0x3e82ca82	0.25545126
26	0xbd12fa48	-0.035883218
27	0x3e4ae14e	0.1981251
28	0x3d3b98a8	0.04579988
29	0xbd8686be	-0.06568669
30	0x3e6ba764	0.23013073
31	0xbe6b452e	-0.22975609
32	0xbd4193a0	-0.047259927
33	0xbe5cb31a	-0.21552697
34	0xbc5ac5c0	-0.013352811
35	0xbe65c826	-0.22439632
36	0x3dc3dfa0	0.095641375
37	0xbe7224d9	-0.23646869
38	0x3d4641e8	0.048402697
39	0xbe30a362	-0.17249826
40	0xbe9095ea	-0.28239375
41	0x3c98b3a0	0.01864034
42	0x3e16b066	0.14715728
43	0xbe5bb4f0	-0.21455741
44	0xbde76bbe	-0.11299847
45	0x3e8ffb1c	0.2812127
46	0xbe94e14d	-0.2907814
47	0xbdb53420	-0.08847833
48	0x3dd1d310	0.10245335
49	0xbe51585c	-0.20443863
50	0x3e939f44	0.28832448
51	0x3e0cbb1e	0.13743255
52	0x3e962dbc	0.29331768
53	0x3e3463b4	0.17616159
54	0xbe80f264	-0.2518493
55	0x3d1bc1f0	0.03802675
56	0xbd07b038	-0.03312704
57	0xbc9eb2e0	-0.019372404
58	0x3e0215e4	0.12703663
59	0xbd34f238	-0.04417631
60	0x3e474170	0.19458556
61	0xbe132d52	-0.14372757
62	0xbde761d8	-0.11297959
63	0x3e857e38	0.2607286

fc2.weight f4 [64, 64]
0	0x3deca94e	0.1155573
1	0x3b5fa980	0.003412813
2	0xbd9830b4	-0.074311644
3	0xbd8d47a0	-0.06898427
4	0xbd377480	-0.044788837
5	0x3d69ec5c	0.057110175
6	0xbda876b8	-0.08225769
7	0x3ccd13e8	0.025033906
8	0x3c809218	0.015694663
9	0x3b85f720	0.0040882975
10	0xbdf73240	-0.12070131
11	0x3d83d25a	0.06436606
12	0x3dc71506	0.09720807
13	0x3cb27870	0.021785945
14	0xbd652f88	-0.055953532
15	0x3d54ae20	0.05192387
16	0x3dffe850	0.12495482
17	0x3d118388	0.03552583
18	0x3de06066	0.109558865
19	0xbd9834f8	-0.07431978
20	0xbdf0ca04	-0.117572814
21	0xbdd87eba	-0.10571046
22	0x3d26c288	0.040712863
23	0x3dc9bd3e	0.09850548
24	0xbd1dd164	-0.03852977
25	0xbdcec570	-0.10096252
26	0xbde28c58	-0.11061925
27	0xbde05a4a	-0.10954721
28	0x3bc44060	0.0059891194
29	0x3dee831a	0.116460994
30	0x3db57d88	0.08861834
31	0x3ce326a0	0.027728379
32	0x3d17f5cc	0.037099645
33	0xbc89a0b8	-0.01680027
34	0xbc94d4a0	-0.018167794
35	0x3cdce078	0.026962504
36	0x3db6d148	0.08926636
37	0xbd3a9930	-0.045556247
38	0xbc5954d0	-0.01326485
39	0x3ddca05c	0.107727736
40	0x3db29cca	0.087213114
41	0xbdab5c02	-0.083671585
42	0x3d8caad4	0.068685204
43	0xbde5077a	-0.11183067
44	0xbdb51bec	-0.08843216
45	0x3d2eda84	0.04268886
46	0xbd896bce	-0.06710015
47	0xbccf70f0	-0.025322407
48	0xbd6a1034	-0.05714436
49	0x3d069d54	0.032864884
50	0xbde58c72	-0.112084284
51	0x3a863f00	0.0010242164
52	0x3d7e5cf0	0.06210035
53	0xbc8c70a0	-0.017143548
54	0x3d604008	0.054748565
55	0xbda4c1ec	-0.080448
56	0x3dc4e2b6	0.09613554
57	0x3d488638	0.048956126
58	0xbdbb837e	-0.091559395
59	0x3d1235e8	0.03569594
60	0xbd8e7336	-0.069555685
61	0xbdf91b58	-0.121634185
62	0x3da7e67c	0.08198258
63	0x3c6870b0	0.014187023
64	0x3c1744a0	0.00923267
65	0xbd92ab32	-0.07161559
66	0xbd856a6e	-0.065144405
67	0x3d76ce8c	0.060255572
68	0xbd8dd9f2	-0.069263354
69	0xbd9adccc	-0.07561645
70	0x3aa71200	0.0012746453
71	0xbde8b446	-0.113625094
72	0xbd1817bc	-0.03713201
73	0x3dedb490	0.11606705
74	0xbd48c284	-0.04901363
75	0xbd01dc60	-0.031704307
76	0x3d2e5dc8	0.042569906
77	0xbda1a610	-0.07893002
78	0xbbfb3940	-0.007666737
79	0xbd17724c	-0.036974236
80	0xbcbcf678	-0.023066744
81	0xbd670ea8	-0.05641046
82	0xbde75526	-0.11295538
83	0xbc5ed7a0	-0.013601214
84	0xbd3caa20	-0.04606068
85	0xbd044ba0	-0.032298684
86	0xbc7863e0	-0.015160531
87	0x3d888fbe	0.06668042
88	0x3c9ffa50	0.019528538
89	0x3c01a360	0.007912487
90	0xbdb61024	-0.08889797
91	0xbcc91f18	-0.02455096
92	0x3d52b074	0.05143781
93	0xbc62f4c0	-0.013852298
94	0xbd944d24	-0.07241276
95	0x3c8f4960	0.017491043
96	0xbd849a24	-0.064747125
97	0x3d3dae8c	0.04630904
98	0x3db4744a	0.08811243
99	0x3c87ba30	0.016568273
100	0x3daa2b8c	0.08309087
101	0xbdeb8c50	-0.11501372
102	0xbddbec02	-0.10738374
103	0x3d609790	0.05483204
104	0x3db0d19c	0.0863373
105	0x3c8bf0b8	0.017082557
106	0xbdb1e402	-0.08686067
107	0x3d0404f4	0.032231286
108	0x3bc90fe0	0.0061359257
109	0x3d10c00c	0.0353394
110	0x3dd94ffe	0.106109604
111	0xbb936320	-0.0044979006
112	0x3d4fe794	0.05075796
113	0x3d82a8ce	0.06379853
114	0x3da63a82	0.08116628
115	0xbdd913e4	-0.10599497
116	0xbcc36648	-0.023852482
117	0x3d221c1c	0.03957759
118	0xbd8333e0	-0.06406379
119	0x3da587c4	0.08082536
120	0x3df65122	0.120271936
121	0x3dfb9826	0.122848794
122	0x3ddc9bee	0.10771929
123	0xb9380800	-0.00017550588
124	0xbde60542	-0.112314716
125	0xbd06b478	-0.032886952
126	0x3dd7e462	0.105416074
127	0xbdc96e42	-0.09835483
128	0x3db6aa98	0.08919257
129	0xbd971278	-0.073765695
130	0xbdc87f36	-0.097898886
131	0x3ce1e978	0.027577147
132	0xbdc7baa8	-0.09752399
133	0x3d906946	0.07051329
134	0xbdcbea22	-0.09956767
135	0x3d846eca	0.06466444
136	0xbc923348	-0.017846718
137	0x3cda8e98	0.026679322
138	0xbd8ddd06	-0.069269225
139	0xbd2bb12c	-0.04191701
140	0xbc803bc0	-0.015653491
141	0x3dd7fce4	0.10546282
142	0x3dce378e	0.1006919
143	0xbdb73cc6	-0.089471385
144	0x3daa942c	0.08329043
145	0xbc63fa70	-0.013914689
146	0xbdc7fcfa	-0.09765048
147	0xbdab1412	-0.083534375
148	0xba906000	-0.0011014938
149	0xbd550d00	-0.05201435
150	0x3dcd7bc2	0.100333706
151	0x3cc80240	0.024415135
152	0x3da1f6a8	0.07908374
153	0x3dd300c0	0.103028774
154	0x3d6d6bd8	0.057964176
155	0x3dd1efe4	0.10250834
156	0xbdf785c6	-0.12086062
157	0xbd98c410	-0.07459271
158	0xbcb23e68	-0.021758273
159	0xbdfb4fc6	-0.12271075
160	0x3df16ca2	0.11788298
161	0xbb43e3c0	-0.0029890388
162	0x3c710b80	0.0147122145
163	0x3dab6648	0.08369118
164	0xbda15218	-0.07876986
165	0x3d83385c	0.06407234
166	0x3c5f04e0	0.013612002
167	0x3df42104	0.1192036
168	0x3d6e7e30	0.05822581
169	0x3d338c88	0.043835193
170	0xbd9e0fde	-0.0771787
171	0xbdd10a58	-0.10207051
172	0xba01ba00	-0.00049486756
173	0x3dfd76f2	0.12376203
174	0xbcdadfb8	-0.026718006
175	0x3d3776c4	0.044790998
176	0x3c829918	0.015942141
177	0xbde0b33e	-0.10971688
178	0xbd849e30	-0.06475484
179	0xbdcab132	-0.098970786
180	0xbdcef29c	-0.10104868
181	0xbda6efb8	-0.081511915
182	0xbd012964	-0.031533614
183	0xbd5cd254	-0.053911522
184	0xbccae968	-0.0247695
185	0x3dec978e	0.11552344
186	0x3ded9538	0.11600727
187	0xbd101a9c	-0.035181627
188	0xbdac9190	-0.08426201
189	0x3d38a4c0	0.045078993
190	0x3da4b5b8	0.080424726
191	0x3dd7af7c	0.10531518
192	0x3dd64512	0.10462393
193	0xbddddda0	-0.10833287
194	0x3d9c3010	0.07626355
195	0x3cafa2d0	0.02143994
196	0xbded6d54	-0.11593118
197	0x3da6bb9a	0.08141251
198	0x3da00af8	0.07814592
199	0x3dffe9f8	0.12495798
200	0xbdd47a84	-0.103749305
201	0x3db0ab78	0.08626455
202	0x3cc0cfb0	0.023536533
203	0xbd8aa6e8	-0.06770116
204	0x3d426d78	0.04746768
205	0xbd32dd48	-0.04366806
206	0xbdbee462	-0.09320904
207	0xbc76d7f0	-0.015066132
208	0x3d90166a	0.07035525
209	0xbb5f72c0	-0.0034095496
210	0x3dce00d6	0.10058753
211	0xbc8759a0	-0.016522229
212	0x3d0326fc	0.0320196
213	0x3de0f270	0.10983741
214	0x3cba8758	0.022769615
215	0x3c2ba5f0	0.010476574
216	0x3c5cb420	0.0134706795
217	0x3df42ee0	0.11923003
218	0x3cfefb68	0.03112574
219	0xbdb10374	-0.08643237
220	0x3d99657a	0.07490058
221	0xbdaa282c	-0.083084434
222	0xbdf8d7c4	-0.12150529
223	0xbded97ee	-0.11601244
224	0xbdcf8b5e	-0.10134004
225	0xbd83d4e0	-0.06437087
226	0x3cfc18f8	0.030773625
227	0x3d7c1234	0.061540797
228	0x3c96b070	0.018394679
229	0x3d85f3c6	0.06540637
230	0x3d4bf5b4	0.049794868
231	0xbd880b42	-0.06642772
232	0x3dcd2858	0.100174606
233	0x3cd44508	0.025911823
234	0x3c5745c0	0.013139188
235	0xbd0725c4	-0.032995
236	0x3cffa168	0.031204894
237	0xbd217534	-0.039418414
238	0xbda8252c	-0.08210215
239	0x3decda56	0.11565082
240	0x3d92efbc	0.07174632
241	0x3d9c1c50	0.07622588
242	0x3cf13140	0.02944243
243	0x3d7841f4	0.060609773
244	0x3d93ce54	0.07217088
245	0xbd90a7fe	-0.07063292
246	0x3dc5d968	0.096606076
247	0x3deea4e4	0.11652544
248	0xbdbff788	-0.09373385
249	0x3dafd818	0.085861385
250	0x3d248f74	0.04017587
251	0xbd24a864	-0.040199652
252	0xbd79962c	-0.06093423
253	0x3dba1ce4	0.09087542
254	0xbdc6b6b6	-0.09702818
255	0xbcf7ef30	-0.03026542

fc2.bias f4 [64]
0	0x3d903ffa	0.070434526
1	0x3d3a6414	0.0455056
2	0xbd2c8e9c	-0.04212819
3	0x3d1f02b0	0.038820922
4	0xbdabea3e	-0.083942875
5	0xbd5b3a08	-0.05352214
6	0xbdf99eb0	-0.1218847
7	0xbde36734	-0.11103669
8	0x3d39c3b8	0.045352668
9	0x3db33ad2	0.087514535
10	0x3d9c01b6	0.07617514
11	0xbd01163c	-0.031515345
12	0x3d6b4944	0.05744292
13	0x3df2c7a0	0.11854482
14	0xbde4cc4e	-0.111717805
15	0x3de5739a	0.1120369
16	0xbc42fbc0	-0.011900842
17	0x3db090d2	0.08621372
18	0xbdb10672	-0.086438075
19	0x3c05c330	0.008164212
20	0x3d5432c8	0.05180624
21	0xbdac20b0	-0.08404672
22	0xbd8bdb22	-0.06828906
23	0xb5180000	-5.662441e-07
24	0x3d92f682	0.07175924
25	0xbd979eec	-0.07403359
26	0xbca19bd8	-0.019727632
27	0xbdcd7c66	-0.10033493
28	0x3dbb48b0	0.091447234
29	0xbd6189c0	-0.05506301
30	0x3df6bef4	0.1204814
31	0x3be6e300	0.0070461035
32	0x3bd04be0	0.0063567013
33	0xbab2aa80	-0.0013631135
34	0x3dc4c08a	0.096070364
35	0xbcbc7d98	-0.023009107
36	0x3dead3ac	0.114661545
37	0xbd6bbb54	-0.057551697
38	0x3de2f424	0.110817224
39	0x3de7bdde	0.11315511
40	0x3c147790	0.009061709
41	0xbd7550d8	-0.05989155
42	0xbc78ca70	-0.015184984
43	0x3b603980	0.003421396
44	0xbdbe7cc4	-0.09301141
45	0xbded5ff2	-0.11590566
46	0x3d2677dc	0.04064165
47	0xbdd743e8	-0.10510999
48	0xbcb132e8	-0.02163072
49	0x3d948bba	0.07253213
50	0xbdbd77d4	-0.09251371
51	0xbc483cd0	-0.01222153
52	0xbdaa3fa2	-0.08312918
53	0xbcb3edf0	-0.021964043
54	0xbda7b2be	-0.08188389
55	0xbdee56ac	-0.11637625
56	0xbdde8ac8	-0.10866314
57	0xbdcab334	-0.098974615
58	0x3dc9fe66	0.09862976
59	0xbc780c20	-0.01513961
60	0x3cb94cc8	0.02261962
61	0xba038800	-0.0005017519
62	0x3dea9e90	0.11456025
63	0xbc5917c0	-0.013250291

fc3.weight f4 [1, 64]
0	0x3def6416	0.11689012
1	0xbda0dfde	-0.07855199
2	0x3d6655f4	0.056234315
3	0xbdbec22e	-0.093143806
4	0xbda0b23e	-0.07846497
5	0xbd13aaf0	-0.03605169
6	0x3d93e3a8	0.07221156
7	0xbd717674	-0.058950856
8	0x3d8905ce	0.0669056
9	0x3dc9ecb4	0.09859601
10	0xbd33afa0	-0.04386866
11	0xbdc07324	-0.09396961
12	0xbd87e97a	-0.06636329
13	0xbdcdcec8	-0.10049206
14	0x3de076a6	0.109601304
15	0x3dd8bda0	0.10583043
16	0xbccb29d0	-0.024800211
17	0xbde26ffa	-0.11056514
18	0x3dd0b87e	0.10191439
19	0x3d3badac	0.045819923
20	0xbc8b7488	-0.01702334
21	0x3df7571e	0.12077163
22	0xbd315cc4	-0.04330136
23	0xbdbcde84	-0.09222129
24	0x3daa7d1a	0.083246425
25	0x3dc0399c	0.09385988
26	0xbcc059a0	-0.023480237
27	0xbdc792c4	-0.0974479
28	0xbcfbfd30	-0.030760378
29	0x3d443a38	0.047907084
30	0xbc80d0d8	-0.015724584
31	0x3d01c444	0.031681314
32	0x3d47e26c	0.048799917
33	0x3d82c16c	0.063845485
34	0xbd276e50	-0.040876687
35	0x3d24b0c4	0.04020764
36	0xbc7feea0	-0.0156208575
37	0x3d424310	0.047427237
38	0xbd3ffaf4	-0.046870187
39	0xbdb7b820	-0.08970666
40	0xbd8e0bbe	-0.069358334
41	0xbcc37e78	-0.023864016
42	0x3d9d2858	0.076737106
43	0x3da46dc2	0.08028747
44	0x3d81272a	0.06306298
45	0x3c29fb80	0.010374904
46	0xbd781300	-0.060564995
47	0xbdf73c82	-0.12072088
48	0x3d73b3d8	0.059497684
49	0x3de4e338	0.11176151
50	0xbcfe3f30	-0.03103599
51	0x3cc965e0	0.02458471
52	0x3b687c80	0.0035474598
53	0xbdaec50a	-0.08533676
54	0x3d812dd8	0.06307572
55	0xbc7be4c0	-0.0153743625
56	0x3cef4888	0.02920939
57	0xbceb1230	-0.028695196
58	0xbde5c802	-0.11219789
59	0xbcee7bf0	-0.029111832
60	0xbd13abec	-0.03605263
61	0x3c540640	0.012940943
62	0x3df86bfe	0.12129973
63	0x3d83b8ee	0.06431757
