data/models/rl_aca_20250316_163415.pt (torch, 23198 bytes, 5 tensors)

fc1.weight f4 [64, 11]
0.14815357 -0.29524884 -0.14889885 0.08643094 -0.24269071 -0.16497101 -0.23720714 -0.019415379
0.05372098 0.080429226 -0.03441891 0.005099863 -0.13989493 -0.12652165 -0.013399571 0.03902796
0.104845524 0.1703023 0.25697362 -0.10098733 0.2054857 -0.06502357 0.30067402 -0.033893704
0.26501805 -0.1627306 0.006746143 -0.22306754 -0.27076292 -0.1736247 -0.06287652 0.083554655
-0.07181959 -0.22725505 0.27511054 -0.1872901 -0.24315588 -0.2272183 -0.26420534 -0.100580096
0.2650507 0.2484842 -0.037113875 0.08200359 -0.28237057 -0.28643933 0.020110369 -0.17389984
0.17476252 -0.28376675 -0.29327488 -0.021302104 0.14522651 -0.03210625 0.14099953 -0.29842907
0.11937693 0.06227699 0.07356349 0.28208512 0.22822362 0.023341656 -0.17326157 -0.13986538
-0.093218654 -0.27217558 -0.17377815 0.25375044 -0.12820572 -0.10687925 -0.07528205 -0.23119989
0.28412014 -0.09250513 0.006303251 -0.05840978 0.28736717 0.1366201 -0.29837185 0.22706926
0.04500726 0.17613408 0.2593999 -0.119318634 -0.033646464 0.0119358 0.11042866 0.10367167
0.035132557 -0.05327472 0.062089413 0.17185724 -0.15795735 0.29529887 -0.061378166 -0.2848527
0.27065253 0.29010773 0.0266245 -0.15492114 -0.16488765 -0.056283504 -0.2727912 -0.063366964
0.05578041 -0.29165614 0.13588181 0.21561563 0.18801403 -0.12130064 0.27535874 0.059046566
0.24200648 0.0043275356 -0.22306591 0.04846689 -0.22253856 0.06353697 -0.30000943 -0.08261575
0.2240892 0.17986026 0.047555596 -0.14534123 -0.15700346 -0.003838718 -0.10017891 -0.12803093
0.20483398 0.0606744 -0.15230377 -0.22249144 -0.22892746 0.0042958558 0.08004394 -0.014766663
0.2063961 -0.028678775 0.29202402 0.28649408 0.23480994 -0.040416837 0.005840361 0.26146257
-0.2278918 -0.027275443 0.19474292 0.19930398 0.119861186 0.06751478 0.28837758 -0.20263375
-0.19583043 -0.22551277 -0.002564013 0.13568774 0.03278193 -0.0921655 0.089481205 -0.10716891
0.25305045 0.27934873 0.11931527 -0.16094072 -0.099935934 -0.082400516 -0.09012854 0.14329273
0.04566747 0.25545424 0.10003233 0.11493057 0.08540234 -0.26956752 0.15795276 0.005044222
-0.19085127 -0.047451824 0.22195387 0.1179876 0.21377748 -0.2719122 -0.030269623 0.045312524
-0.13705692 -0.15129341 0.2675153 -0.147293 8.657575e-05 0.09289622 -0.1019564 0.047366947
-0.060800627 0.16521448 0.009820074 0.044653833 -0.07297042 -0.12651981 -0.1424109 -0.13581042
-0.28611076 -0.19223478 0.18164325 0.250278 -0.20142385 0.17087698 0.180237 0.05782625
0.08874595 -0.03693196 -0.19673663 -0.16127528 0.2857982 -0.19510101 0.2671144 0.29861295
0.0131370425 0.03277445 -0.2711734 -0.2053307 -0.24544056 0.11092758 -0.07552692 0.10042563
-0.091269076 -0.29442754 0.25295758 -0.2946396 0.29576874 0.07762498 -0.23519745 0.014123023
-0.021180809 -0.11852585 0.2243784 0.114470124 0.12756416 -0.28378737 -0.06700517 0.2714765
0.075148255 0.11734989 -0.013633877 0.047069848 -0.09774241 0.19567409 -0.06485464 -0.010569245
0.24822241 -0.152076 -0.20066807 -0.015010744 -0.2261776 -0.15051974 0.17482135 0.21423727
00000000: 92b5 173e db2a 97be f178 18be b402 b13d
00000010: ea83 78be 29ee 28be 6ee6 72be 000d 9fbc
00000020: 880a 5c3d 14b8 a43d d8fa 0cbd c01c a73b
00000030: 9e40 0fbe e48e 01be e089 5bbc c8db 1f3d
00000040: 40b9 d63d ba63 2e3e 0c92 833e 72d2 cebd
00000050: d86a 523e 142b 85bd f2f1 993e 20d4 0abd
00000060: 72b0 873e daa2 26be c00e dd3b d16b 64be
00000070: 70a1 8abe acca 31be 68c5 80bd b41e ab3d
00000080: 2616 93bd 8cb5 68be 4adb 8c3e fac8 3fbe
00000090: dbfd 78be eaab 68be ec45 87be f0fc cdbd
000000a0: bab4 873e a472 7e3e b804 18bd 80f1 a73d
000000b0: e092 90be 2da8 92be 80be a43c cd12 32be
000000c0: f2f4 323e e049 91be 2028 96be c081 aebc
000000d0: 42b6 143e d881 03bd 2e62 103e b2cb 98be
000000e0: e47b f43d 2816 7f3d 74a8 963d 766d 903e
000000f0: 74b3 693e 0037 bf3c 7b6b 31be df38 0fbe
00000100: 6ce9 bebd 995a 8bbe e6f2 31be 94eb 813e
00000110: 5c48 03be 82e3 dabd 7a2d 9abd aabf 6cbe
00000120: 3278 913e 5473 bdbd 808b ce3b 183f 6fbd
00000130: ca21 933e 24e6 0b3e 32c4 98be d884 683e
00000140: 8859 383d 7e5c 343e 10d0 843e 545d f4bd
00000150: e0d0 09bd 608e 433c 6c28 e23d d051 d43d
00000160: 28e7 0f3d 9836 5abd 7851 7e3d 58fb 2f3e
00000170: 92bf 21be 6a31 973e ac67 7bbd 37d8 91be
00000180: f892 8a3e 0089 943e a01b da3c a6a3 1ebe
00000190: 4fd8 28be 8889 66bd 4aab 8bbe 8ac6 81bd
000001a0: 007a 643d f453 95be 9a24 0b3e 58ca 5c3e
000001b0: c086 403e 786c f8bd d2fb 8c3e d0da 713d
000001c0: 8cd0 773e 00ce 8d3b 646b 64be 3885 463d
000001d0: 26e1 63be ac1f 823d d69a 99be 7232 a9bd
000001e0: a477 653e 4a2d 383e a8c9 423d 55d4 14be
000001f0: 84c5 20be 0093 7bbb 9a2a cdbd 8a1a 03be
00000200: 00c0 513e b885 783d 85f5 1bbe ccd4 63be
00000210: f66b 6abe 40c4 8c3b 14ee a33d e0ef 71bc
00000220: 8059 533e c0ef eabc 2c84 953e 5aaf 923e
00000230: 0472 703e 208c 25bd 8060 bf3b 6cde 853e
00000240: 785c 69be c070 dfbc b06a 473e 5816 4c3e
00000250: c879 f53d 3045 8a3d 3aa6 933e 397f 4fbe
00000260: c687 48be d2ec 66be 0009 28bb baf1 0a3e
00000270: 5846 063d 44c1 bcbd ec41 b73d 607b dbbd
00000280: d48f 813e cc06 8f3e 905b f43d a5cd 24be
00000290: 36ab ccbd 9ac1 a8bd 5095 b8bd 54bb 123e
000002a0: d00d 3b3d e6ca 823e c0dd cc3d b860 eb3d
000002b0: 6ce7 ae3d c104 8abe 5ebe 213e 004a a53b
000002c0: 846e 43be d85c 42bd e047 633e 7ca3 f13d
000002d0: 7ce8 5a3e 1338 8bbe 00f8 f7bc a099 393d
000002e0: a658 0cbe a9ec 1abe c4f7 883e fad3 16be
000002f0: 0090 b538 6040 be3d 84ce d0bd d803 423d
00000300: 140a 79bd fc2d 293e 60e4 203c f0e6 363d
00000310: 8471 95bd 698e 01be 2ad4 11be e311 0bbe
00000320: 1c7d 92be 32d9 44be b000 3a3e 7024 803e
00000330: 0e42 4ebe 60fa 2e3e 0c90 383e 38db 6c3d
00000340: 70c0 b53d f845 17bd 5475 49be 5925 25be
00000350: 2454 923e 8fc8 47be 38c3 883e cce3 983e
00000360: c03c 573c 803e 063d 3dd7 8abe 3642 52be
00000370: c554 7bbe 002e e33d dcad 9abd f4ab cd3d
00000380: 48eb babd 35bf 96be a883 813e 00db 96be
00000390: 006f 973e d8f9 9e3d 9ad7 70be 4064 673c
000003a0: 6083 adbc aebd f2bd 74c3 653e 506f ea3d
000003b0: 2ea0 023e 944c 91be 023a 89bd f8fe 8a3e
000003c0: 54e7 993d 2455 f03d a060 5fbc 50cc 403d
000003d0: 2c2d c8bd ca5e 483e 82d2 84bd a02a 2dbc
000003e0: 042e 7e3e d0b9 1bbe ee7b 4dbe a0ef 75bc
000003f0: 1a9b 67be d921 1abe 5e04 333e 0461 5b3e

fc1.bias f4 [64]
0.27293992 -0.09614125 -0.014747739 -0.07265954 -0.13152328 -0.2280361 0.11621192 -0.17720361
0.11354256 -0.013019443 -0.2743805 -0.12536435 0.22694051 0.2178908 -0.046023756 -0.03471622
-0.12873314 -0.15742557 0.25376374 -0.1575927 0.15097281 0.06367788 0.22618735 0.122097015
0.27491093 -0.19954363 -0.05787711 -0.23707461 0.108706385 0.2591638 -0.29128754 -0.18919256
0.08035773 0.14703313 -0.0022009313 0.078315586 0.24256659 -0.11944547 -0.24654166 -0.2946202
0.15305448 0.023050934 -0.026024014 -0.17250936 -0.20993611 -0.06169267 0.2005012 -0.06929389
-0.02487722 0.2725103 0.23388153 -0.18569133 -0.126063 0.23177063 -0.03998995 -0.22529712
-0.055859268 0.09775722 0.026174724 -0.023353606 -0.013661265 -0.20979446 -0.29433373 0.19492954
00000000: c8be 8b3e b4e5 c4bd 80a0 71bc 86ce 94bd
00000010: 0aae 06be 4c82 69be 8400 ee3d dd74 35be
00000020: 0089 e83d 804f 55bc 9a7b 8cbe 835f 00be
00000030: 1863 683e c41e 5f3e 6883 3cbd 9832 0ebd
00000040: 9fd2 03be 2b34 21be 52ed 813e fb5f 21be
00000050: 9e98 1a3e 8c69 823d a89d 673e 000e fa3d
00000060: 20c1 8c3e 2a55 4cbe 8c10 6dbd b0c3 72be
00000070: 74a1 de3d 1eb1 843e a423 95be b2bb 41be
00000080: 9892 a43d da8f 163e 803d 10bb ec63 a03d
00000090: 6063 783e d49f f4bd 6b75 7cbe 75d8 96be
000000a0: 50ba 1c3e 50d5 bc3c 5030 d5bc 4ba6 30be
000000b0: 7ef9 56be 74b1 7cbd 3050 4d3e f4e9 8dbd
000000c0: 50cb cbbc 7886 8b3e a47e 6f3e de25 3ebe
000000d0: a916 01be 4855 6d3e 80cc 23bd 4ab4 66be
000000e0: b0cc 64bd f034 c83d 606c d63c 1050 bfbc
000000f0: 80d3 5fbc 5cd4 56be e9b2 96be 9c9b 473e

fc2.weight f4 [64, 64]
0.07564156 -0.08940473 -0.031511277 -0.042023048 0.12412374 -0.0010017306 0.056685477 -0.020933673
0.09137055 -0.012525752 -0.11499517 0.012040496 -0.029524729 -0.054320723 0.12404589 -0.027258754
0.1187444 -0.021339312 0.08444835 0.10292338 -0.04669319 0.06936623 0.005995393 -0.09856951
-0.0016776919 -0.08767967 0.044539317 -0.10032536 -0.06055124 0.10594329 -0.07256648 -0.08158861
0.09946649 -0.016956016 -0.072259605 0.11095318 -0.03263299 -0.119088754 -0.023891717 0.032588556
-0.114969924 0.09036216 -0.114185765 0.08591497 0.096986935 0.11684798 -0.053879827 -0.08754927
-0.06386615 0.10828422 -0.07645813 -0.03753829 0.0014267862 0.006145388 -0.021517888 0.0365974
-0.08932699 -0.0481264 0.036688626 0.0029726624 -0.095745474 0.07090102 0.07289785 0.018216714
0.048837766 0.047757104 0.025580302 -0.01108405 -0.06209649 -0.1242391 0.121230096 -0.036185876
-0.070683405 0.03941846 -0.079791665 0.026338592 0.07838471 0.04608853 0.021509483 0.09640913
-0.11637445 -0.107646435 -0.004490122 0.008404806 0.005653307 -0.006468594 0.07074693 -0.11204104
-0.061259136 -0.01127477 0.03630136 -0.02588284 0.03920333 -0.08557221 0.07792382 0.102158636
-0.060699403 0.04771176 0.016120955 0.046407044 -0.07274859 0.027549446 0.044014722 -0.028735861
0.07458182 0.0017876625 -0.060879722 0.10164298 0.056202784 0.045777366 0.10401641 -0.11185868
0.102935225 0.06852251 0.059173986 0.011693373 0.024327502 -0.07261647 0.09423436 0.042217344
-0.06554645 -0.046486735 0.11547066 -0.098812446 0.024002016 0.11037415 -0.064702585 -0.0074419826
-0.10501525 0.112584144 0.08074364 -0.09764503 -0.0055466294 -0.07907872 -0.038123325 -0.05489859
0.12361556 0.036318168 0.11151412 0.10284348 0.009925768 -0.124461636 0.009578049 0.10577543
0.013240144 0.057839453 -0.00089882314 0.08610073 0.10853621 -0.06808962 -0.11137581 -0.026524827
0.029461384 -0.08008069 -0.03747621 0.022132441 0.060090587 -0.10464154 0.07732436 0.11871591
0.1096974 -0.02530542 -0.020809457 -0.02385503 -0.078789875 -0.014562979 -0.0038503557 -0.076257125
-0.009637281 -0.009770885 -0.033709228 0.043334857 -0.10922551 0.07862021 0.044204116 0.11346078
-0.05273235 -0.112330794 -0.026150942 -0.102297515 -0.05020185 0.082337126 0.05049421 0.0027120262
0.12209767 -0.09768145 0.07061364 -0.020366758 0.05073522 -0.11356604 0.024649933 -0.09476206
0.11820787 -0.1233636 -0.031696156 -0.07567935 -0.039951727 0.121653035 0.06440079 -0.047763348
0.07369669 0.12093055 -0.07573561 0.020901233 0.02265948 -0.073577195 0.02551511 0.01024197
-0.07522151 0.0054454654 0.09885317 0.01438728 0.00033837557 -0.05699943 0.00562869 0.05751252
-0.0057127923 -0.112085715 0.09238373 -0.10981567 0.076443136 0.050539047 -0.08314425 -0.06439863
-0.027260989 -0.007255718 0.09110959 -0.017196998 0.076305375 -0.05945085 -0.06768587 0.06677598
-0.05654572 0.022837281 -0.070234254 0.044071153 -0.06259255 0.10836753 -0.0319342 -0.051883593
0.011237785 0.07260001 -0.06731139 0.122240946 -0.034261033 -0.013942525 -0.07223518 -0.119175166
0.03194423 0.023238316 0.008460447 0.069770426 -0.061576694 0.06752978 0.052792802 -0.11632173
00000000: f6e9 9a3d d419 b7bd f811 01bd 5c20 2cbd
00000010: 9634 fe3d 804c 83ba 082f 683d 187d abbc
00000020: 7c20 bb3d d038 4dbc 9682 ebbd 8045 453c
00000030: d8dd f1bc 687f 5ebd c60b fe3d c04d dfbc
00000040: 4430 f33d c8cf aebc 42f3 ac3d 7ec9 d23d
00000050: 5c41 3fbd e20f 8e3d 0075 c43b d0de c9bd
00000060: 00e6 dbba 6691 b3bd dc6e 363d 6277 cdbd
00000070: 9404 78bd ccf8 d83d bc9d 94bd ee17 a7bd
00000080: 16b5 cb3d 58e7 8abc d8fc 93bd 6c3b e33d
00000090: 2caa 05bd cee4 f3bd 90b8 c3bc 947b 053d
000000a0: 5a75 ebbd cc0f b93d 3ada e9bd 30f4 af3d
000000b0: 16a1 c63d fe4d ef3d 18b1 5cbd 084d b3bd
000000c0: 42cc 82bd 1ec4 dd3d 1496 9cbd c0c1 19bd
000000d0: 0003 bb3a 405f c93b 4846 b0bc 28e7 153d
000000e0: 12f1 b6bd 3020 45bd d046 163d 00d1 423b
000000f0: 3416 c4bd 8e34 913d 784b 953d 383b 953c
00000100: 1c0a 483d f49c 433d c88d d13c e099 35bc
00000110: e458 7ebd 1271 febd 7c47 f83d a437 14bd
00000120: 76c2 90bd 4075 213d d069 a3bd 08c4 d73c
00000130: 2a88 a03d 54c7 3c3d a834 b03c 2672 c53d
00000140: ba55 eebd bc75 dcbd e021 93bb 50b4 093c
00000150: 603f b93b 80f6 d3bb c4e3 903d c675 e5bd
00000160: dcea 7abd d0b9 38bc bcb0 143d 4008 d4bc
00000170: ac93 203d 7c40 afbd 8696 9f3d 8c38 d13d
00000180: f09f 78bd 686d 433d 1810 843c 5015 3e3d
00000190: 36fd 94bd 60af e13c c848 343d 7867 ebbc
000001a0: 5abe 983d 0050 ea3a 045d 79bd 322a d03d
000001b0: e434 663d 0c81 3b3d 8e06 d53d 2a16 e5bd
000001c0: b4cf d23d 8855 8c3d 6c60 723d 9095 3f3c
000001d0: 784a c73c f2b7 94bd f2fd c03d 18ec 2c3d
000001e0: 383d 86bd e068 3ebd e27b ec3d 2e5e cabd
000001f0: e09f c43c d80b e23d ca82 84bd e0db f3bb
00000200: 3c12 d7bd 8492 e63d ec5c a53d 1efa c7bd
00000210: 80c0 b5bb 06f4 a1bd 3427 1cbd 58dd 60bd
00000220: 282a fd3d 5cc2 143d 8461 e43d 9a9f d23d
00000230: b09f 223c bee5 febd 40ed 1c3c caa0 d83d
00000240: 30ed 583c 10e9 6c3d 009f 6bba 9455 b03d
00000250: 3c48 de3d 9272 8bbd 0019 e4bd 984a d9bc
00000260: 0059 f13c 5801 a4bd a880 19bd 184f b53c
00000270: 8c21 763d 4e4e d6bd 3c5c 9e3d 5421 f33d
00000280: 08a9 e03d 504d cfbc 9878 aabc a06b c3bc
00000290: 965c a1bd 9099 6ebc 4056 7cbb b22c 9cbd
000002a0: b0e5 1dbc 1016 20bc b012 0abd e47f 313d
000002b0: a0b1 dfbd a203 a13d 600f 353d 205e e83d
000002c0: e0fd 57bd b00d e6bd 803a d6bc 5c81 d1bd
000002d0: 74a0 4dbd 5ea0 a83d 04d3 4e3d 40bc 313b
000002e0: 580e fa3d 360d c8bd e29d 903d 30d8 a6bc
000002f0: bccf 4f3d 5095 e8bd a8ee c93c 9c12 c2bd
00000300: f816 f23d 0ea6 fcbd d4d3 01bd c6fd 9abd
00000310: 6ca4 23bd 3a25 f93d 90e4 833d 80a3 43bd
00000320: 4aee 963d 70aa f73d 461b 9bbd 1039 ab3c
00000330: 60a0 b93c a4af 96bd 1005 d13c f0cd 273c
00000340: bc0d 9abd e06f b23b 8873 ca3d a0b8 6b3c
00000350: 0068 b139 3c78 69bd e070 b83b 4092 6b3d
00000360: 6032 bbbb 328d e5bd ae33 bd3d 0ae7 e0bd
00000370: 388e 9c3d 0802 4f3d 8847 aabd 6ee3 83bd
00000380: 7052 dfbc 60c1 edbb aa97 ba3d b8e0 8cbc
00000390: fe45 9c3d bc82 73bd e49e 8abd d8c1 883d
000003a0: 7c9c 67bd 4015 bb3c fad6 8fbd f483 343d
000003b0: 8630 80bd ccef dd3d 70cd 02bd e483 54bd
000003c0: b01e 383c 50af 943d 8eda 89bd 7659 fa3d
000003d0: 4c55 0cbd 306f 64bc 0af0 93bd 1c12 f4bd
000003e0: f4d7 023d 485e be3c b09d 0a3c cce3 8e3d
000003f0: d837 7cbd 0e4d 8a3d 443d 583d 163a eebd

fc2.bias f4 [64]
0.06070757 -0.009400934 0.017053232 0.11756778 0.10976218 -0.017713442 0.024102882 0.12111589
-0.069659665 -0.05548145 0.045467064 0.0823452 -0.10580765 0.111094 -0.013825819 -0.090595976
0.06452015 0.08860691 0.08412136 0.038612112 0.027015299 -0.097393066 -0.020054713 0.07402338
0.047717586 -0.10186355 -0.025657386 -0.08398262 0.119194075 -0.078230575 -0.120789126 -0.003651172
0.027402759 -0.02784124 0.0766685 -0.07623841 0.10371289 0.06654441 -0.079766765 -0.0221477
-0.045544505 -0.0015176684 -0.09711149 0.0048269033 0.05298987 0.04929349 0.11137912 -0.098325655
-0.121439084 -0.02659209 -0.059434384 -0.08096331 -0.12498835 -0.001550436 -0.005692348 -0.10922314
-0.079922974 0.0039037913 -0.09706958 -0.012647361 0.10583086 0.040066704 -0.06563449 -0.060327142
00000000: 80a8 783d 6006 1abc 38b3 8b3c 60c7 f03d
00000010: feca e03d c81b 91bc 6873 c53c 9c0b f83d
00000020: baa9 8ebd 8440 63bd ac3b 3a3d 9aa4 a83d
00000030: aeb1 d8bd 4085 e33d b085 62bc 628a b9bd
00000040: 2423 843d 8a77 b53d d247 ac3d bc27 1e3d
00000050: 304f dd3c 0476 c7bd c849 a4bc 9299 973d
00000060: 8473 433d d69d d0bd 702f d2bc 14ff abbd
00000070: 061c f43d 5a37 a0bd 4a60 f7bd 8048 6fbb
00000080: c07b e03c 5013 e4bc 6004 9d3d e222 9cbd
00000090: 6c67 d43d 7048 883d c25c a3bd 186f b5bc
000000a0: e08c 3abd 80ec c6ba 64e2 c6bd 002b 9e3b
000000b0: e80b 593d f8e7 493d bc1a e43d f65e c9bd
000000c0: 0eb5 f8bd a8d7 d9bc 7871 73bd 18d0 a5bd
000000d0: e4f9 ffbd 0038 cbba e086 babb 62b0 dfbd
000000e0: a8ae a3bd c0d6 7f3b 6acc c6bd e036 4fbc
000000f0: dabd d83d fc1c 243d 606b 86bd 9819 77bd

fc3.weight f4 [1, 64]
0.07378484 -0.12429154 0.0010781735 -0.09426649 -0.025651187 0.039054886 -0.111900926 -0.016726464
0.012483835 0.11178401 0.086415544 -0.06736407 -0.072200015 -0.031700954 -0.10054757 -0.06969911
0.11537953 0.039449364 0.08375566 -0.05487758 0.026052654 -0.07437481 0.0427078 -0.031837553
0.11311999 0.055661306 -0.03613913 0.0849814 -0.07189287 0.043727055 -0.09741549 -0.06285587
-0.010737598 -0.095690966 -0.082502395 -0.043923795 -0.095517084 -0.0752753 0.065731406 -0.07515046
-0.12307878 0.02331756 -0.05297625 -0.08041537 -0.08440991 0.102359444 0.0813926 0.105480894
-0.094060466 -0.042469203 -0.048219323 -0.06514664 0.082941875 0.009962097 0.055690214 -0.12471555
-0.10935302 -0.10254383 0.0736202 0.11316228 -0.07130556 0.11015928 0.007942453 0.0747474
00000000: 821c 973d 908c febd 8051 8d3a ca0e c1bd
00000010: 7022 d2bc 04f8 1f3d 502c e5bd f005 89bc
00000020: 0089 4c3c 04ef e43d a2fa b03d 2cf6 89bd
00000030: 9add 93bd dcd8 01bd e2eb cdbd 68be 8ebd
00000040: 1a4c ec3d a895 213d 1688 ab3d 50c7 60bd
00000050: 606c d53c d251 98bd 60ee 2e3d 1868 02bd
00000060: 74ab e73d 1cfd 633d a006 14bd ba0a ae3d
00000070: 923c 93bd 241b 333d c681 c7bd 94ba 80bd
00000080: c0ec 2fbc a0f9 c3bd 04f7 a8bd 70e9 33bd
00000090: 769e c3bd f029 9abd 309e 863d 7ce8 99bd
000000a0: ba10 fcbd 7804 bf3c a0fd 58bd d0b0 a4bd
000000b0: 1adf acbd d4a1 d13d 2ab1 a63d 5e06 d83d
000000c0: c6a2 c0bd 30f4 2dbd a081 45bd 9a6b 85bd
000000d0: 6edd a93d 1038 233c 6c1b 643d de6a ffbd
000000e0: 7af4 dfbd 8002 d2bd 30c6 963d a0c1 e73d
000000f0: a608 92bd 309b e13d 1021 023c 2a15 993d
