data/models/rl_aca_20250316_145917.pt (torch, 23198 bytes, 5 tensors)

fc1.weight f4 [64, 11]
-0.23452535 0.03976649 0.22711372 -0.2713341 -0.03605315 -0.005753815 -0.16093525 0.2374289
0.011021256 -0.24543452 0.015763432 0.0945687 0.13886443 0.18339759 0.013617426 0.292396
0.296409 -0.052946925 -0.102058545 -0.084762365 0.044449925 0.14043349 0.28322518 -0.08546728
0.2924971 0.23614752 -0.080155805 0.118790716 0.07960141 0.27015597 0.21510637 0.23022133
0.25544864 -0.13246855 -0.0024703443 0.16299474 -0.2544943 0.14396226 0.091867626 -0.1021571
0.15945461 0.016981244 0.12723562 0.23525494 0.1375556 0.22019422 0.26297772 0.23923308
-0.0419963 -0.24712735 0.06265202 0.142252 0.13207167 0.22304499 -0.25429416 0.2519077
-0.26717994 0.060881495 -0.26694304 -0.019361705 -0.0026064515 0.104445726 0.20229077 -0.12400398
-0.191199 -0.25984424 -0.23189855 0.27786392 0.14505574 -0.28433704 -0.15129878 0.06076321
-0.2422793 -0.020940542 0.26801485 0.06834176 -0.26866868 -0.03900394 0.08372089 -0.104989156
-0.20754036 0.038968533 0.20758545 0.033386856 -0.010478944 0.2973743 0.014113635 -0.11161333
0.12465826 0.1917792 0.15288058 -0.1766456 0.038142025 0.10517973 -0.16432877 0.03891
-0.06553954 0.085282415 0.28542423 -0.14130124 -0.06701507 -0.23266236 0.17299709 -0.16002281
0.14515021 0.07695806 0.19123915 0.051829994 -0.0022405088 0.28136945 0.25767553 0.053243577
0.15194273 0.17920762 -0.15428294 0.010261714 0.26093507 -0.27175847 0.2823214 -0.11940242
-0.0692987 -0.16734047 0.021972239 4.902482e-05 0.1943644 0.24194986 -0.2586792 -0.075231194
-0.16356179 0.07945484 0.20537436 -0.18143108 0.28680116 -0.0020489395 0.23182368 0.23999417
0.06975916 0.25390124 0.14796874 0.18626106 -0.1939072 0.1600649 -0.16391023 -0.09238249
-0.113247335 -0.29615533 0.009846091 0.23505741 -0.049412757 0.25115472 -0.015335411 0.018804163
-0.035820216 0.2730341 -0.16962917 0.1868918 0.25962746 0.14757788 -0.006881863 0.29063606
0.06628263 0.14277124 -0.24795692 0.29053724 -0.22489513 -0.24045524 -0.07185115 0.14515755
0.16604778 -0.16333683 0.29416758 -0.0074828267 0.27526748 0.07855064 0.29690903 -0.07899931
-0.058885485 -0.21005648 0.15789169 -0.005203426 -0.19774443 0.1312306 0.0312666 -0.09822552
0.070961356 0.038026214 -0.17853957 0.0013482273 0.018105388 0.28853577 -0.238161 -0.03990394
-0.19739413 0.050806582 -0.16002724 0.06350151 -0.13359784 -0.028755486 -0.25408095 -0.25542223
-0.01671952 -0.018345535 -0.07196215 0.16444468 0.01874888 -0.007144928 0.110657126 -0.049329937
-0.18040487 0.21323645 -0.27176693 0.00943619 0.09409645 -0.1456283 -0.24053201 -0.04429069
-0.008475661 0.05343777 0.008931398 -0.16300105 -0.15640192 0.05395612 0.2436853 0.23012996
0.1955171 -0.06747909 -0.27291074 -0.08812755 0.20005941 0.024276584 -0.10262324 -0.25209713
0.13767508 0.0067451 -0.037573397 0.07299128 0.19678131 0.03776416 -0.06218031 0.25648934
-0.22724088 0.03061837 0.29296523 -0.10224886 -0.04517901 0.11624694 -0.25612673 -0.13829656
-0.22012874 -0.140787 0.01802805 0.05689457 0.27750283 -0.25520822 -0.22183251 -0.062117547
00000000: 6a27 70be 30e2 223d 8090 683e 4eec 8abe
00000010: 78ac 13bd 808a bcbb 36cc 24be 9020 733e
00000020: 8092 343c 3053 7bbe 5022 813c 3cad c13d
00000030: 7a32 0e3e 94cc 3b3e a01b 5f3c eeb4 953e
00000040: ecc2 973e e0de 58bd 1204 d1bd e497 adbd
00000050: 2011 363d cccd 0f3e e402 913e 7809 afbd
00000060: 2ec2 953e a8d0 713e ba28 a4bd 8c48 f33d
00000070: 1006 a33d e251 8a3e d844 5c3e 24bf 6b3e
00000080: 2aca 823e d6a5 07be 80e5 21bb 18e8 263e
00000090: 144d 82be d86a 133e 1825 bc3d be37 d1bd
000000a0: 1248 233e 401c 8b3c 0e4a 023e ace6 703e
000000b0: 60db 0c3e 987a 613e 04a5 863e 84f9 743e
000000c0: 5004 2cbd f40e 7dbe b44f 803d 82aa 113e
000000d0: cc3d 073e e865 643e d832 82be 0cfa 803e
000000e0: cfcb 88be e05e 793d c2ac 88be 709c 9ebc
000000f0: 00d1 2abb a4e7 d53d 5025 4f3e ccf5 fdbd
00000100: acc9 43be 4e0a 85be d076 6dbe 2e44 8e3e
00000110: 7e89 143e a094 91be 11ee 1abe d8e2 783d
00000120: 1118 78be 808b abbc 3e39 893e c4f6 8b3d
00000130: f18e 89be 98c2 1fbd dc75 ab3d 8e04 d7bd
00000140: 7685 54be 789d 1f3d 4891 543e a8c0 083d
00000150: e0af 2bbc 7241 983e e03c 673c 8895 e4bd
00000160: d44c ff3d c461 443e ba8c 1c3e 96e2 34be
00000170: d03a 1c3d 7868 d73d cd45 28be 1860 1f3d
00000180: 9839 86bd 8ca8 ae3d 2023 923e 46b1 10be
00000190: 323f 89bd 0b3f 6ebe 2626 313e 05dd 23be
000001a0: 42a2 143e 309c 9d3d 32d4 433e b04b 543d
000001b0: 80d5 12bb a80f 903e 0cee 833e f015 5a3d
000001c0: e096 1b3e 3482 373e 59fc 1dbe c020 283c
000001d0: 4899 853e ed23 8bbe 6e8c 903e 4289 f4bd
000001e0: 7aec 8dbd 4d5b 2bbe 20ff b33c 00a0 4d38
000001f0: 7607 473e b4c1 773e 9a71 84be d012 9abd
00000200: be7c 27be 38b9 a23d a84d 523e 12c9 39be
00000210: 9ad7 923e 8047 06bb 3063 6d3e 08c1 753e
00000220: e4dd 8e3d 58ff 813e 1e85 173e 38bb 3e3e
00000230: 9c8f 46be 0ee8 233e 15d8 27be 0833 bdbd
00000240: 38ee e7bd aca1 97be 8051 213c e4b2 703e
00000250: 0865 4abd 5a97 803e 6041 7bbc 300b 9a3c
00000260: 38b8 12bd 20cb 8b3e 45b3 2dbe 9060 3f3e
00000270: e4ed 843e a81e 173e 4081 e1bb 40ce 943e
00000280: 30bf 873d a032 123e 6be8 7dbe 4cc1 943e
00000290: e94a 66be e639 76be b226 93bd 2ea4 143e
000002a0: 6e08 2a3e c541 27be 229d 963e 8032 f5bb
000002b0: dcef 8c3e 28df a03d 7604 983e 64ca a1bd
000002c0: e831 71bd 0c19 57be 5cae 213e 8081 aabb
000002d0: 847d 4abe 5061 063e 6811 003d 762a c9bd
000002e0: 3054 913d 60c1 1b3d 14d3 36be 00b7 b03a
000002f0: c051 943c f6ba 933e 7ae0 73be 5072 23bd
00000300: b021 4abe 901a 503d 2ede 23be 140d 823d
00000310: dfcd 08be a090 ebbc e616 82be b4c6 82be
00000320: 60f7 88bc 6049 96bc e460 93bd 3064 283e
00000330: 4097 993c 0020 eabb 34a0 e23d 300e 4abd
00000340: 0ebc 38be a85a 5a3e 0925 8bbe 409a 1a3c
00000350: a4b5 c03d 961f 15be 064e 76be 286a 35bd
00000360: 80dd 0abc 90e1 5a3d 0055 123c bfe9 26be
00000370: d327 20be 1801 5d3d a488 793e 30a7 6b3e
00000380: a235 483e 7a32 8abd f5ba 8bbe 387c b4bd
00000390: 60dc 4c3e b0df c63c 222c d2bd e012 81be
000003a0: b2fa 0c3e 0006 dd3b 90e6 19bd 747c 953d
000003b0: 0a81 493e 98ae 1a3d c8b0 7ebd 9252 833e
000003c0: d5b1 68be 60d3 fa3c 8aff 953e da67 d1bd
000003d0: a00d 39bd e012 ee3d 0b23 83be 9d9d 0dbe
000003e0: 6e69 61be 782a 10be 90af 933c 480a 693d
000003f0: da14 8e3e a7aa 82be 1028 63be f86e 7ebd

fc1.bias f4 [64]
-0.15125409 0.13065955 -0.11848232 -0.26480532 -0.28680474 0.2871282 0.2597729 0.19919336
-0.21524146 0.010484457 -0.08629885 0.091879785 0.28463173 0.15242243 -0.120601445 0.19670123
-0.1349461 -0.16194996 0.038164973 -0.18336438 -0.21102384 0.19885063 -0.16767107 0.27143615
0.07420075 0.26436484 0.21002418 -0.0069040954 -0.21293178 -0.10847174 -0.11387065 0.28675467
0.06450081 0.07978532 -0.17370823 0.20242983 -0.25729758 0.19607607 -0.17782998 -0.01142624
-0.24501938 0.18033922 0.18173236 -0.21426827 -0.11813654 0.22729927 -0.12580264 -0.123025686
0.27053642 -0.08981091 0.26230985 0.04054007 -0.044549197 -0.29044932 0.19538087 -0.015717238
0.1516932 -0.24507214 0.23079014 -0.2517901 0.18780538 -0.2959585 -0.1532517 0.1008665
00000000: 5ae2 1abe 9ecb 053e dca6 f2bd 9094 87be
00000010: 12d8 92be 7802 933e f400 853e 58f9 4b3e
00000020: 4268 5cbe 00c7 2b3c 74bd b0bd 782b bc3d
00000030: 40bb 913e a014 1c3e e4fd f6bd 0c6c 493e
00000040: 4f2f 0abe 36d6 25be e052 1c3d dfc3 3bbe
00000050: a216 58be 809f 4b3e f7b1 2bbe aef9 8a3e
00000060: 90f6 973d d45a 873e 9410 573e c03b e2bb
00000070: ca0a 5abe 6e26 debd 0435 e9bd 82d1 923e
00000080: 0019 843d 7c66 a33d 92e0 31be c449 4f3e
00000090: 82bc 83be 2ac8 483e 1019 36be 2035 3bbc
000000a0: 5ce6 7abe d8aa 383e 0c18 3a3e 2469 5bbe
000000b0: 92f1 f1bd 24c1 683e 68d2 00be e4f4 fbbd
000000c0: c083 8a3e c8ee b7bd 7a4d 863e 580d 263d
000000d0: 3879 36bd c6b5 94be ec11 483e 70c1 80bc
000000e0: 7655 1b3e 31f4 7abe 4054 6c3e a2ea 80be
000000f0: 0e50 403e df87 97be 03ee 1cbe 1893 ce3d

fc2.weight f4 [64, 64]
0.05303441 0.08195761 0.035070285 0.009486213 -0.06256698 -0.06246461 0.007939592 0.0031472743
0.026259944 0.0017968565 0.016341448 0.020377189 0.001869902 0.027539968 -0.019785106 -0.078278884
-0.11008453 -0.011318356 0.057714403 -0.07286425 -0.09651795 0.12333639 0.080346435 0.09460792
-0.051194668 0.043914914 -0.024429709 0.122222245 0.07603072 0.06725569 -0.012723893 -0.06661035
-0.062435225 0.094213456 -0.035671443 -0.025197163 -0.050046697 0.04643503 0.06937802 0.10023634
-0.04265742 0.06642665 -0.083829895 -0.108532 -0.050002396 0.0044179857 -0.016852528 -0.007845119
0.026000246 -0.030157626 -0.04633814 -0.009615436 -0.07651502 -0.074237734 -0.0027137548 -0.06636055
0.012196332 0.11280629 0.022809863 0.09135771 -0.11521582 -0.087235674 -0.09180908 -0.098960906
-0.012465566 -0.08064023 -0.117153555 0.093086675 -0.032992736 0.043640926 -0.04890491 -0.054770395
0.09024669 0.068447635 0.048678726 0.10494661 -0.101346284 -0.04927422 0.019086644 -0.083999455
-0.079021886 -0.044375494 -0.007924303 -0.016699895 -0.11043504 0.000120297074 -0.045642585 0.03820622
-0.10522047 -0.024526998 0.042575642 0.07460281 0.0871561 -0.06706801 -0.06905933 -0.08793214
-0.061353445 0.039862975 0.058599293 0.017133638 0.012772933 -0.09237169 -0.101987064 0.0522995
0.07341716 0.08891712 0.005078301 -0.101338804 -0.1205408 0.012074292 -0.05357316 -0.10758065
-0.06999229 0.013720453 -0.0089172125 -0.03409633 0.05627781 0.05565059 -0.07611877 0.077674344
0.039372027 0.03459215 -0.11554991 0.107957065 0.1102802 -0.012207583 0.042391464 -0.087053925
0.027806506 -0.053272843 -0.07510719 -0.109118134 -0.064322576 0.057544485 0.0057892054 0.028508857
0.02025412 0.07294002 -0.024869084 0.003834501 -0.10364564 -0.07643838 0.026770696 0.12020899
0.062226698 -0.10051842 0.05493781 0.1102678 -0.021707937 0.0771472 -0.057487845 0.0754537
-0.12029417 0.0142184645 -0.07858233 0.09953828 -0.0013635755 0.0027214289 -0.038440138 0.12245758
0.045457706 -0.108395934 -0.033439964 -0.084713444 0.1193199 -0.031223252 -0.085781395 -0.09274471
0.08601205 0.041365206 0.10881604 0.03708327 -0.004315302 0.012746811 -0.019151345 -0.092564866
0.05084981 0.009180218 0.029482141 0.03318192 0.10123025 0.068910494 0.09760983 0.059602484
-0.099898934 -0.117501274 0.10993837 0.07019836 -0.03737098 -0.11567882 0.07896346 -0.0646044
0.093534485 0.033335432 0.10223578 -0.039453447 0.08408935 0.06071131 0.097690955 -0.051807135
0.020462483 0.07729988 0.109908015 -0.06621839 -0.0074723363 -0.03639871 -0.07642625 -0.07378736
-0.038650066 0.048881605 0.03628908 -0.12003453 0.111864194 -0.031390607 0.091012865 -0.029176205
-0.008470774 -0.10201283 -0.05914378 0.042895734 -0.06775206 -0.11075303 0.04755427 0.059479594
-0.0421623 -0.107143715 -0.01153487 -0.016896814 0.083599195 -0.10286327 -0.084166944 0.033860028
0.0025547743 0.112758875 0.054461047 -0.014500797 -0.08945982 -0.08948432 -0.07996626 -0.045556456
-0.07663879 -0.038597003 0.02481912 0.10159713 0.076269075 0.03923461 0.05555527 -0.10126279
0.013271287 0.11874744 -0.06179212 0.018061161 0.10480411 0.113195956 0.023780987 -0.115694046
00000000: 9c3a 593d 64d9 a73d dca5 0f3d 106c 1b3c
00000010: 1e23 80bd e4da 7fbd 1015 023c 8042 4e3b
00000020: 181f d73c 8084 eb3a 80de 853c 10ee a63c
00000030: 8017 f53a 809b e13c 6014 a2bc ae50 a0bd
00000040: 0074 e1bd a070 39bc f065 6c3d da39 95bd
00000050: 34ab c5bd ca97 fc3d ac8c a43d ccc1 c13d
00000060: 80b1 51bd 20e0 333d d020 c8bc a84f fa3d
00000070: feb5 9b3d 5abd 893d e077 50bc 026b 88bd
00000080: 14bc 7fbd fcf2 c03d 381c 12bd 486a cebc
00000090: c4fd 4cbd a832 3e3d 1016 8e3d b648 cd3d
000000a0: 8cb9 2ebd b20a 883d 02af abbd 0646 debd
000000b0: 50cf 4cbd c0c4 903b 500e 8abc d088 00bc
000000c0: 78fe d43c 200d f7bc 10cd 3dbd 108a 1dbc
000000d0: e8b3 9cbd f409 98bd 40d9 31bb 0ae8 87bd
000000e0: 20d3 473c fc06 e73d c0db ba3c c019 bb3d
000000f0: 46f6 ebbd 9ea8 b2bd 6606 bcbd 04ac cabd
00000100: 603c 4cbc b426 a5bd 34ee efbd 3aa4 be3d
00000110: 6423 07bd d4c0 323d 8450 48bd ec56 60bd
00000120: 42d3 b83d 462e 8c3d 5863 473d 40ee d63d
00000130: a48e cfbd c4d3 49bd 985b 9c3c e807 acbd
00000140: 3ad6 a1bd 14c3 35bd f0d4 01bc 38ce 88bc
00000150: c42b e2bd 0048 fc38 b8f3 3abd 207e 1c3d
00000160: d47d d7bd d8ec c8bc cc63 2e3d 5cc9 983d
00000170: e67e b23d f45a 89bd fa6e 8dbd c415 b4bd
00000180: c04d 7bbd 5c47 233d d005 703d d85b 8c3c
00000190: 9045 513c 5e2d bdbd 98de d0bd 0038 563d
000001a0: bc5b 963d 2e1a b63d e067 a63b b88a cfbd
000001b0: 18de f6bd 40d3 453c 886f 5bbd 3e53 dcbd
000001c0: 1e58 8fbd c0cb 603c 8019 12bc 98a8 0bbd
000001d0: 9083 663d e0f1 633d 28e4 9bbd ba13 9f3d
000001e0: 9044 213d 80b0 0d3d 6ea5 ecbd 9818 dd3d
000001f0: 96da e13d 5002 48bc aca2 2d3d 5449 b2bd
00000200: 78ca e33c a034 5abd ccd1 99bd 5479 dfbd
00000210: 8ebb 83bd c4b3 6b3d 60b3 bd3b 688b e93c
00000220: f8eb a53c 9461 953d 40ba cbbc 404c 7b3b
00000230: 2a44 d4bd ba8b 9cbd 384e db3c 2230 f63d
00000240: 6ce1 7e3d 9adc cdbd 7806 613d 16d4 e13d
00000250: d8d4 b1bc 5aff 9d3d 6078 6bbd 7887 9a3d
00000260: ca5c f6bd 90f4 683c c6ef a0bd bada cb3d
00000270: 00ba b2ba 005a 323b 6873 1dbd 0acb fa3d
00000280: dc31 3a3d b0fe ddbd 58f8 08bd 3e7e adbd
00000290: fe5d f43d e8c7 ffbc 28ae afbd f0f0 bdbd
000002a0: 1627 b03d 906e 293d f2da de3d a0e4 173d
000002b0: 6067 8dbb 00d8 503c 48e3 9cbc a692 bdbd
000002c0: e447 503d a068 163c 8884 f13c c4e9 073d
000002d0: ce51 cf3d f220 8d3d aae7 c73d bc21 743d
000002e0: d097 ccbd 82a4 f0bd 5e27 e13d 28c4 8f3d
000002f0: 5012 19bd 04e9 ecbd 98b7 a13d 504f 84bd
00000300: 028f bf3d bc8a 083d fe60 d13d f099 21bd
00000310: 0a37 ac3d 6cac 783d 3212 c83d b833 54bd
00000320: f0a0 a73c 664f 9e3d 7417 e13d 829d 87bd
00000330: 80da f4bb d016 15bd 5e85 9cbd d41d 97bd
00000340: 884f 1ebd 1438 483d dca3 143d aad4 f5bd
00000350: 0e19 e53d 7093 00bd f464 ba3d f002 efbc
00000360: 00c9 0abc 1aec d0bd c040 72bd 70b3 2f3d
00000370: 98c1 8abd 7cd2 e2bd 44c8 423d e0a0 733d
00000380: 60b2 2cbd 2a6e dbbd c0fc 3cbc 306b 8abc
00000390: 0e36 ab3d faa9 d2bd b85f acbd d0b0 0a3d
000003a0: 006e 273b 20ee e63d 8c12 5f3d c094 6dbc
000003b0: b636 b7bd 8e43 b7bd 5ac5 a3bd 6899 3abd
000003c0: ccf4 9cbd e417 1ebd 7851 cb3c 2812 d03d
000003d0: f632 9c3d 78b4 203d ec8d 633d de62 cfbd
000003e0: d06f 593c dc31 f33d bc19 7dbd 00f5 933c
000003f0: 8aa3 d63d 48d3 e73d 58d0 c23c 00f1 ecbd

fc2.bias f4 [64]
-0.08350439 -0.008254468 -0.096641526 0.114515334 -0.041490644 0.043418035 0.08926296 -0.08298057
0.104420096 -0.09940435 -0.010545075 0.032962605 -0.10739073 -0.012774259 -0.103334814 0.10165113
0.0035093129 0.017889291 0.03050892 -0.018900111 -0.021704644 0.113233745 0.049568936 0.07259901
0.048474 -0.11576894 0.10741551 -0.014813662 0.08803713 0.10282606 -0.06131594 0.09218606
-0.084999725 0.1176077 0.07017201 -0.03002803 0.012406036 0.02150251 0.11965594 0.011928439
-0.044537753 -0.07348399 0.08254109 0.09951948 -0.004250005 -0.108740315 0.10196863 0.09727171
-0.12146816 -0.0672749 -0.07253066 -0.1202265 0.115628764 0.003186971 -0.015959412 -0.008296192
0.049482793 -0.107875854 -0.09915337 -0.07741529 -0.035769433 -0.009846225 0.04059562 0.07188468
00000000: 5a04 abbd c03d 07bc feeb c5bd 0487 ea3d
00000010: 18f2 29bd 1cd7 313d 80cf b63d b8f1 a9bd
00000020: 34da d53d 8294 cbbd 40c5 2cbc cc03 073d
00000030: acef dbbd 204b 51bc 34a1 d3bd 782e d03d
00000040: 80fc 653b 908c 923c d8ed f93c 68d4 9abc
00000050: f0cd b1bc 18e7 e73d cc08 4b3d caae 943d
00000060: ac8c 463d 4418 edbd aafc db3d 00b5 72bc
00000070: d04c b43d 7896 d23d 6c26 7bbd 0ccc bc3d
00000080: 5614 aebd 4edc f03d 58b6 8f3d 58fd f5bc
00000090: b042 4b3c 0826 b03c 2c0e f53d 806f 433c
000000a0: 386d 36bd c67e 96bd 4e0b a93d ded0 cb3d
000000b0: a043 8bbb 3eb3 debd eed4 d03d 6436 c73d
000000c0: 4cc4 f8bd 6cc7 89bd f48a 94bd 5039 f6bd
000000d0: c6ce ec3d 80dc 503b 50bd 82bc c0ec 07bc
000000e0: 78ae 4a3d 04ee dcbd ec10 cbbd e88b 9ebd
000000f0: f882 12bd 1052 21bc 9847 263d 4638 933d

fc3.weight f4 [1, 64]
-0.05898185 0.12395333 -0.09318641 0.04928273 -0.059678286 -0.06466836 0.08534758 0.0328539
-0.0062613934 0.052834347 -0.023975447 0.037117317 -0.05926834 0.03944868 -0.028157413 -0.106812224
-0.07505624 -0.112399235 0.018834248 0.04918906 -0.03804879 0.07785751 0.010147408 -0.019386515
-0.015083119 0.1109357 0.0053086877 -0.070098996 0.09388229 -0.08720735 0.07839835 -0.12401429
-0.115707695 0.011981443 -0.09225504 0.00700143 0.122415945 0.05757159 0.044000372 0.0063218027
0.09801185 -0.04623258 0.096845046 -0.11823113 -0.009912118 0.09012991 -0.063847914 -0.036149725
-0.0879536 0.09683418 -0.036267355 0.067105025 0.038651913 -0.04542914 -0.0064870417 0.08204976
0.096553564 -0.03606613 0.01988867 0.08635324 -0.08633192 -0.06668025 -0.050329983 0.118965
00000000: f496 71bd 3edb fd3d 84d8 bebd b0dc 493d
00000010: 3871 74bd d870 84bd b6ca ae3d d091 063d
00000020: 602c cdbb d468 583d 2868 c4bc 5408 183d
00000030: 5cc3 72bd f094 213d 60aa e6bc 5ec0 dabd
00000040: 16b7 99bd 9231 e6bd 484a 9a3c 787a 493d
00000050: 0cd9 1bbd c273 9f3d 5041 263c 78d0 9ebc
00000060: 301f 77bc 4232 e33d 80f4 ad3b 1090 8fbd
00000070: 5c45 c03d c499 b2bd 508f a03d 34fb fdbd
00000080: 28f8 ecbd d04d 443c 36f0 bcbd 406c e53b
00000090: 36b5 fa3d 30d0 6b3d bc39 343d 2027 cf3b
000000a0: 70ba c83d 605e 3dbd b256 c63d 2a23 f2bd
000000b0: 7066 22bc 0896 b83d b2c2 82bd bc11 14bd
000000c0: 0421 b4bd 0051 c63d 148d 14bd 5c6e 893d
000000d0: 7851 1e3d e813 3abd 4091 d4bb b409 a83d
000000e0: e0bd c53d 14ba 13bd 90ed a23c f8d9 b03d
000000f0: cace b0bd a88f 88bd d026 4ebd eca3 f33d
