data/models/rl_aca_20250316_215336.pt (torch, 23198 bytes, 5 tensors)

fc1.weight f4 [64, 11]
0	0x3dd86f00	0.105680466
1	0x3db6a3c4	0.089179546
2	0x3dd71cf0	0.10503566
3	0x3d9357e8	0.07194501
4	0x3e8001a8	0.25001264
5	0x3d86c518	0.065805614
6	0xbe82ae58	-0.2552364
7	0xbe142c08	-0.14469922
8	0x3d2566c0	0.040381193
9	0xbe51f82e	-0.2050483
10	0xbcd1d3b0	-0.025613636
11	0xbe00dbde	-0.12583873
12	0x3e6d7aa0	0.23191309
13	0x3ded1078	0.11575407
14	0x3e8c1a74	0.27363932
15	0x3cdf0480	0.027223825
16	0xbd2dacb0	-0.042401016
17	0xbe21abbf	-0.15788172
18	0x3c0996e0	0.008397788
19	0xbde80e72	-0.1133088
20	0x3e05f998	0.13083494
21	0xbe56f9ef	-0.2099378
22	0x3e8a03f2	0.26956135
23	0x3e5a3404	0.21308905
24	0x3dacaff0	0.08431995
25	0xbe86f278	-0.26356864
26	0x3dfb16c0	0.122601986
27	0xbe41ec5c	-0.1893782
28	0xbe62713e	-0.22113511
29	0xbe3bf1bd	-0.18353935
30	0x3e77b7f4	0.24191266
31	0xbe0e4aa7	-0.13895665
32	0x3e061320	0.13093233
33	0x3cd4ede0	0.025992334
34	0xbdbdb1aa	-0.09262402
35	0xbe85b69f	-0.2611589
36	0xbd826942	-0.063677326
37	0x3d2c2c78	0.042034596
38	0x3e597740	0.21236897
39	0xbe611dba	-0.21983996
40	0x3cddece0	0.02709049
41	0xbc6c9000	-0.014438629
42	0x3de056e8	0.10954076
43	0xbd6bdb14	-0.057581976
44	0xbddcd99e	-0.10783695
45	0x3bd1a980	0.00639838
46	0x3e5f053c	0.2177934
47	0xbe8137cd	-0.25237885
48	0xbe771f09	-0.24132933
49	0x3d3c8b48	0.046031266
50	0x3e5faf60	0.21844244
51	0xbe824e1f	-0.25450227
52	0xbe1b912f	-0.15192102
53	0xbe7e683b	-0.24844448
54	0xbddc04f0	-0.10743129
55	0x3e974c72	0.2955051
56	0xbe2b519b	-0.16730349
57	0x3e816f22	0.252801
58	0x3e3eff9e	0.18652198
59	0xbd984f50	-0.07437003
60	0xbe572ef2	-0.21014002
61	0xbe58261c	-0.21108288
62	0xbd375be0	-0.044765353
63	0xbdf273ca	-0.11838491
64	0x3d3e0a98	0.04639682
65	0xbda503d4	-0.08057371
66	0x3c8d1d00	0.017225742
67	0xbd686f9c	-0.056747064
68	0xbd60a234	-0.05484219
69	0x3e88bd18	0.26706767
70	0xbd7f0b88	-0.062266856
71	0x3e14ba2c	0.14524144
72	0x3de62790	0.11238015
73	0x3e80781e	0.25091642
74	0xbe1eb815	-0.15499909
75	0x3dc0b8b4	0.09410229
76	0xbd73684c	-0.059425637
77	0x3e2bd9f4	0.16782361
78	0x3e2f56aa	0.17122903
79	0xbe92ba9d	-0.28658
80	0x3d99bcf0	0.0750674
81	0xbe0b3fea	-0.135986
82	0xbe74a606	-0.23891458
83	0xbe5cd704	-0.21566397
84	0x3e347622	0.17623189
85	0x3c96cf50	0.018409401
86	0xbd567c44	-0.052364603
87	0x3e0e9782	0.13924983
88	0x3e86469e	0.26225752
89	0x3d91d878	0.07121366
90	0x3e39888c	0.18118495
91	0x3de4cca0	0.111718416
92	0xbe93eea6	-0.28893012
93	0xbdb6f8ac	-0.08934149
94	0x3e5e0500	0.21681595
95	0xbe2135b7	-0.15743147
96	0xbe60959e	-0.21932074
97	0x3e88b454	0.2670008
98	0x3e77d44c	0.24202079
99	0xbe250457	-0.16114937
100	0x3e8fc670	0.28081083
101	0xbd744434	-0.059635356
102	0x3e6757b0	0.22592044
103	0xbe8bc038	-0.2729509
104	0x3e0770be	0.13226601
105	0xbe064d74	-0.13115484
106	0x3b996d80	0.004682243
107	0x3e05534e	0.1302006
108	0xbe6060da	-0.21911946
109	0xbe8d23c3	-0.27566347
110	0x3db79410	0.089637876
111	0x3cf91d80	0.030409575
112	0xbe5097b0	-0.20370364
113	0x3e586efc	0.21136087
114	0xbdb50f00	-0.08840752
115	0x3e334880	0.17508125
116	0x3c587080	0.013210416
117	0xbe94e1c7	-0.29078504
118	0xbe502b84	-0.203291
119	0x3c3a61c0	0.0113758445
120	0xbcce07c0	-0.02515018
121	0xbe22dca4	-0.1590448
122	0x3e137672	0.14400652
123	0xbe50834c	-0.20362586
124	0x3e6bf85c	0.2304396
125	0xbd0ec748	-0.03485802
126	0xbe8af7f1	-0.2714229
127	0x3e528c88	0.20561421
128	0x3e61a95c	0.22037262
129	0x3dfa8b2c	0.12233576
130	0xbe0a458c	-0.13503093
131	0x3e8c017c	0.27344882
132	0x3e7adad4	0.24497539
133	0xbe929c90	-0.28635073
134	0x39c19c00	0.00036928058
135	0x3e84d866	0.2594635
136	0xbd6f0920	-0.05835831
137	0x3e7f3578	0.2492274
138	0x3e6c802c	0.23095769
139	0xbe587804	-0.21139532
140	0x3e5224ac	0.20521802
141	0x3e9603c2	0.29299742
142	0xbe01a13c	-0.12659162
143	0x3e90ad38	0.28257155
144	0x3e92fbbe	0.2870769
145	0xbdcbfd12	-0.09960379
146	0x3e7537fc	0.23947138
147	0x3e585dcc	0.2112953
148	0x3e2bfdca	0.16796032
149	0xbd0897d8	-0.033347934
150	0xbdb1321e	-0.08652137
151	0xbd82677c	-0.06367394
152	0xbe206ceb	-0.15666549
153	0x3c7d6f00	0.015468359
154	0xbc301000	-0.010746002
155	0xbe241452	-0.16023377
156	0x3decc6c8	0.11561352
157	0x3e00f120	0.12591982
158	0x3e95e9c8	0.29279923
159	0x3e75faa8	0.24021399
160	0xbe41a20a	-0.18909469
161	0x3d0af890	0.033928454
162	0x3e963550	0.2933755
163	0xbe2896e9	-0.16463818
164	0xbe10195e	-0.14072177
165	0xbdcaf9f4	-0.09910956
166	0xbd672f98	-0.056441873
167	0xbd27b4a8	-0.04094377
168	0x3dc38650	0.095471025
169	0x3e56ec50	0.20988584
170	0xbe522b68	-0.2052437
171	0x3e53ced0	0.20684361
172	0x3e739864	0.23788601
173	0xbe364ecd	-0.17803498
174	0x3e95c424	0.29251206
175	0x3e96f01e	0.2948007
176	0x3e3ec38c	0.18629283
177	0xbc3d57a0	-0.011556536
178	0xbe829091	-0.2550092
179	0xbe88bcab	-0.26706442
180	0x3d87a7e4	0.066238195
181	0x3e51ca24	0.20487267
182	0x3e1227be	0.14272973
183	0x3ce98d30	0.028509706
184	0x3df73b94	0.120719105
185	0x3dbbb3a8	0.09165126
186	0x3d927988	0.071520865
187	0xbe31f817	-0.17379795
188	0xbd14b878	-0.036308736
189	0xbe856169	-0.2605088
190	0xbe6e0943	-0.2324572
191	0x3d81d3c0	0.06339216
192	0xbdfa0e7e	-0.122097954
193	0xbd20c230	-0.03924769
194	0x3e7c7250	0.24652982
195	0xbe22782e	-0.15866157
196	0xbe6505bd	-0.2236547
197	0x3e80eef2	0.251823
198	0x3e56fa88	0.20994008
199	0xbe6a1800	-0.22860718
200	0x3df78568	0.12085992
201	0x3cfad7d0	0.030620486
202	0x3e7c1c44	0.24620157
203	0xbe13c3ea	-0.14430204
204	0xbdd1af8e	-0.102385625
205	0xbe8b181f	-0.2716684
206	0xbe977323	-0.2958003
207	0x3dc8aef8	0.09798998
208	0x3e74c7a0	0.23904276
209	0x3e2aa8e4	0.16665989
210	0xbe3ead98	-0.18620908
211	0xbb702a80	-0.0036646426
212	0xbc81ccb0	-0.015844673
213	0x3e1caac6	0.1529952
214	0xbd1d4af8	-0.038401574
215	0xbe1c9990	-0.15292954
216	0xbe61c25b	-0.22046797
217	0x3e4c9954	0.19980365
218	0x3e553ec8	0.2082473
219	0x3e63958c	0.22225016
220	0x3d552ff0	0.05204767
221	0xbd857ea8	-0.065182984
222	0xbcba8340	-0.022767663
223	0x3d0a99d8	0.033838123
224	0xbc058940	-0.008150399
225	0x3e8bb88c	0.27289236
226	0x3d513230	0.051073253
227	0xbe99cb95	-0.30038133
228	0x3e79d4c8	0.24397576
229	0x3d108cb8	0.03529045
230	0xbdaaf6f8	-0.08347887
231	0xbe222676	-0.15834984
232	0x3e8356ca	0.25652152
233	0x3e31b5b4	0.1735447
234	0xbd886cbc	-0.066613644
235	0xbd65c200	-0.056093216
236	0x3e85113c	0.2598971
237	0x3d9b0d98	0.07570952
238	0xbd62d058	-0.055374473
239	0x3d595908	0.053063422
240	0xbd1fb280	-0.03898859
241	0xbe0d591d	-0.13803525
242	0xbe59fa90	-0.21286988
243	0xbd9e3f8e	-0.07726966
244	0x3e959360	0.29214
245	0x3b2fc500	0.0026820302
246	0xbe8448e4	-0.2583686
247	0x3e7ad114	0.2449382
248	0x3e5190a8	0.20465338
249	0x3dd6873c	0.10475013
250	0x3e8b96d6	0.27263516
251	0x3e583774	0.21114904
252	0xbe8fe78d	-0.28106347
253	0x3e439820	0.19101
254	0x3d3d6288	0.046236545
255	0x3e697760	0.22799444

fc1.bias f4 [64]
0	0x3e94d1fe	0.2906646
1	0xbe2e2e36	-0.17009816
2	0xbe94eda5	-0.29087558
3	0x3e497a1e	0.1967549
4	0x3dafd150	0.08584845
5	0xbe820041	-0.2539082
6	0x3e8eb244	0.2787038
7	0x3d65e8c0	0.05613017
8	0xbadb3800	-0.0016725063
9	0xbe20bd69	-0.15697254
10	0x3e8f1b82	0.27950674
11	0x3d472e48	0.04862812
12	0x3bedb400	0.0072541237
13	0x3e614974	0.22000676
14	0xbe41ee20	-0.18938494
15	0xbe7a0432	-0.24415663
16	0xbe1f3df2	-0.15550974
17	0x3e4937a6	0.19650134
18	0x3df8e990	0.121539235
19	0x3d75c7b8	0.06000492
20	0xbd92c012	-0.07165541
21	0xbe82a03d	-0.25512877
22	0xbda239b4	-0.07921162
23	0x3e7da6b4	0.24770623
24	0xbe974cfc	-0.29550922
25	0xbe99b490	-0.3002057
26	0x3e0d9f24	0.13830239
27	0x3e5eea40	0.21769047
28	0xbb2d1200	-0.0026408434
29	0xbe394fce	-0.1809685
30	0xbe38a75d	-0.18032594
31	0xbd333248	-0.043749124
32	0x3d95de84	0.07317832
33	0xbe4a29ba	-0.1974248
34	0x3e89a68a	0.26884872
35	0x3cf4d120	0.029884875
36	0xbe41b877	-0.18918024
37	0x3d4bdcc0	0.04977107
38	0x3d7455b0	0.05965203
39	0xbe5f0bf0	-0.21781898
40	0xbdd869c0	-0.10567045
41	0x3e011294	0.12604743
42	0x3e0c4a12	0.1370013
43	0x3df8e64c	0.12153301
44	0x3e26b342	0.16279319
45	0xbe39e48e	-0.18153593
46	0xbc3aed60	-0.011409134
47	0xbde3f4fa	-0.1113071
48	0xbe3f6c04	-0.18693548
49	0x3e8bed14	0.27329314
50	0x3e92fcf6	0.2870862
51	0xbe35bdc6	-0.17748174
52	0xbde52608	-0.111888945
53	0xbcd6a620	-0.026202261
54	0xbe84c91a	-0.25934678
55	0x3e2c065c	0.16799301
56	0x3c188e80	0.009311318
57	0x3e5f92d4	0.21833354
58	0x3ca3cbb0	0.019994587
59	0xbe907341	-0.28212932
60	0x3e36aa88	0.1783849
61	0x3e5e7330	0.21723628
62	0x3e57d6f4	0.21078092
63	0x3e08a174	0.1334284

fc2.weight f4 [64, 64]
0	0xbbb7f9e0	-0.005614504
1	0xbd567144	-0.052354112
2	0x3d5e4df8	0.054273576
3	0xbd40cc50	-0.047069848
4	0xbc8b26b0	-0.016986221
5	0xbd2f8a7c	-0.04285668
6	0x3d8944de	0.067025885
7	0xbbc5be80	-0.0060346723
8	0x3d50b380	0.050952435
9	0xbda0b6ac	-0.07847342
10	0xbc0cfac0	-0.008604705
11	0x3cc6bff0	0.024261445
12	0xbdf20ece	-0.1181923
13	0xbcfae798	-0.03062801
14	0xbdeb16a8	-0.11478931
15	0x3d4f63f0	0.050632417
16	0xbd91d204	-0.071201354
17	0x3d844d02	0.064600006
18	0x3d802e38	0.062588155
19	0xbd45a01c	-0.048248395
20	0x3d42cbf0	0.04755777
21	0xbca670d8	-0.02031748
22	0x3dbd5a6e	0.09245764
23	0x3d9c366c	0.07627568
24	0x3b651b40	0.003495887
25	0x3d09db30	0.0336563
26	0x3dc8df30	0.09808195
27	0x3d9e5a14	0.07732025
28	0xbdaec900	-0.085344315
29	0xbc040180	-0.008056998
30	0x3db94f24	0.09048298
31	0x3ded20fe	0.115785584
32	0xbce0d488	-0.027445093
33	0x3cb78950	0.022404343
34	0x3d854d3e	0.065088734
35	0x3d6c14c8	0.057637006
36	0x3d5cf674	0.053945974
37	0x3de0e90c	0.1098195
38	0xbdd00cf6	-0.10158722
39	0x3df6b2c8	0.120458186
40	0xbd12d108	-0.03584388
41	0x3d70522c	0.058672115
42	0xbd461514	-0.048359945
43	0xbd9b56f6	-0.07584946
44	0xbd0c4ab0	-0.034250915
45	0x3dfe55ce	0.1241871
46	0xbdd86394	-0.10565868
47	0xbd51af1c	-0.051192388
48	0x3cfc1a10	0.030774146
49	0xbdd9601c	-0.106140345
50	0x3da28e08	0.079372466
51	0xbd9146f8	-0.07093614
52	0xbd93128c	-0.07181272
53	0xbb2ca580	-0.0026343763
54	0xbdd729d8	-0.10506028
55	0x3d8f049c	0.06983301
56	0x3d3d15c4	0.046163335
57	0xbda29d30	-0.079401374
58	0xbd8882c4	-0.066655666
59	0xbdb19796	-0.08671491
60	0x3db594ea	0.08866294
61	0x3d1b8bc0	0.037975073
62	0xbd119dfc	-0.035551056
63	0xbdb38006	-0.08764653
64	0x3d93ebe6	0.072227284
65	0xbc95bc80	-0.01827836
66	0xbba860c0	-0.0051384866
67	0x3d92867e	0.071545586
68	0x3c97b090	0.018516809
69	0x3df41324	0.11917713
70	0xbd7580ec	-0.059937403
71	0xbdf63cf0	-0.12023342
72	0xbdf455e2	-0.11930443
73	0xbd454bb0	-0.048167884
74	0x3dd576ea	0.10423072
75	0x3de32dbc	0.110927075
76	0x3bdac140	0.006675869
77	0xbdb2bd2e	-0.087274894
78	0xbdf94b74	-0.12172595
79	0xbd7671b0	-0.060167015
80	0x3d1b3bb8	0.03789875
81	0x3d4e7e74	0.050413564
82	0x3deabb28	0.114614785
83	0x3da444b8	0.080209196
84	0xbd7ed1d4	-0.062211826
85	0x3d9afcd2	0.07567753
86	0xbd268230	-0.0406515
87	0xbd4a19b0	-0.049340904
88	0xbdc8352c	-0.09775767
89	0xbd272944	-0.04081084
90	0xbd87aaf8	-0.066244066
91	0x3d09de50	0.03365928
92	0x3dab7fbe	0.08373974
93	0xbdcd3fd4	-0.1002194
94	0xbdb1d536	-0.08683245
95	0xbd6191ec	-0.055070803
96	0xbc65ea60	-0.01403293
97	0x3d5ce1b8	0.0539262
98	0x3d379ee0	0.04482925
99	0xbde45d24	-0.11150578
100	0x3da7a468	0.08185655
101	0x3d3f8324	0.046755925
102	0xbd0da9ac	-0.03458564
103	0xbd93b9bc	-0.072131604
104	0xbd8d31e8	-0.068942845
105	0xbcdb4f80	-0.026771307
106	0xbd48a198	-0.048982233
107	0x3ce71588	0.02820851
108	0x3d11ad00	0.035565376
109	0x3d09b844	0.033622995
110	0xbdf772f8	-0.120824754
111	0x3dc6f66a	0.097149685
112	0x3d391f28	0.04519573
113	0x3d0699c0	0.03286147
114	0xbc8e96a8	-0.017405823
115	0xbd9c04ee	-0.07618128
116	0x3da86720	0.082227945
117	0x3bfb2ac0	0.0076650083
118	0xbc176fa0	-0.009242922
119	0x3dcae2e6	0.09906559
120	0xbd3c9ee0	-0.046049953
121	0x3d128ed4	0.035780743
122	0x3d807f82	0.0627432
123	0xbd03ee8c	-0.032209918
124	0x3be48e60	0.0069749802
125	0xbd6ca430	-0.05777377
126	0xbd88199e	-0.06645511
127	0xbc35bbb0	-0.0110921115
128	0x3dbc23d0	0.09186518
129	0x3d00ecd8	0.03147587
130	0x3dea9da0	0.11455846
131	0x3b8903a0	0.0041813403
132	0x3dd92f0a	0.10604675
133	0x3d844c3e	0.064598545
134	0xbde0bc98	-0.109734714
135	0xbcec8238	-0.028870687
136	0xbd90d5da	-0.07072039
137	0xbcb12ef0	-0.021628827
138	0xbd835f44	-0.06414655
139	0xbc5b46b0	-0.013383552
140	0xbc559410	-0.013035789
141	0xbd8abfbc	-0.06774852
142	0xbddb35f4	-0.1070365
143	0xbc11e9b0	-0.008905813
144	0xbdcbf60e	-0.099590406
145	0x3d8a78c2	0.06761314
146	0x3b99e1c0	0.004696101
147	0x3d8d2124	0.06891087
148	0x3de37ff8	0.111083925
149	0xbdc11d30	-0.09429395
150	0xbd203200	-0.039110184
151	0xbd3f7344	-0.046740785
152	0xbd7a7134	-0.061143115
153	0xbd5cfc9c	-0.053951845
154	0x3b7db1c0	0.0038710684
155	0x3de50a6e	0.1118363
156	0x3ca1ea78	0.019765124
157	0x3de3547e	0.111001
158	0xbdcb7904	-0.09935191
159	0xbcc05d50	-0.023481995
160	0xbda6e012	-0.08148207
161	0x3dff4fbe	0.124663815
162	0x3d5217c4	0.051292196
163	0x3b81db80	0.003962934
164	0xbdd046fa	-0.10169788
165	0xbcee2030	-0.029068083
166	0xbdf05470	-0.11734855
167	0xbdf6ec62	-0.12056805
168	0xbd864598	-0.06556243
169	0xbd2c1f34	-0.042021945
170	0xbdbafc7c	-0.09130189
171	0xbd949f4c	-0.07256946
172	0x3df7af50	0.12093985
173	0x3d966d92	0.07345118
174	0x3d30ed0c	0.043194816
175	0x3de95a64	0.11394194
176	0xbdbe8468	-0.09302598
177	0xbdbb94e8	-0.09159261
178	0xbd20a280	-0.039217472
179	0xbd9ef55a	-0.07761641
180	0x3da5b6d6	0.08091514
181	0x3db996e6	0.09061985
182	0x3cca0e90	0.024665147
183	0x3dd8c7d8	0.10584992
184	0x3dd5c576	0.10438053
185	0xbdfd8b12	-0.12380041
186	0xbd5c2784	-0.053748623
187	0xba070400	-0.00051504374
188	0x3dd4e6b4	0.10395566
189	0xbd21fa40	-0.039545298
190	0x3cdf7b00	0.02728033
191	0x3bb4ed60	0.0055214614
192	0xbda7fa14	-0.082019955
193	0xbdd320b4	-0.10308972
194	0xbcd24928	-0.02566965
195	0x3c9bd220	0.019021094
196	0x3dd8fa46	0.10594611
197	0xbdecce96	-0.11562841
198	0x3d21f89c	0.039543733
199	0x3dfd40fc	0.123659104
200	0x3dc0bac6	0.09410624
201	0xbdcf15f6	-0.101116106
202	0x3dec7766	0.11546211
203	0x3ad87c00	0.0016516447
204	0x3dcda28a	0.100407675
205	0x3dbd1bb4	0.092337996
206	0x3d27cf40	0.040969133
207	0xbc8d77e8	-0.01726909
208	0xbd9123de	-0.07086919
209	0x3c3fc470	0.011704549
210	0xbdc1b574	-0.094584376
211	0x3d825be8	0.06365186
212	0xbb943f00	-0.0045241117
213	0xbd5f831c	-0.054568395
214	0x3c412f50	0.011791065
215	0x3c1cfe10	0.009582058
216	0xbddcec42	-0.1078725
217	0x3c876df0	0.016531914
218	0x3d87b6ea	0.06626685
219	0x3da16c5e	0.078819975
220	0x3cb2dac0	0.021832824
221	0xbd5a5dc0	-0.053312063
222	0x3d98113a	0.07425161
223	0xbd708564	-0.05872096
224	0xbcbbead8	-0.02293913
225	0xbd5f1674	-0.054464772
226	0xbd090bb0	-0.03345841
227	0x3d8913b8	0.06693214
228	0x3d3e5418	0.046466917
229	0xbd5ecb38	-0.054393023
230	0xbd56beb0	-0.052427948
231	0xbd09da5c	-0.03365551
232	0x3ca12f48	0.019675866
233	0xbd66da24	-0.05636038
234	0xbd26a1a8	-0.04068151
235	0x3c9a91f0	0.018868417
236	0xbb6de640	-0.003630057
237	0x3bafada0	0.005361274
238	0xbd88a46a	-0.066719845
239	0x3da72f4a	0.081633165
240	0x3dbea6f8	0.093091905
241	0x3d88cefe	0.066801056
242	0xbd026b28	-0.031840473
243	0xbcd1ba30	-0.025601476
244	0xbc957688	-0.018244997
245	0xbd9ab758	-0.07554501
246	0xbcb77d20	-0.022398531
247	0xbdd3bbc2	-0.10338546
248	0xbdd79290	-0.105260015
249	0xbdc556cc	-0.09635696
250	0xbd23c164	-0.039979354
251	0x3dd9d6bc	0.106366605
252	0x3d02f390	0.03197056
253	0x3dc62c84	0.096764594
254	0xbda36ca0	-0.07979703
255	0x3ceeeea8	0.029166535

fc2.bias f4 [64]
0	0x3db41d28	0.087946236
1	0xbd12319c	-0.035691842
2	0x3da0cd6e	0.078516826
3	0xbca3e1c8	-0.020005122
4	0xbdc4b74a	-0.09605272
5	0xbcd58ff0	-0.026069611
6	0xbd5686d8	-0.05237469
7	0xbdc82296	-0.09772222
8	0x3d61d404	0.055133834
9	0x3bd77680	0.0065754056
10	0x3de7861a	0.11304875
11	0xbd8b7e10	-0.06811154
12	0xbde8c93e	-0.11366509
13	0x3d838c96	0.06423299
14	0xbdad2928	-0.084551156
15	0x3c3003f0	0.010743126
16	0xbdaf9f28	-0.085752785
17	0x3da2e3f0	0.07953632
18	0x3dfe4954	0.1241633
19	0xbd29b4f4	-0.041432336
20	0x3dcb8956	0.09938304
21	0xbd1b4c24	-0.03791441
22	0xbdf7c7e4	-0.12098673
23	0x3df1414e	0.11780034
24	0x3d729ed0	0.059233487
25	0xbc192000	-0.009346008
26	0x3dad643a	0.08466382
27	0x3d28d07c	0.04121445
28	0xbd4cffa8	-0.0500485
29	0xbda3c5c6	-0.07996707
30	0xbd6d4a68	-0.057932287
31	0xbdedb072	-0.1160592
32	0x3dfd7396	0.12375562
33	0x3ce99560	0.02851361
34	0xbd2881d4	-0.04113944
35	0x3c1d51a0	0.00960198
36	0xbcc02c00	-0.02345848
37	0x3dee8da8	0.116481125
38	0xbd9e8c24	-0.077415735
39	0xbda92640	-0.08259249
40	0xbc6a26c0	-0.014291465
41	0x3d0246a8	0.031805664
42	0x3bbdb5c0	0.0057894886
43	0x3cf650d0	0.030067831
44	0xbd689d68	-0.05679074
45	0x3d8190dc	0.06326458
46	0x3d28e628	0.04123512
47	0xbd994cd2	-0.074853554
48	0x3c45c1a0	0.01207009
49	0x3dcedb68	0.10100442
50	0x3dc71bca	0.09722097
51	0x3daf04a4	0.08545807
52	0xbd915bda	-0.070975974
53	0x3d360300	0.044436455
54	0x3ac70a00	0.0015185475
55	0xbd1a4058	-0.03765902
56	0xbdd749e4	-0.105121404
57	0x3cd6c608	0.026217476
58	0xbcc5c400	-0.024141312
59	0x3dfb9dbc	0.12285945
60	0x3d152518	0.03641233
61	0xbdd59acc	-0.10429916
62	0xbdd7be88	-0.10534388
63	0xbd8ebbc2	-0.06969406

fc3.weight f4 [1, 64]
0	0x3d1dd734	0.03853531
1	0xbd4b5e58	-0.04965052
2	0xbd99f108	-0.07516676
3	0xbd44221c	-0.04788409
4	0xbdb2af76	-0.08724873
5	0xbdd28156	-0.10278575
6	0xba18cf00	-0.0005829185
7	0x3d837922	0.064195886
8	0x3da4023e	0.0800824
9	0x3de4a9f4	0.111652285
10	0x3d944988	0.072405875
11	0xbb5fbe00	-0.0034140348
12	0x3cb63970	0.022244185
13	0xbd2e4bc8	-0.04255274
14	0xbd80b0be	-0.06283711
15	0xbd6809d8	-0.056650013
16	0x3d1d2734	0.038367465
17	0xbd95418a	-0.07287891
18	0xbc1754a0	-0.009236485
19	0xbdf7cc16	-0.12099473
20	0xbdd3a97e	-0.103350624
21	0x3ce5a128	0.028030947
22	0x3d45278c	0.048133418
23	0xbd8f7aae	-0.07005821
24	0x3dabbbf8	0.083854616
25	0xbcea5f58	-0.028609917
26	0xbd8b8c6c	-0.06813893
27	0x3d3daec4	0.046309248
28	0xbc878ad8	-0.016545698
29	0xbca0a578	-0.019610152
30	0xbd878bb6	-0.066184446
31	0xbc5cff30	-0.013488576
32	0xbd203f08	-0.03912261
33	0xbd9758d8	-0.073899925
34	0xbdc8d2fa	-0.098058656
35	0xbd6ed0b8	-0.05830452
36	0xbd713cc8	-0.058895856
37	0xbd8b7f14	-0.068113476
38	0xbc1cc080	-0.00956738
39	0x3dd8ce6a	0.10586245
40	0xbdd4b66e	-0.10386358
41	0x3cc05be8	0.023481324
42	0xbd5452f4	-0.051836923
43	0xbde58db2	-0.11208667
44	0xbbfbd780	-0.0076856017
45	0x3db621ea	0.08893187
46	0xbcab73e8	-0.020929292
47	0x3dc7fcac	0.0976499
48	0x3c1c0b10	0.009524122
49	0x3df3daac	0.11906943
50	0x3d98c89c	0.07460138
51	0x37fd2000	3.0174851e-05
52	0x3dc301aa	0.09521802
53	0x3d3a21c0	0.045442343
54	0xbcd36d78	-0.025809035
55	0xbca89cb8	-0.020582542
56	0x3dc70958	0.09718579
57	0x3b370b00	0.002793014
58	0x3d4a32c8	0.049364835
59	0x3dbedf5c	0.09319946
60	0x3c5410c0	0.012943447
61	0xbdae5ba6	-0.08513574
62	0x3de12bf6	0.10994713
63	0x3d90e2be	0.07074498
