data/models/rl_aca_20250316_214800.pt (torch, 23198 bytes, 5 tensors)

fc1.weight f4 [64, 11]
00000000: 76ef 92be a4da 593e 20aa 1b3c c874 8b3e
00000010: e8d4 48be 40ed a83b 8d5f 0abe d432 6d3e
00000020: e2f7 7dbe f01e 5d3d 9431 3c3e bd3c 92be
00000030: c085 65bc 389b 633d 80d8 c5bc 5ce7 70bd
00000040: ac0c 8bbd 5a01 68be 6af1 993e ab28 83be
00000050: 407d b13b a674 2dbe 25fe 80be d459 ad3d
00000060: 12fb 3cbe 6031 82be 0431 e73d 7eca 403e
00000070: e6e8 273e 001a 4cba 687a 833e 2cb7 07be
00000080: e74b 7fbe f2ec 54be 26b0 803e 5980 85be
00000090: 176a 4fbe 4745 67be 982b 1b3d f4ed 49be
000000a0: 18c2 673e 40b0 783e ae7f 063e 3c5a 003e
000000b0: 6cc7 213e 22dc 923e dc99 5c3e 5815 29bd
000000c0: e0fa 22be a2fd 59be ee55 51be 64d6 373e
000000d0: 2985 6cbe 9cb2 8ebe d89d 04bd 2800 823e
000000e0: 4034 bebc 4856 053d 9a54 39be 444c 4fbe
000000f0: b463 ecbd 6af6 2ebe dbfa 39be a0c3 973c
00000100: 1c18 ba3d bdfb 80be bc19 90be 84d2 703e
00000110: d8a7 223d bfc0 86be 3c6e 66be 8649 80bd
00000120: e6e0 bbbd bc1d 7d3e 3837 2c3d 64a3 123e
00000130: 4045 a5bc 0a8e cbbd a2a2 8d3e 0a55 2d3e
00000140: 008d ce3d 4819 6f3d 10fa 2d3e b30b 08be
00000150: e859 fe3d 188b 7ebe e2ea 42be b6b0 9abd
00000160: d2de 2f3e bad1 b9bd 6431 7d3e c01b 92be
00000170: ce29 883e 5aa4 49be 602e 68be 383b 0a3d
00000180: 2c58 943d 9664 5ebe 80cc 1fbb a289 a6bd
00000190: cfcd 26be 1c34 523e 4624 b3bd e8ff 62bd
000001a0: 0484 7e3e 1a15 103e 4c10 a33d a046 2a3e
000001b0: 0c6f 1d3e 4cb2 2b3e 0031 8c3e d6ba cfbd
000001c0: 5a05 8dbd 4c6e 9f3d 52ca c2bd e8bc 19bd
000001d0: 4a6d 0bbe 9f57 1abe 60fe e2bd 90b1 d03d
000001e0: 54f0 883d 2067 853c 0fc3 69be 1513 98be
000001f0: 68be 913e b0df cb3d 6651 8abe eb24 81be
00000200: 7305 90be 991d 95be 5005 aa3d d838 3e3e
00000210: f1d9 08be 80e6 d4bb a816 f1bd a08f ad3c
00000220: 2ea1 78be 3494 b73d 9c0f 603e 6471 adbd
00000230: 1567 02be b4a8 64be 50ca c93c de79 7dbe
00000240: 3480 58be bab6 233e a029 ecbd 9eff 853e
00000250: 44d9 363e c402 7cbd b99c 0bbe 3663 d8bd
00000260: 0826 58be 9010 e73d 32f3 883e 7812 723e
00000270: dfeb 41be 30bb acbc 0173 2fbe a8f8 173e
00000280: 7432 333e eebd 67be 4078 8bbe 30e7 893e
00000290: dc74 93bd 4839 873e 5e2b afbd f847 19be
000002a0: 2682 303e 781a 753e 80e8 1bbe d8c7 9f3d
000002b0: 42dc 953e c6c7 8ebe defd 803e d867 083e
000002c0: 7cb1 95be bc7a b5bd 368c d6bd c005 6ebc
000002d0: ee8f 7fbe 189d 813e cc50 cdbd aae8 1ebe
000002e0: 5cdb 6cbd 60a7 a8bc 9683 903e 284d 543e
000002f0: e886 373d ccc8 ef3d b03f 923d 46ea 6ebe
00000300: 8668 3f3e 5dea 82be 60e1 e13c 9a7c 41be
00000310: 7023 5fbe b0f3 3f3d f4d8 dabd 2039 943e
00000320: 92b9 253e c055 4cbc 245f 6ebd 2cd6 c0bd
00000330: 7037 c4bc f91f 6bbe 366b fabd 00c1 6abb
00000340: 582f 5b3e f437 7d3e 2075 09be c23e ddbd
00000350: c0ff 7abe 827d 4a3e 1812 3bbd e876 ecbd
00000360: 8ef9 7fbe a439 8b3e c481 67be 80d9 0e3c
00000370: 00ba 273d 2c8b 4d3e 202a 253e 1c79 dc3d
00000380: 9abd 203e 807b 6d3b ccc5 db3d 6072 94bd
00000390: 0c5e 75bd cb59 2bbe cd59 1bbe 82e3 043e
000003a0: 7401 88bd 8875 84bd 5edf 6abe ca0a 0bbe
000003b0: 203b 293d 940b 5c3e 94f5 563e 7840 2a3d
000003c0: f0e0 653d d812 193e d6fa 973e 50f6 663e
000003d0: d472 7bbe 487e 9a3d 9af2 8c3e 1433 debd
000003e0: d572 95be 8038 493b 3c40 763e 7865 3c3e
000003f0: 542f 40be 58c9 533e 08ba 83be 2e23 75be
-0.2869832 0.21274811 0.00950101 0.27237535 -0.19612467 0.0051552355 -0.13513012 0.2316392
-0.24801591 0.053984582 0.18378288 -0.28561965 -0.014008939 0.05556795 -0.024151087 -0.05881439
-0.06789526 -0.22656766 0.30066997 -0.25616965 0.0054165423 -0.16939029 -0.25193897 0.08464399
-0.1845515 -0.25428295 0.11288646 0.18827245 0.16397437 -0.0007785857 0.25679326 -0.13253468
-0.24931298 -0.20793512 0.2513439 -0.26074484 -0.20255314 -0.22585021 0.03788337 -0.19719678
0.22632635 0.24285984 0.13134643 0.12534422 0.1579873 0.28683573 0.21543068 -0.04128012
-0.15916014 -0.2128816 -0.20442936 0.17952877 -0.23097672 -0.27870643 -0.032377094 0.25390744
-0.023218274 0.032552987 -0.18098679 -0.20243937 -0.11542454 -0.17086187 -0.181621 0.018525898
0.0908663 -0.2519206 -0.28144634 0.23517805 0.03971085 -0.2631893 -0.22502989 -0.062640235
-0.09173755 0.24718374 0.04204485 0.14320141 -0.020174623 -0.09939201 0.2766314 0.16926971
0.10085487 0.05837372 0.16989923 -0.13285713 0.12419492 -0.24857748 -0.19034913 -0.07553236
0.17174843 -0.09073205 0.24725872 -0.28536797 0.26594394 -0.19691601 -0.2267394 0.03374788
0.0724338 -0.21718058 -0.0024383366 -0.0813172 -0.16289447 0.2052769 -0.08747153 -0.055419832
0.24855047 0.1407055 0.07962093 0.16628504 0.15374392 0.16767234 0.27381134 -0.10143058
-0.06885786 0.07784709 -0.09511246 -0.03753367 -0.13615909 -0.15072487 -0.110836744 0.10190117
0.06686464 0.016284525 -0.22828315 -0.29702058 0.2846558 0.099547744 -0.27015227 -0.2522348
-0.28129157 -0.29124144 0.083017945 0.18576372 -0.13364388 -0.0064972043 -0.117718995 0.02118665
-0.24280235 0.089638144 0.21880955 -0.08468893 -0.12734635 -0.2232998 0.024632603 -0.2475352
-0.21142656 0.15987673 -0.11531377 0.26171583 0.17856318 -0.061526075 -0.13634004 -0.10565798
-0.21108258 0.11282456 0.26748043 0.23639858 -0.18937634 -0.021085352 -0.17133714 0.14840949
0.17499715 -0.22631046 -0.2724018 0.26934195 -0.072000235 0.2641089 -0.085531935 -0.1496886
0.17237148 0.23935878 -0.1522541 0.07801789 0.29269606 -0.2788679 0.25193685 0.13320863
-0.29236972 -0.088613 -0.10475962 -0.014527738 -0.24957249 0.25315166 -0.100251764 -0.15518442
-0.057826385 -0.020587623 0.28225392 0.20732558 0.04480639 0.11708221 0.07141054 -0.23331556
0.18692216 -0.2556943 0.027573287 -0.18895188 -0.21790862 0.046863258 -0.10685912 0.28949833
0.1618407 -0.012471616 -0.058196202 -0.0941585 -0.023952216 -0.22961415 -0.1222748 -0.0035820603
0.21404779 0.24728376 -0.13423586 -0.10802986 -0.24511623 0.1977444 -0.045671552 -0.11546117
-0.24997541 0.27192414 -0.22608095 0.008718848 0.040948868 0.20072621 0.1612935 0.10765287
0.15697327 0.0036236942 0.10731086 -0.07248378 -0.059904143 -0.16733472 -0.15170975 0.12977412
-0.06640902 -0.0646773 -0.2293677 -0.13578334 0.04131615 0.21488792 0.20992118 0.04156539
0.05612272 0.14948595 0.2968356 0.22554898 -0.24555522 0.075436175 0.2752884 -0.10849586
-0.29189172 0.0030703843 0.24047941 0.18398082 -0.18768054 0.20682275 -0.25727868 -0.23939201

fc1.bias f4 [64]
00000000: b8cd cc3d e041 45bd 9027 af3c 98b9 683d
00000010: cc71 f6bd 6c8f 753e 7cb3 4b3e e4e8 bc3d
00000020: 42f5 813e e6cb 2f3e 8872 4cbd e48c 4b3e
00000030: badf 16be f6a1 3cbe 729a 453e ec1e f03d
00000040: ec42 9dbd 4055 62be 2452 2c3e 287c 4f3e
00000050: 50e4 ffbd f0f8 bbbc ccdf e43d 00bf 943b
00000060: 18bf 9f3d a0c4 a4bc e0d5 94bd f842 0e3e
00000070: 260f 293e 629b 893e 7a8a 873e d20f bbbd
00000080: b0c5 4ebe 48ad 43be 126a 29be 3a71 93be
00000090: 8056 943e 1649 dfbd a188 25be a441 123e
000000a0: 26db 163e ecea 7d3e 0298 d6bd 8446 553e
000000b0: 9b7b 83be 94fd c13d 34e1 373e 0406 b7bd
000000c0: 488b 91bd e943 6bbe 18d5 54bd 9cda 763e
000000d0: b433 833e 6db2 2ebe 94a4 6d3e f0af d93c
000000e0: cc81 343e 1584 27be 0045 b0bd 3afb 103e
000000f0: 84db 773e 56d2 6fbe d0a2 aa3d 943f 9e3d
0.10000175 -0.048158526 0.02138117 0.05681762 -0.12033424 0.23980492 0.19892687 0.09224108
0.2538243 0.17167625 -0.049913913 0.19877964 -0.14733782 -0.18421158 0.19297197 0.11724648
-0.0767878 -0.22102833 0.16828209 0.20262206 -0.12494719 -0.022945851 0.11175498 0.0045393705
0.0780012 -0.02011329 -0.07267356 0.13892734 0.16509685 0.2687636 0.26472837 -0.09133877
-0.201926 -0.1910907 -0.16544369 -0.28797323 0.28972244 -0.10902612 -0.16165401 0.14282852
0.14732036 0.24796647 -0.10478212 0.20827681 -0.2568024 0.09472194 0.17957002 -0.08936694
-0.07106644 -0.22975124 -0.051961035 0.2410683 0.25625384 -0.17060252 0.23207313 0.026573151
0.17627639 -0.16358979 -0.08606911 0.14158335 0.24204832 -0.2342008 0.08331835 0.0772697

fc2.weight f4 [64, 64]
00000000: 0256 97bd a457 e9bd 6096 ff3b 703d b53d
00000010: 68c8 0dbd c2a8 d1bd 0c96 44bd 2cc9 96bd
00000020: 6e35 873d 744b 8dbd 3089 1fbc 6cd3 e33d
00000030: 702a 89bc 20b3 e13c 0417 c13d 3c1d de3d
00000040: 54cf 563d 68b9 a83d 44bd b2bd 18b7 a03c
00000050: 48e7 143d e855 9ebc 68da a7bc 1636 8dbd
00000060: 520d ee3d 2015 093c a83a 2abd 48b0 16bd
00000070: 1cab f2bd e0ba c13c b034 013c d40c 473d
00000080: ac66 823d d85a b6bc b42c b3bd 80b1 ca3b
00000090: 4cab eb3d 04ac c1bd d0f4 46bc 00ab 5e3c
000000a0: f00b 81bc 9691 f3bd e0cf b53b 989b c1bd
000000b0: 6080 d3bb f06b cabd 7215 e9bd 8039 fc3b
000000c0: 2246 c33d 38f1 eb3c f67f c53d d2b3 94bd
000000d0: c8b6 ae3d 1266 c33d ae39 e03d 424e c9bd
000000e0: 381a f7bd 22d6 cabd 4aae f53d 5880 b33d
000000f0: e8be 80bd 2610 e83d 103d 1b3c 6c22 43bd
00000100: b442 41bd c4a2 4fbd c4b7 9d3d cc38 4abd
00000110: 00c9 163a d045 5d3c 2e38 de3d 1c75 913d
00000120: 9602 ae3d c0b2 6dbd c245 dcbd e050 1cbc
00000130: 7a3a fb3d 3802 5bbd 848d 443d 10ce 123d
00000140: 4ce0 773d 20d9 33bd 2ad1 a3bd 0451 5f3d
00000150: f818 0f3d 60c8 db3b e61e 8cbd 204a 2f3d
00000160: 6ed4 8e3d 7814 84bc f063 67bd d8ac 96bd
00000170: fc44 c8bd c021 433c d263 b1bd 40d2 3cbd
00000180: d486 253d 6008 b5bd 520f ccbd 10cf 9fbd
00000190: f0a2 5c3c 023f 8b3d 58fa d5bd 1856 56bd
000001a0: ce70 90bd 5459 563d 20fa 78bd 64a7 573d
000001b0: 406f 543c b006 98bc 0c8b 2b3d 30b5 76bd
000001c0: 82e7 c83d 7c97 efbd fca1 db3d 10cc bcbc
000001d0: b4c1 93bd 3e56 843d 8c09 e43d a05e 123c
000001e0: 54ef bd3d 5686 aa3d de8c a73d 7474 393d
000001f0: 0493 52bd 6863 a93d 6cbb ec3d e002 c13b
00000200: 9e1f 9abd a0c9 d93d 26e9 a13d dc2e 7e3d
00000210: fc1a 64bd 0631 c2bd 6682 93bd 147f 3d3d
00000220: 0890 a73d 8439 c73d d019 2abc a047 bf3c
00000230: 145d 55bd 2813 5fbd 70e8 693c 3075 af3c
00000240: 5c38 423d dc08 64bd b0f9 7f3c b8d6 88bd
00000250: be37 c7bd a4e2 e83d 80da f83d 646a e33d
00000260: 1288 cd3d 92a9 ed3d e896 94bc c8c5 5a3d
00000270: 842a 93bd 7693 cb3d 50c3 693d bc69 893d
00000280: b069 e0bd 3cad ad3d 38a4 da3c bc9f f83d
00000290: 007d 0bbb 7ec4 d13d d08a 5cbc 88ef acbc
000002a0: 4cb4 a0bd 60ff dfbb 5ac7 ee3d 6e36 9bbd
000002b0: b8e8 8a3d c2c5 8dbd 5225 e0bd c0d8 a9bb
000002c0: ecd6 f63d 727b 8bbd a8d1 023d 1423 bb3d
000002d0: 6805 b23c cc3e 1abd 1c7b 8a3d 7e51 afbd
000002e0: 9ec9 a63d 0029 d9bc 3e7d d0bd a273 bc3d
000002f0: 72a8 e63d 8899 863d 3851 22bd 2c86 9fbd
00000300: ea58 b3bd 7c70 68bd 4eb5 ccbd 5079 b1bc
00000310: 7057 f13d b4cf 2ebd ac89 293d 0c44 883d
00000320: fa70 8ebd 3a20 d7bd 2edc 923d ce07 f4bd
00000330: 0cb4 c73d e018 cabd 20bb bb3d a04c 783c
00000340: 6275 dabd d02c 2a3c 84c7 4dbd c0a1 3abd
00000350: 9e97 ff3d 261a b53d e05f e8bc f805 52bd
00000360: 82ad 813d 0efd 86bd 0855 483d 6a50 9d3d
00000370: 8033 963d 7607 af3d 8098 e43a 7266 bb3d
00000380: 68ea 98bd 6cf9 bb3d 103a cf3d e206 a7bd
00000390: 244b 68bd c067 65bb 802b 1fbb 48d8 f93d
000003a0: d8cc 02bd f0b7 6dbc 38cb c3bc 0088 82bd
000003b0: 5c43 5fbd 9834 9bbc 60f3 ebbb 8631 9e3d
000003c0: 7044 d73c 3a75 d7bd 04d1 393d 8c42 f73d
000003d0: 58c2 9ebd c02e 743b d8c2 e5bd c819 c3bc
000003e0: a8ad eabd 9c43 a0bd a0ba f5bb 8e6a f43d
000003f0: a8c2 4cbd 68d8 edbd fed9 9cbd 2c1a 3bbd
-0.073894516 -0.11393669 0.0077999085 0.08849609 -0.03461495 -0.10237266 -0.04799466 -0.07362589
0.06601988 -0.06899157 -0.009737298 0.1112431 -0.016743869 0.027551234 0.09428218 0.1084542
0.052443817 0.082384884 -0.08727506 0.019618556 0.03635338 -0.019328073 -0.020489886 -0.06895082
0.116236344 0.008366853 -0.041559845 -0.03678921 -0.11849043 0.02364868 0.007886097 0.04859622
0.06367239 -0.022260115 -0.08748761 0.0061857104 0.11507282 -0.094566375 -0.012143329 0.013590574
-0.015752763 -0.11893003 0.0055484623 -0.09453505 -0.0064545125 -0.09883869 -0.113810435 0.007697284
0.09534861 0.028801546 0.09643547 -0.072608605 0.085309565 0.09540953 0.109485015 -0.098293796
-0.12065548 -0.09904124 0.119961336 0.08764714 -0.062864125 0.11331205 0.009475008 -0.04764025
-0.047182754 -0.050692335 0.07701066 -0.049370572 0.0005751997 0.013505414 0.10850559 0.07102415
0.08496587 -0.058031797 -0.10755493 -0.0095407665 0.12267013 -0.053468913 0.047986522 0.035841048
0.06051664 -0.04390824 -0.07998879 0.054520622 0.03493592 0.006707236 -0.06841831 0.0427953
0.069741115 -0.016123042 -0.056491792 -0.07357186 -0.09778783 0.011909902 -0.08661617 -0.046098948
0.040411785 -0.08839488 -0.099638596 -0.07803166 0.013466582 0.06799127 -0.1044814 -0.0523282
-0.07052766 0.052331284 -0.060785413 0.05264987 0.012965977 -0.018557876 0.041880652 -0.060231388
0.098097816 -0.11698815 0.107242554 -0.023046523 -0.0721468 0.06461762 0.111346334 0.008933693
0.09274164 0.08326404 0.08181165 0.045277074 -0.051409736 0.08270913 0.115591854 0.0058902353
-0.07525562 0.1063416 0.07905798 0.062056407 -0.055689797 -0.09482007 -0.07202606 0.04626377
0.08181769 0.09727767 -0.010382131 0.023349583 -0.05209072 -0.05446163 0.014276609 0.021418184
0.04741703 -0.05567251 0.015623495 -0.06681579 -0.09727429 0.11371353 0.121510506 0.11104277
0.10035719 0.116046086 -0.018138364 0.053411275 -0.071858436 0.09940235 0.05707103 0.0670962
-0.10957658 0.084803075 0.026689634 0.12139842 -0.0021284223 0.10242556 -0.01346083 -0.021110311
-0.07846889 -0.006835863 0.11659117 -0.07578741 0.06782669 -0.06922485 -0.10944618 -0.0051833093
0.12052712 -0.06810655 0.031938225 0.0913755 0.021731094 -0.037657544 0.067617625 -0.08560465
0.08143924 -0.026508808 -0.10180138 0.09201743 0.11262597 0.065722525 -0.039628237 -0.07789263
-0.087571934 -0.0567479 -0.099955186 -0.021664292 0.117842555 -0.04267855 0.04139106 0.06653604
-0.06955142 -0.105041936 0.07170902 -0.11915551 0.09751138 -0.09868026 0.09166551 0.015154988
-0.1066692 0.010386661 -0.0502391 -0.045564413 0.124800906 0.08842878 -0.02836603 -0.051275223
0.06331922 -0.06591235 0.048909217 0.076813534 0.073340416 0.08546345 0.0017440468 0.09150399
-0.074665844 0.09178433 0.101184964 -0.0815561 -0.056712285 -0.0035004467 -0.0024287403 0.121994555
-0.031933635 -0.014509186 -0.023900613 -0.06373596 -0.0545076 -0.018945977 -0.0072006434 0.077242896
0.02627775 -0.10520406 0.04536535 0.1207324 -0.07751912 0.003725931 -0.11218804 -0.023816004
-0.114589036 -0.078253955 -0.007499054 0.11934386 -0.049990326 -0.11613542 -0.07658766 -0.045679256

fc2.bias f4 [64]
00000000: 98b1 7dbd 9eef c1bd f88d cabd 228a b73d
00000010: 40c9 eabd 5cbb f5bd 9814 20bd 7057 d23c
00000020: f046 1bbd a0e4 e6bd 2ae9 e7bd 800f 9e3b
00000030: 94fb 133d 64c8 02bd 203f ec3b 240e 973d
00000040: 88fc c83c c28b b7bd 8cc6 f9bd ca6a f43d
00000050: 665b cdbd 80d3 2e3c b2a4 dc3d d462 9abd
00000060: e04b dabc 8695 c43d c08a 3ebd 5430 103d
00000070: 9081 313c 1005 9b3c e87a ecbc aaf2 f7bd
00000080: e2ca a4bd 6c9a 9ebd 00df a6bd 64bf b9bd
00000090: c014 59bd 0abf d8bd 9a40 ecbd c0c9 61bc
000000a0: 3e2c 863d 10ab 023d 4082 0bbd 00b0 993d
000000b0: a68e b23d 203b c03d 803d 9cbc 44ff 513d
000000c0: 5c90 77bd c074 21bc c6af 903d 9036 513d
000000d0: 48c0 fb3c 6c8b 313d a0a5 103c ecee ffbd
000000e0: 14a7 463d c8a9 9bbc ec71 1a3d 98be 95bc
000000f0: 26cb 933d 60a1 d43d 8869 863c 74b8 eebd
-0.061936945 -0.094695315 -0.0989036 0.089618936 -0.11464167 -0.119986266 -0.03908214 0.02567646
-0.03790945 -0.112740755 -0.113237694 0.004823625 0.036128595 -0.03192939 0.0072096735 0.07375744
0.024534479 -0.089622036 -0.12196073 0.11934431 -0.100271985 0.010670543 0.10773601 -0.07538381
-0.026647508 0.09598832 -0.04651904 0.03520234 0.010834113 0.018923312 -0.0288672 -0.12106831
-0.08046509 -0.077442974 -0.081480026 -0.09069708 -0.052998304 -0.10583313 -0.11535759 -0.013781011
0.06551407 0.03190142 -0.034059763 0.075042725 0.08718614 0.09386277 -0.019072294 0.05126883
-0.060440406 -0.0098544955 0.07064776 0.051077425 0.030731335 0.043345854 0.008828551 -0.124967426
0.048499182 -0.019001856 0.0377063 -0.018279359 0.07216482 0.10382342 0.016407743 -0.116562754

fc3.weight f4 [1, 64]
00000000: 1c30 9d3d f062 c33d 507c b3bd 5e93 943d
00000010: 2498 183d 50d5 acbc 80ca ed3c 1a04 8ebd
00000020: 0892 60bd 8e2d fc3d c0ad ebbb 881d c5bd
00000030: bca4 033d a43f af3d 4afa f6bd f448 52bd
00000040: 0c15 c4bd f267 fb3d 14bb 65bd a811 643d
00000050: 50c0 373c 50df a1bc 5ebe dcbd 680c 9e3d
00000060: 3c4f 05bd f417 ebbd 08b6 c93c 009c 2d3d
00000070: f66e aebd d005 67bc f0d9 153d f031 753c
00000080: 2479 753d 10f9 7fbd 2480 91bd 2c7d 63bd
00000090: 58f8 7d3d f892 cbbd f272 a2bd 5c52 95bd
000000a0: 1ac5 a1bd 9861 debc 50ab d43d 7047 bebc
000000b0: ac2b 59bd 32f4 813d 744b 0dbd 7866 aebd
000000c0: de60 863d d8f5 03bd c0d6 4f3b 20d5 623c
000000d0: 3a64 cc3d 0c56 0d3d 80de 13bd e687 dcbd
000000e0: b2ec e33d d891 783d b0ff eebc 18f3 293d
000000f0: 6a7a 9e3d 1008 443d 80ae 7b3c e09b 25bd
0.07675192 0.09540355 -0.08763945 0.072546706 0.037254468 -0.02109781 0.029027224 -0.06934376
-0.054826766 0.12313376 -0.0071923435 -0.09624773 0.032139525 0.0855706 -0.120594576 -0.051339105
-0.09574327 0.12275685 -0.056086615 0.0556809 0.0112152845 -0.019759804 -0.10778497 0.0771721
-0.032546267 -0.11479178 0.024622932 0.0423851 -0.08517258 -0.014100507 0.036584795 0.014965519
0.05992998 -0.062493384 -0.07104519 -0.055539295 0.062004417 -0.099401414 -0.0793208 -0.072910994
-0.07898922 -0.027146146 0.10384238 -0.023227423 -0.053020164 0.06345405 -0.034495786 -0.08515638
0.06561445 -0.032216877 0.0031713694 0.013844758 0.09980054 0.03450589 -0.036100864 -0.10768108
0.111291304 0.060685962 -0.029174656 0.041491598 0.077381924 0.04785925 0.015361428 -0.040431857
