data/models/rl_aca_20250316_162704.pt (torch, 23198 bytes, 5 tensors)

fc1.weight f4 [64, 11]
0.18270677 0.027156979 0.038545877 0.047234744 0.26015663 -0.12033197 -0.28754696 0.117662996
0.14060992 0.27248037 -0.2819651 -0.14850116 -0.16522267 -0.2330627 -0.019780815 0.015486151
-0.16496712 -0.032213032 0.023314148 -0.19782138 0.16511863 -0.0715189 0.029214174 -0.022328347
0.109315485 -0.20596564 -0.29176122 0.08853072 0.18836895 0.28040844 -0.2353055 -0.0006312728
0.20545828 0.29665488 -0.028007835 0.20572346 0.29123086 -0.29752952 0.19017836 -0.14583644
0.0834631 -0.24562958 -0.13646296 0.1750567 0.21422756 0.07209435 0.18012121 0.17420492
-0.07333772 0.013218999 -0.12058066 -0.16128124 -0.10286011 0.071538806 -0.2797996 0.1352193
-0.20621213 -0.26121855 0.20915407 -0.11185156 -0.114004046 -0.10328837 0.18166706 0.19306862
-0.1839228 0.29150355 0.06096226 -0.28899688 -0.26541543 -0.030108958 -0.26653755 0.18501344
0.11277223 0.25916702 -0.1652574 0.2849685 0.024790704 -0.033725917 0.008272231 0.20337099
0.20885801 0.15118685 0.030840516 0.0723207 0.15952468 0.17808989 0.14806613 -0.064198434
0.06891915 -0.026341766 -0.27257383 0.065123886 0.16695616 0.260657 0.28782076 -0.20252308
0.29759157 -0.10127528 0.037279963 0.2778557 0.14636531 -0.17778642 -0.11896628 -0.053277448
-0.030837655 0.30012566 0.080354124 -0.038168877 0.023565203 0.22209507 -0.2713396 0.1537742
0.08692673 -0.032247722 -0.28240302 -0.05726312 -0.19545344 0.26481247 -0.24107963 0.24511749
0.12910259 -0.09975988 -0.20173544 0.070742875 -0.29529867 -0.20733032 0.14444336 -0.19267774
-0.10103248 0.017741024 0.23384643 -0.06455606 -0.16464902 0.03424436 0.031741172 0.03956151
-0.16084227 0.17598045 0.20384556 -0.15892996 0.1148023 0.03263864 -0.08517085 -0.0076405406
-0.14969583 0.20869577 -0.14066903 -0.2615527 -0.25226384 0.16585448 -0.15560234 -0.2360624
-0.075675905 0.1932255 -0.048309922 -0.04734671 0.19754079 0.033450484 -0.2422517 -0.26516998
-0.24352588 0.008512378 -0.2807993 0.07994166 -0.0902331 0.20044565 0.13605821 0.21646142
0.11701685 0.15160924 -0.13950668 0.25829822 -0.11388251 0.28582412 0.1234996 0.17438954
-0.010323763 0.1637446 0.20556837 0.18120697 0.06603065 -0.086355895 -0.22966433 0.24540454
-0.15037213 -0.07783264 -0.078692675 0.07045826 -0.11289948 0.14440489 0.21840686 0.11106458
-0.06721404 -0.032343388 -0.07657233 -0.08361013 0.08910182 0.20257688 0.18922338 -0.07752909
-0.06796226 0.13144964 -0.18840301 0.21340406 -0.26411173 -0.19225997 -0.18922818 -0.29926467
0.120985925 -0.020823658 -0.0838723 -0.22951362 -0.13253342 0.21608561 -0.16157928 -0.2871959
0.02420944 -0.059048384 -0.02949521 0.08678469 0.19881445 0.1278328 -0.005110562 0.22339594
0.29790527 0.2553913 0.13883173 0.26096106 0.12100059 0.121632665 0.20027804 -0.19748938
-0.010015219 0.13080317 -0.13025136 0.10808653 0.21153581 0.25246817 0.20463467 0.09530899
-0.108239934 0.29044497 0.26402056 0.20421112 -0.14523178 -0.1194724 -0.14777382 0.21270567
0.29692656 0.2202316 -0.052391306 -0.1925217 0.18532693 -0.2821744 -0.12470263 -0.25966588
00000000: 7c17 3b3e 5078 de3c 48e2 1d3d 3879 413d
00000010: 4033 853e 9c70 f6bd 5b39 93be 4cf9 f03d
00000020: 0cfc 0f3e 8c82 8b3e bb5d 90be b010 18be
00000030: 2230 29be fda7 6ebe 600b a2bc a0b9 7d3c
00000040: 24ed 28be d0f1 03bd 50fd be3c b091 4abe
00000050: dc14 293e 8078 92bd 9052 ef3c f0e9 b6bc
00000060: cce0 df3d a8e8 52be ba61 95be 984f b53d
00000070: cae3 403e b291 8f3e edf3 70be 007c 25ba
00000080: a863 523e 26e3 973e b070 e5bc 2ca9 523e
00000090: 361c 953e ca55 98be 1ebe 423e 2656 15be
000000a0: b4ee aa3d 5286 7bbe f2bc 0bbe 1042 333e
000000b0: 785e 5b3e 34a6 933d b271 383e c662 323e
000000c0: 1632 96bd 8094 583c fef2 f6bd e926 25be
000000d0: 52a8 d2bd f082 923d e541 8fbe ee76 0a3e
000000e0: 4629 53be 70be 85be 7c2c 563e 6e12 e5bd
000000f0: f47a e9bd da88 d3bd ee06 3a3e c8b3 453e
00000100: 4256 3cbe f43f 953e 90b3 793d 66f7 93be
00000110: 88e4 87be 10a7 f6bc 9c77 88be 2a74 3d3e
00000120: 20f5 e63d 8ab1 843e 3c39 29be 64e7 913e
00000130: e015 cb3c 3024 0abd 4088 073c 7c40 503e
00000140: e0de 553e bad0 1a3e 40a5 fc3c e01c 943d
00000150: 705a 233e 325d 363e a69e 173e 787a 83bd
00000160: 7c25 8d3d b0ca d7bc cc8e 8bbe ac5f 853d
00000170: 8ef6 2a3e d674 853e 3e5d 933e 3662 4fbe
00000180: ec5d 983e 6a69 cfbd e0b2 183d 1a43 8e3e
00000190: cae0 153e a50d 36be 98a4 f3bd 7439 5abd
000001a0: 409f fcbc 12aa 993e b490 a43d f856 1cbd
000001b0: d00b c13c e46c 633e 06ed 8abe fc76 1d3e
000001c0: a406 b23d 3016 04bd 2197 90be bc8c 6abd
000001d0: f224 48be 8095 873e 94dd 76be 1400 7b3e
000001e0: 7833 043e e84e ccbd bc93 4ebe a4e1 903d
000001f0: 6331 97be 664e 54be f6e8 133e 504d 45be
00000200: 1eea cebd a055 913c 7075 6f3e f835 84bd
00000210: c199 28be d043 0c3d 0803 023d 400b 223d
00000220: d6b3 24be 3834 343e e4bc 503e 89be 22be
00000230: 781d eb3d 18b0 053d 0e6e aebd 805d fabb
00000240: dd49 19be 58b4 553e 8b0b 10be 3cea 85be
00000250: ba28 81be c2d5 293e 3856 1fbe 57ba 71be
00000260: f8fb 9abd e8dc 453e a0e0 45bd a0ee 41bd
00000270: 2248 4a3e 6003 093d d410 78be 5cc4 87be
00000280: d95e 79be 8077 0b3c edc4 8fbe 74b8 a33d
00000290: 22cc b8bd a041 4d3e d852 0b3e 10a8 5d3e
000002a0: 88a6 ef3d 743f 1b3e d7da 0ebe aa3f 843e
000002b0: 3c3b e9bd 8a57 923e 5ced fc3d 2c93 323e
000002c0: 0025 29bc aaac 273e 8480 523e 528e 393e
000002d0: 143b 873d 5cdb b0bd 202d 6bbe 544b 7b3e
000002e0: 27fb 19be b866 9fbd a029 a1bd 6c4c 903d
000002f0: d837 e7bd e0de 133e 0ca6 5f3e d475 e33d
00000300: 84a7 89bd 807a 04bd f4d1 9cbd ca3b abbd
00000310: 047b b63d 5070 4f3e c6c3 413e 92c7 9ebd
00000320: cc2f 8bbd bc9a 063e b8ec 40be 9886 5a3e
00000330: a739 87be ccdf 44be 08c5 41be 3839 99be
00000340: 78c7 f73d 6096 aabc 3ec5 abbd 9e05 6bbe
00000350: d7b6 07be 8c45 5d3e 0a75 25be 570b 93be
00000360: e052 c63c b8dc 71bd f09f f1bc 2cbc b13d
00000370: 0496 4b3e 9ae6 023e 8076 a7bb e8c1 643e
00000380: 0a87 983e a6c2 823e e829 0e3e b09c 853e
00000390: 28cf f73d 8c1a f93d b015 4d3e a83a 4abe
000003a0: e016 24bc 44f1 053e 9d60 05be 785c dd3d
000003b0: d89c 583e 8243 813e c08b 513e 5c31 c33d
000003c0: e6ac ddbd 34b5 943e b42d 873e b81c 513e
000003d0: a4b7 14be f2ad f4bd 0552 17be 84cf 593e
000003e0: c206 983e 6484 613e 4498 56bd 6924 45be
000003f0: 58c6 3d3e 2a79 90be 1864 ffbd edf2 84be

fc1.bias f4 [64]
0.17935783 -0.056845576 0.21379077 0.21760595 -0.022472471 0.14868227 0.089595795 0.104384005
0.094015926 -0.044273823 0.066639245 -0.010520279 0.12973607 -0.26822132 -0.0085038245 0.087617785
-0.24520552 0.16300938 -0.15339644 0.24956977 -0.027538866 -0.021628022 0.21569282 -0.1864852
0.08999947 0.26344115 0.18299949 0.05062601 -0.0018495619 0.2819612 0.056610227 0.26036203
0.059568644 0.04468119 0.158975 -0.059666812 -0.29057518 0.05197811 0.007536173 -0.094430804
0.118445545 0.09839642 0.29742914 0.06117499 0.27862203 -0.29553637 0.29991233 0.088670045
0.050951004 -0.14231354 -0.21048507 0.20944256 0.24052346 0.1266217 0.19487906 0.20381176
0.25439155 -0.027108103 0.15138003 0.27062935 0.1944868 0.2175883 0.09650579 -0.07186991
00000000: 94a9 373e e8d6 68bd f8eb 5a3e 18d4 5e3e
00000010: 3018 b8bc 2a40 183e 007e b73d 48c7 d53d
00000020: 6c8b c03d 7858 35bd 287a 883d 405d 2cbc
00000030: 88d9 043e 4e54 89be a053 0bbc f470 b33d
00000040: 2817 7bbe eeeb 263e f513 1dbe 388f 7f3e
00000050: 3099 e1bc 402d b1bc 94de 5c3e faf5 3ebe
00000060: a451 b83d c2e1 863e 3864 3b3e 385d 4f3d
00000070: 006d f2ba 385d 903e 20e0 673d 2c4e 853e
00000080: 40fe 733d a003 373d 58ca 223e 3065 74bd
00000090: 45c6 94be 00e7 543d 00f2 f63b f064 c1bd
000000a0: 9493 f23d 1084 c93d a248 983e a092 7a3d
000000b0: 8ca7 8e3e 8b50 97be 1c8e 993e a498 b53d
000000c0: 00b2 503d a4ba 11be 6689 57be 1c78 563e
000000d0: c84b 763e 1ea9 013e 608e 473e 08b4 503e
000000e0: 9c3f 823e d011 debc 5e03 1b3e ee8f 8a3e
000000f0: 8c27 473e 78cf 5e3e d4a4 c53d 8830 93bd

fc2.weight f4 [64, 64]
-0.03198287 0.101326734 -0.10823114 -0.11872661 -0.10807112 0.103027076 -0.059585497 0.11828257
0.10455683 0.121790096 -0.06615499 0.09065963 -0.07476324 0.043871954 0.08674446 0.067237735
-0.08387081 -0.07022682 0.042259157 0.06731331 0.04561335 -0.049796283 0.100962564 -0.01931934
0.11559096 0.05321826 -0.055376396 -0.059232146 0.051304072 0.038682148 -0.12354933 -0.11315134
0.0010625422 -0.017579094 0.09632449 -0.112569004 0.1177704 0.10937135 -0.06282972 0.032687694
0.11096831 -0.008294135 -0.10305326 0.119754314 0.10636304 0.12204018 0.02518855 -0.018320799
-0.07945679 -0.0018392205 -0.007328376 -0.10124625 -0.05493453 -0.12476219 -0.122666046 0.07326451
0.12184559 0.0296693 -0.045266226 0.10884924 -0.11358933 -0.11614157 0.10661027 -0.095684245
-0.06917395 0.11614986 0.07681306 -0.017457023 -0.09839158 0.00014346838 -0.046443507 0.07331024
0.12321663 -0.030752033 0.010859534 0.043617427 0.013579607 -0.03841743 0.11026496 -0.023627311
0.021058246 -0.028415233 -0.09400028 0.022698283 -0.015542552 -0.04460834 -0.046807364 0.035094023
-0.11363459 0.030316621 0.115554035 0.029382765 0.0752051 -0.0015375018 0.031412527 0.10804777
-0.08744925 -0.06666762 -0.023365065 -0.12468882 0.11574851 -0.023632273 -0.031208456 0.044891715
-0.09637436 0.11332065 -0.032896146 -0.10534531 -0.06988007 0.058547676 -0.034182683 0.031300887
-0.028764904 0.09499033 -0.0133899 -0.072100684 0.03170383 0.05615595 -0.052036345 0.124648005
-0.043837145 -0.06996557 0.0057688504 0.0021110475 -0.028660133 -0.093955904 -0.041260317 0.118725
0.029949978 -0.04245442 -0.020964473 0.064407736 0.065623894 -0.00951241 0.087944746 -0.118606016
-0.0582356 -0.094592154 0.11217992 0.035670713 0.11598542 -0.001816392 0.048758045 -0.122157305
-0.03392501 0.057733536 0.007134557 0.12156929 -0.10782237 -0.07013501 0.06102079 0.09749822
-0.08339535 -0.03543839 -0.09868945 0.09807502 -0.111128256 -0.020271122 -0.06924157 0.031753093
0.101515055 0.07144673 0.031141624 0.12499869 0.06272456 0.07871412 -0.06524809 -0.040443823
0.042144433 0.01432018 0.070212275 0.061091855 -0.01707755 -0.10222389 0.053146273 -0.09002341
-0.11800538 0.11642234 -0.08008586 0.010202363 0.079721555 -0.01742424 0.12131597 0.0072151273
-0.0012548417 -0.03753394 -0.0138308555 0.10497819 0.07945432 -0.008720934 0.025066525 0.027236998
-0.029424354 0.10776557 -0.076386556 -0.033607602 -0.12108621 0.11068392 -0.12396538 0.041801244
-0.1167257 0.06423199 -0.020532489 0.12122613 0.04913956 0.016207531 -0.0676938 -0.00939624
-0.053951412 -0.11936602 0.046379894 -0.018202782 0.059058174 0.120754644 -0.05685574 -0.0144435465
-0.041238815 -0.024155885 0.05227305 0.111258075 0.027847558 -0.108522356 -0.015988484 -0.07524283
0.038709447 0.016135305 -0.10098636 -0.067898124 0.024956048 0.08185078 -0.030137658 -0.07965596
0.100386366 0.0538795 0.04362257 -0.037851676 -0.10228717 0.059544712 0.0854743 -0.081949905
-0.10490546 -0.02278684 -0.04160957 -0.12499033 0.03509578 0.06381923 -0.060439274 -0.03831294
0.083969 0.037250534 0.10117805 0.041190326 -0.04115203 -0.07696231 -0.09965238 0.09013885
00000000: 7800 03bd 6484 cf3d 4aa8 ddbd f026 f3bd
00000010: 6454 ddbd dcff d23d ec0f 74bd 223e f23d
00000020: e421 d63d 166d f93d 447c 87bd c2ab b93d
00000030: 781d 99bd 14b3 333d 14a7 b13d f0b3 893d
00000040: 76c4 abbd 14d3 8fbd f017 2d3d 90db 893d
00000050: 10d5 3a3d 30f7 4bbd 76c5 ce3d 9843 9ebc
00000060: f4ba ec3d 64fb 593d 5cd2 62bd 689d 72bd
00000070: 3824 523d 2c71 1e3d 6e07 fdbd e4bb e7bd
00000080: 0045 8b3a 0802 90bc c645 c53d 948a e6bd
00000090: 9c31 f13d 16fe df3d deac 80bd 88e3 053d
000000a0: 5a43 e33d 20e4 07bc 960d d3bd c041 f53d
000000b0: ded4 d93d 34f0 f93d 3858 ce3c 8015 96bc
000000c0: 3eba a2bd 0012 f1ba e022 f0bb 325a cfbd
000000d0: 0803 61bd 5283 ffbd 5638 fbbd b40b 963d
000000e0: 2e8a f93d 080d f33c 1469 39bd 5aec de3d
000000f0: 86a1 e8bd a2db edbd 7c56 da3d 1af6 c3bd
00000100: 12ab 8dbd fadf ed3d 2a50 9d3d 0802 8fbc
00000110: 8681 c9bd 0070 1639 8c3b 3ebd ae23 963d
00000120: 0059 fc3d b0eb fbbc 30ec 313c 30a8 323d
00000130: 007d 5e3c 985b 1dbd 98d2 e13d 108e c1bc
00000140: 5882 ac3c 10c7 e8bc 3883 c0bd c0f1 b93c
00000150: 30a6 7ebc 3cb7 36bd 14b9 3fbd c0be 0f3d
00000160: 40b9 e8bd 905a f83c 98a7 ec3d 20b4 f03c
00000170: 2205 9a3d 0086 c9ba 6caa 003d 2648 dd3d
00000180: 9818 b3bd 0889 88bd 1868 bfbc da5c ffbd
00000190: 8e0d ed3d 7898 c1bc e0a8 ffbc 60e0 373d
000001a0: ec5f c5bd a814 e83d 1cbe 06bd 48bf d7bd
000001b0: 481d 8fbd b0cf 6f3d 2403 0cbd 5c35 003d
000001c0: 60a4 ebbc 4a8a c23d 5061 5bbc 86a9 93bd
000001d0: e0db 013d c803 663d 1024 55bd 7447 ff3d
000001e0: 948e 33bd 1c4a 8fbd a008 bd3b 8059 0a3b
000001f0: a8c8 eabc f46b c0bd 9400 29bd 1826 f33d
00000200: a859 f53c b0e4 2dbd b0bd abbc 34e8 833d
00000210: d265 863d f0d9 1bbc 601c b43d b6e7 f2bd
00000220: 7488 6ebd 88b9 c1bd 96be e53d 741b 123d
00000230: c489 ed3d 0014 eeba 84b6 473d 9c2d fabd
00000240: f4f4 0abd 007a 6c3d 00c9 e93b 52f9 f83d
00000250: fad1 dcbd f2a2 8fbd f0f0 793d 26ad c73d
00000260: 2ecb aabd d827 11bd b21d cabd 8edb c83d
00000270: 3697 e3bd a00f a6bc 86ce 8dbd 880f 023d
00000280: 20e7 cf3d aa52 923d b81c ff3c 50ff ff3d
00000290: bc75 803d de34 a13d caa0 85bd 6ca8 25bd
000002a0: a49f 2c3d 309f 6a3c 74cb 8f3d 743b 7a3d
000002b0: 38e6 8bbc c25a d1bd e8af 593d 325e b8bd
000002c0: ceac f1bd d66e ee3d 0e04 a4bd d027 273c
000002d0: 0e45 a33d 48bd 8ebc 8274 f83d e06c ec3b
000002e0: 8079 a4ba 30bd 19bd d09a 62bc cefe d63d
000002f0: f2b8 a23d 40e2 0ebc 5058 cd3c 2020 df3c
00000300: 580b f1bc 32b4 dc3d 8e70 9cbd 20a8 09bd
00000310: 0cfc f7bd 40ae e23d 90e1 fdbd c837 2b3d
00000320: e20d efbd 108c 833d c033 a8bc 6845 f83d
00000330: 9046 493d a8c5 843c 0ca3 8abd b0f2 19bc
00000340: 28fc 5cbd 2c76 f4bd d8f8 3d3d 001e 95bc
00000350: fce6 713d 364e f73d 90e1 68bd a0a4 6cbc
00000360: 08ea 28bd 90e2 c5bc 441c 563d 46db e33d
00000370: 9020 e43c f840 debd 48fa 82bc ea18 9abd
00000380: cc8d 1e3d 302e 843c f0d1 cebd 2c0e 8bbd
00000390: a070 cc3c 62a1 a73d 40e3 f6bc aa22 a3bd
000003a0: 5e97 cd3d c0b0 5c3d 94ad 323d 5c0a 1bbd
000003b0: f07b d1bd 28e5 733d 260d af3d 5ad5 a7bd
000003c0: acd8 d6bd 78ab babc cc6e 2abd eefa ffbd
000003d0: 98c0 0f3d a8b3 823d 2c8f 77bd 08ee 1cbd
000003e0: f0f7 ab3d 0494 183d 7036 cf3d 30b7 283d
000003f0: 088f 28bd 6a9e 9dbd 8c16 ccbd b89a b83d

fc2.bias f4 [64]
-0.09196828 -0.07645254 0.12204717 0.10177073 -0.017696291 0.060248703 -0.115549415 -0.11737163
0.007819027 -0.088276565 -0.002927363 -0.071389824 0.12165108 -0.091738686 0.009799227 -0.07817443
-0.095622 0.06171088 0.052836776 -0.0044822246 0.036359504 -0.07630706 -0.009273186 0.10002813
0.023913324 0.03327757 0.030736893 -0.04322061 -0.12231554 0.070530176 0.005724743 -0.03812273
0.120654404 -0.051986456 0.07441142 -0.08600117 0.098278 -0.08090329 -0.001189962 0.06026037
-0.054593936 0.10905546 0.114581615 -0.11375098 0.013201296 0.04202737 0.09856431 -0.0624059
-0.120217666 0.07602149 0.09366143 -0.0480095 -0.114687264 0.010622144 -0.08844617 0.079514086
0.096434906 0.08249389 -0.05585973 -0.12037307 -0.046613112 -0.11844616 -0.112586856 0.06922528
00000000: de59 bcbd 2693 9cbd def3 f93d 2c6d d03d
00000010: d0f7 90bc 58c7 763d 2ca5 ecbd 8a60 f0bd
00000020: 601b 003c 58ca b4bd 00d9 3fbb d434 92bd
00000030: 3424 f93d 7ee1 bbbd f08c 203c ea19 a0bd
00000040: 78d5 c3bd 8cc4 7c3d 606b 583d a0df 92bb
00000050: b4ed 143d e046 9cbd 90ee 17bc 8cdb cc3d
00000060: e0e5 c33c 104e 083d f0cb fb3c 1808 31bd
00000070: 9280 fabd 2072 903d a096 bb3b 9426 1cbd
00000080: a819 f73d c0ef 54bd 0465 983d 6221 b0bd
00000090: fa45 c93d a0b0 a5bd 80f8 9bba 94d3 763d
000000a0: e49d 5fbd 7858 df3d c4a9 ea3d 46f6 e8bd
000000b0: 404a 583c e424 2c3d 16dc c93d 549d 7fbd
000000c0: ae34 f6bd 28b1 9b3d 90d1 bf3d 9ca5 44bd
000000d0: 28e1 eabd 8008 2e3c 4423 b5bd 48d8 a23d
000000e0: aa7f c53d 8ef2 a83d 2ccd 64bd 2886 f6bd
000000f0: 64ed 3ebd e693 f2bd f093 e6bd fcc5 8d3d

fc3.weight f4 [1, 64]
0.017681837 -0.010450184 -0.08714001 -0.06853385 0.0008661151 -0.07880789 0.11185978 -0.11234054
-0.044570476 0.0009620935 -0.028962523 0.014738634 -0.12302405 -0.020010978 -0.11571008 0.062043503
-0.029513374 0.053039536 0.052000284 -0.072765514 -0.047962382 -0.0047321916 -0.057532147 -0.04151228
-0.00410901 -0.08304499 0.11248638 0.061125502 -0.12433909 0.06492315 0.11848043 0.07017481
0.09907147 -0.006737575 0.123339385 -0.10265076 0.02883488 -0.05029781 -0.06278722 0.04794869
0.08166142 -0.011830106 -0.015517041 -0.06999466 0.080163494 -0.04248385 -0.09707007 0.11062603
-0.003812462 -0.06802282 -0.00018715858 0.031089082 -0.11142881 0.0633837 0.073906615 -0.0739408
-0.070013195 0.025216013 -0.00077162683 0.09401654 0.09594837 0.044656843 0.077788845 -0.056338236
00000000: 80d9 903c 4037 2bbc 7676 b2bd 7a5b 8cbd
00000010: 000c 633a 0866 a1bd be16 e53d cc12 e6bd
00000020: 888f 36bd 0035 7c3a d042 edbc 507a 713c
00000030: 08f4 fbbd 10ee a3bc 68f9 ecbd 5421 7e3d
00000040: 08c6 f1bc fc3f 593d 40fe 543d 1606 95bd
00000050: 3474 44bd 8010 9bbb d4a6 6bbd c808 2abd
00000060: e0a4 86bb 7e13 aabd 425f e63d bc5e 7a3d
00000070: 7ea5 febd 6ef6 843d dea5 f23d d0b7 8f3d
00000080: fce5 ca3d e0c6 dcbb 5c99 fc3d 903a d2bd
00000090: 2037 ec3c 1405 4ebd 9696 80bd d865 443d
000000a0: 1a3e a73d 10d3 41bc 303b 7ebc 5c59 8fbd
000000b0: c22c a43d 8c03 2ebd accc c6bd e68f e23d
000000c0: 80da 79bb 8c4f 8bbd 0040 44b9 88ae fe3c
000000d0: ca34 e4bd 50cf 813d 5a5c 973d 466e 97bd
000000e0: 1463 8fbd d091 ce3c 0047 4aba be8b c03d
000000f0: 9480 c43d 18ea 363d c24f 9f3d ecc2 66bd
