data/models/rl_aca_20250316_215347.pt (torch, 23198 bytes, 5 tensors)

fc1.weight f4 [64, 11]
0	0xbe966d9d	-0.29380503
1	0xbdb587e4	-0.0886381
2	0x3e7430f4	0.23846799
3	0x3c1f46e0	0.009721488
4	0x3db042ec	0.08606514
5	0x3e673388	0.22578251
6	0xba026000	-0.00049734116
7	0x3e8aa280	0.27077103
8	0xbdee5c64	-0.11638716
9	0xbe1d0a2b	-0.1533591
10	0x3e4a1400	0.19734192
11	0xbe67098f	-0.2256224
12	0x3e3c7372	0.18403414
13	0xbe146513	-0.14491682
14	0x3d015ac0	0.031580687
15	0x3c9c21c0	0.019059062
16	0x3df4e9b4	0.11958638
17	0x3e27ed64	0.16399151
18	0xbd7740ec	-0.06036465
19	0x3e772d84	0.24138457
20	0x3dfdbcf0	0.123895526
21	0xbd6a9374	-0.05726953
22	0x3dfe6cf4	0.12423125
23	0x3ce6f2f0	0.028192014
24	0xbd7436fc	-0.05962275
25	0xbdff31e6	-0.12460689
26	0x3e98c2a2	0.29835993
27	0xbe925c0d	-0.28585854
28	0x3e992478	0.29910636
29	0xbe960222	-0.29298502
30	0x3e36cd48	0.17851746
31	0x3d8a24a0	0.06745267
32	0xbe1536d2	-0.14571694
33	0x3b22a000	0.0024814606
34	0x3e5612ac	0.2090556
35	0x3e82fb64	0.2558242
36	0xbe875f18	-0.26439738
37	0xbe1577bb	-0.14596455
38	0xbcde3a00	-0.027127266
39	0xbb725f80	-0.0036983192
40	0x3da2ab20	0.07942796
41	0x3e88cd0e	0.26718944
42	0xbdeb9c76	-0.11504452
43	0x3e1ddc52	0.15416077
44	0x3e82dcc6	0.25559062
45	0xbda706fc	-0.08155629
46	0xbe36fd1c	-0.17869991
47	0x3e640868	0.22268832
48	0x3dc965a0	0.098338366
49	0x3e77562c	0.24153966
50	0xbe887741	-0.26653484
51	0xbe71c194	-0.23609
52	0xbdf968da	-0.12178202
53	0x3da4a37c	0.08038995
54	0x3de737dc	0.11289951
55	0x3d2fbfe8	0.042907625
56	0x3e8ec48c	0.27884328
57	0x3e781344	0.24226099
58	0x3e32d33e	0.17463395
59	0x3d57d470	0.05269283
60	0xbe44c214	-0.1921466
61	0xbe64b004	-0.2233277
62	0x3cfbfd00	0.030760288
63	0xbe4e6d37	-0.2015885
64	0xbe9a477f	-0.30132672
65	0x3db565c8	0.08857304
66	0x3c127d80	0.008941054
67	0x3dc8bd98	0.09801787
68	0x3de9b6b0	0.11411798
69	0x3d63b670	0.055593908
70	0x3e535b64	0.20640332
71	0x3d4738c8	0.048638135
72	0xbe28c882	-0.16482738
73	0xbde8c16e	-0.11365019
74	0xbd9a4200	-0.0753212
75	0xbdc4accc	-0.09603271
76	0xbe13858a	-0.1440641
77	0x3e555004	0.20831305
78	0x3e853f3a	0.260248
79	0xbc844320	-0.016145289
80	0x3e296930	0.16544032
81	0xbd2d3ce0	-0.042294383
82	0x3e852b18	0.2600944
83	0xbd678398	-0.056521982
84	0xbe80d729	-0.25164154
85	0xbe318421	-0.1733556
86	0xbe933d54	-0.28757727
87	0xbe7256c7	-0.23665915
88	0xbe91349f	-0.2836046
89	0x3dc8e2fc	0.09808919
90	0x3d85c59c	0.065318316
91	0x3da95a64	0.08269194
92	0x3e579ec0	0.21056652
93	0xbe70aea5	-0.23504122
94	0x3d91e184	0.07123092
95	0xbde7bbc6	-0.11315112
96	0x3db4ee54	0.0883452
97	0xbe081b89	-0.13291754
98	0xbd955c64	-0.07293013
99	0x3e20d7b6	0.15707287
100	0x3dbdde88	0.0927096
101	0xbe4d9ebf	-0.20080088
102	0xbc5b6ba0	-0.013392359
103	0xbd00f5b8	-0.031484336
104	0x3e277304	0.16352469
105	0x3e334b9e	0.17509314
106	0xbe1a4c2a	-0.15068117
107	0xbbcf7880	-0.0063315034
108	0xbe506cfa	-0.20354071
109	0xbe2d79f7	-0.16941057
110	0x3d1012c8	0.03517416
111	0xbe1cb1bd	-0.15302177
112	0xbe365d35	-0.17808993
113	0x3e227b6c	0.15867394
114	0x3e0e6efa	0.13909522
115	0x3e54ee60	0.20794058
116	0x3e8b7a32	0.27241665
117	0xbd423fc8	-0.047424108
118	0x3e82aaa8	0.25520825
119	0x3e35bacc	0.17747039
120	0x3de315a8	0.11088115
121	0x3e623008	0.22088635
122	0x3de9f798	0.11424178
123	0x3d466860	0.048439384
124	0x3e3a9fda	0.18225041
125	0xbe6b1944	-0.22958857
126	0x3e3aaedc	0.18230766
127	0x3cbddc90	0.023176461
128	0xbe963de0	-0.29344082
129	0xbe5d71b8	-0.21625412
130	0xbe995d01	-0.2995377
131	0xbdb0ca28	-0.08632308
132	0x3da1d2e8	0.07901555
133	0xbd4dc400	-0.05023575
134	0xbe9514bc	-0.29117382
135	0x3e3140fa	0.17309943
136	0xbe7b8431	-0.24562146
137	0xbe6d8037	-0.23193441
138	0xbe7935a7	-0.24336873
139	0xbe5b96ef	-0.21444295
140	0x3d7af1e8	0.061265856
141	0xbe07df37	-0.13268743
142	0xbe0fae9b	-0.1403145
143	0xbd57b288	-0.052660495
144	0xbe2bc062	-0.16772607
145	0xbe4ab74e	-0.19796488
146	0xbe347e7b	-0.17626373
147	0x3de5cb04	0.11220363
148	0xbd403e08	-0.046934158
149	0x3e2766ec	0.16347855
150	0xbe17886a	-0.14798132
151	0x3c9e5f50	0.019332558
152	0xbe2b4f4c	-0.16729468
153	0xbd4b7a60	-0.049677253
154	0x3e2392e2	0.15974
155	0x3e10dcc0	0.1414671
156	0xbd51cef0	-0.05122274
157	0xbe4e5618	-0.2015003
158	0x3e96d35a	0.29458123
159	0xbe862fea	-0.2620843
160	0x3dc404c4	0.095712215
161	0xbe44d2a8	-0.19220984
162	0xbd0af8f0	-0.03392881
163	0xbd11bc28	-0.03557983
164	0xbbf9cbc0	-0.007623166
165	0xbe35720a	-0.17719284
166	0xbe44ae55	-0.19207127
167	0x3d9c7494	0.07639423
168	0xbd6325c0	-0.055455923
169	0x3e579578	0.21053112
170	0x3e771de8	0.24132502
171	0xbe703cf2	-0.23460749
172	0x3e8485b0	0.25883245
173	0xbe8794ad	-0.26480618
174	0xbddca96e	-0.10774504
175	0x3db7e03c	0.08978316
176	0xbe94d24c	-0.29066694
177	0x3ddb991c	0.10722563
178	0xbe818309	-0.25295284
179	0xbe842a49	-0.2581351
180	0xbdb14c32	-0.08657111
181	0x3e21c4a4	0.15797669
182	0x3d9192ec	0.07108101
183	0x3dd98180	0.10620403
184	0x3e970b5a	0.29500848
185	0xbe67805d	-0.2260756
186	0x3d4db6e0	0.05022323
187	0xbe2719ab	-0.16318385
188	0x3e93b3d8	0.28848147
189	0x3de1044c	0.10987148
190	0x3e37501a	0.1790165
191	0xbde6473c	-0.11244056
192	0xbd1fc9c8	-0.039010793
193	0xbe129904	-0.14316183
194	0xbd468ca8	-0.048473984
195	0x3db6ff28	0.08935386
196	0x3e49eb8c	0.1971876
197	0xbe90be0e	-0.2827
198	0x3d8a4928	0.06752235
199	0xbe144e07	-0.1448289
200	0x3e292508	0.16518033
201	0xbd0134a8	-0.031544358
202	0xbce12df0	-0.027487725
203	0xbe750b29	-0.23930039
204	0xbd88c736	-0.066786215
205	0xbe69c92f	-0.22830652
206	0xbc338920	-0.010957986
207	0xbe84648b	-0.25857958
208	0x3e951568	0.29117894
209	0x3d490e60	0.049085975
210	0x3e93c2d4	0.2885958
211	0xbe994243	-0.29933366
212	0x3d4dda20	0.05025685
213	0xbe795867	-0.24350129
214	0xbe5501b8	-0.20801437
215	0x3e534978	0.20633495
216	0x3e75541c	0.23957866
217	0xbd05d850	-0.032676995
218	0xbc8933c0	-0.01674831
219	0x3d909644	0.07059911
220	0xbe83fb88	-0.2577784
221	0x3e622498	0.22084272
222	0x3e19b12a	0.15008989
223	0xbe8fff8d	-0.28124657
224	0xbe2a6e8c	-0.16643733
225	0x3b4e7f00	0.0031508803
226	0x3e16e88a	0.14737144
227	0xbe96348c	-0.29336965
228	0x3e0f1e56	0.13976416
229	0x3cb57b70	0.022153586
230	0xbd29a098	-0.04141292
231	0xbe45d4ee	-0.19319507
232	0xbe830615	-0.25590578
233	0xbde28b76	-0.11061756
234	0xbe728da2	-0.23686841
235	0x3e832560	0.25614452
236	0xbe719975	-0.23593695
237	0xbe97de31	-0.29661706
238	0x3e0fbd14	0.14036971
239	0xbb864bc0	-0.0040983856
240	0x3e61d610	0.22054315
241	0x3d7573c0	0.05992484
242	0xbe823b4d	-0.25435868
243	0x3e6a7c68	0.2289902
244	0x3dbb1550	0.091349244
245	0x3d3e7760	0.046500564
246	0x3e0ee5a6	0.13954791
247	0x3d7acbb8	0.061229438
248	0x3d892fb8	0.06698555
249	0x3e02c3fa	0.12770072
250	0xbd9ce0b0	-0.07660043
251	0xbd17f648	-0.037100106
252	0x3dd32f30	0.10311735
253	0xbdfcdc22	-0.123466745
254	0x3d83c374	0.06433764
255	0x3d2fa738	0.04288408

fc1.bias f4 [64]
0	0x3de71030	0.112823844
1	0xbe8d8933	-0.27643737
2	0x3e6c5430	0.2307899
3	0xbe102e3a	-0.14080134
4	0x3daa1f68	0.083067715
5	0x3e47f16a	0.19525686
6	0xbd2e6358	-0.04257521
7	0x3ca3d520	0.019999087
8	0xbe44b453	-0.19209413
9	0x3e4aa478	0.19789302
10	0x3df93ccc	0.12169799
11	0x3e710390	0.23536515
12	0x3c2d9ca0	0.010596424
13	0x3e922eea	0.28551418
14	0xbe45475c	-0.19265503
15	0xbe059e0c	-0.13048571
16	0x3de6cec0	0.11269903
17	0xbe27c8dd	-0.16385217
18	0xbe56ae65	-0.20964964
19	0x3e80fcf8	0.25193
20	0xbe37a722	-0.1793485
21	0x3e0ea626	0.13930568
22	0x3c953680	0.018214464
23	0xbe0d23e3	-0.13783221
24	0xbdca1660	-0.09867549
25	0xbdbf7a56	-0.093495056
26	0x3c9fb450	0.01949516
27	0x3e3fca62	0.18729547
28	0xbc540620	-0.012940913
29	0xbe9158a6	-0.28387946
30	0x3e8002f2	0.25002247
31	0x3d6c7828	0.057731777
32	0x3e424518	0.1897167
33	0x3e3a8ef4	0.18218595
34	0x3c248ee0	0.01004383
35	0x3e1431aa	0.1447207
36	0x3c97f810	0.018550903
37	0xbe1449c4	-0.14481264
38	0x3e0728c8	0.1319915
39	0xbe4c5d02	-0.19957355
40	0x3d08b748	0.033377916
41	0x3d976658	0.073925674
42	0x3daf4288	0.08557612
43	0xbe059054	-0.13043338
44	0xbe8a8c71	-0.27060273
45	0x3e4e3a74	0.20139486
46	0xbe806c44	-0.250826
47	0x3dfa7320	0.122289896
48	0x3d0c2060	0.034210563
49	0x3c9b3680	0.018946886
50	0x3d34d680	0.044149876
51	0x3e058822	0.13040212
52	0x3e8b44e4	0.27200997
53	0xbc0a8780	-0.008455157
54	0x3e7fc2b4	0.24976617
55	0xbd265198	-0.040605158
56	0xbe79f1fa	-0.24408713
57	0x3d4ae178	0.04953143
58	0xbe035800	-0.12826538
59	0x3e171ec8	0.14757836
60	0xbd5d9bc4	-0.054103628
61	0x3e54b854	0.2077344
62	0x3e5164bc	0.20448583
63	0xbccee410	-0.025255233

fc2.weight f4 [64, 64]
0	0xbc7394f0	-0.014867052
1	0x3dbf3a3c	0.09337279
2	0xbdf91c66	-0.1216362
3	0xbdd4dc2c	-0.10393557
4	0x3d7da228	0.061922222
5	0xbcc97118	-0.02459006
6	0x3c31aeb0	0.010844871
7	0x3d0d5cfc	0.034512505
8	0xbc680600	-0.014161587
9	0x3ce1bc38	0.02755557
10	0xbbdb2740	-0.0066880286
11	0xbdf5799c	-0.11986086
12	0x3d7265a8	0.05917898
13	0x3d84e990	0.06489861
14	0xbd8d5724	-0.069013864
15	0x3cd8d8c0	0.026470542
16	0x3d96800c	0.07348642
17	0x3d800050	0.062500596
18	0xbdf49474	-0.11942378
19	0xbc4b49d0	-0.012407735
20	0xbccd0600	-0.025027275
21	0x3d7c14d4	0.0615433
22	0xbd227454	-0.03966172
23	0xbcf62e00	-0.030051231
24	0x3d5a0a64	0.053232566
25	0x3d92a4aa	0.071603134
26	0xbda52a1a	-0.08064671
27	0x3d4a3c8c	0.04937415
28	0x3d88436c	0.06653485
29	0xbddc8dc6	-0.10769229
30	0xbd619ac8	-0.05507925
31	0xbdcd1e7a	-0.100155786
32	0xbc172f90	-0.009227648
33	0xbdf66382	-0.12030698
34	0x3def14a0	0.11673856
35	0x3db2619e	0.08710025
36	0xbddbfbcc	-0.10741386
37	0x3b68db40	0.0035531074
38	0x3c0168b0	0.007898495
39	0x3d9a892a	0.07545693
40	0xbdecaf96	-0.11556928
41	0x3dee9276	0.11649029
42	0x3cd339d0	0.025784403
43	0x3df1ebe2	0.11812569
44	0x3dac92e4	0.08426455
45	0x3dc18d46	0.09450774
46	0xbd81db76	-0.06340687
47	0x3cf8fab0	0.030392975
48	0x3dc89bdc	0.09795353
49	0x3d39bd14	0.045346335
50	0xbc327ca0	-0.010893971
51	0x3d9c5306	0.07633023
52	0xbc2679c0	-0.010160863
53	0xbd5e1874	-0.05422254
54	0xbd04eee4	-0.032454386
55	0xbcebdc28	-0.028791502
56	0x3dd4f7ea	0.10398848
57	0xbd5d7220	-0.054063916
58	0x3b3f2c80	0.0029170811
59	0x3d4729c0	0.0486238
60	0xbd8acf7e	-0.06777857
61	0x3d5ed2ac	0.05440013
62	0x3dbaf0ac	0.09127936
63	0x3dcc1706	0.09965329
64	0xbd3a24f0	-0.045445383
65	0x3ddec038	0.108765066
66	0xbd810a32	-0.06300773
67	0xbd914854	-0.070938736
68	0xbce7aa70	-0.028279513
69	0xbd80fb62	-0.062979475
70	0x3c2fab70	0.010722026
71	0x3b189280	0.002328068
72	0x3c4fd840	0.012685835
73	0x3db20bea	0.08693679
74	0xbd7c5314	-0.061602667
75	0x3d8adc4c	0.067802995
76	0x3dd83280	0.10556507
77	0x3cc9ece8	0.024649099
78	0x3d3df018	0.04637155
79	0x3dd79cda	0.10527964
80	0xbc66e040	-0.014091551
81	0xbd2bea68	-0.041971594
82	0x3ded66c2	0.11591865
83	0x3dc1899a	0.094500735
84	0x3d82afa0	0.06381154
85	0x3c1f9690	0.009740487
86	0xbdf8560c	-0.12125787
87	0xbb923f80	-0.004463136
88	0x3cd0ff18	0.025512263
89	0x3d9eab18	0.07747477
90	0x3d41702c	0.047226116
91	0xbd2e6c9c	-0.042584047
92	0xbbac8f80	-0.00526613
93	0x3d99f222	0.07516886
94	0xbd5b5478	-0.053547353
95	0xbd822f6e	-0.06356703
96	0xbdb04bea	-0.086082295
97	0x3d923eec	0.07140908
98	0x3dd30c5a	0.1030509
99	0xbd82e6b4	-0.063916594
100	0x3cb1da50	0.021710545
101	0xbd7f10a0	-0.062271714
102	0xbd93aeac	-0.072110504
103	0xbc8528a8	-0.016254738
104	0xbca6c2b8	-0.020356521
105	0xbc797c10	-0.015227333
106	0xbd252cc8	-0.04032591
107	0xbdd71bf4	-0.105033785
108	0xbd7b2f68	-0.061324507
109	0xbd98e4fa	-0.07465549
110	0xbddb0496	-0.10694234
111	0xbceaaed8	-0.028647825
112	0x3ce46d08	0.027884021
113	0x3c8f4a68	0.017491534
114	0x3d56ab5c	0.052409515
115	0x3d2aa8cc	0.041664883
116	0x3df1cc60	0.118065596
117	0xbdb5e312	-0.08881201
118	0x3d679ee0	0.056548
119	0x3d37dda8	0.044889122
120	0x3d07d218	0.033159345
121	0xbdc3df22	-0.095640436
122	0x3d6db0e8	0.05803004
123	0x3dc9d84c	0.098557085
124	0x3dfc366a	0.12315066
125	0x3dbb3652	0.0914122
126	0x3dd2d3e8	0.10294324
127	0x3d933e86	0.0718966
128	0xbd98a83a	-0.07453962
129	0x3d4c38f4	0.049859002
130	0xbddd15d8	-0.10795182
131	0x3d8eedaa	0.069789246
132	0x3cb4f628	0.022090033
133	0xbdb66004	-0.08905032
134	0x3d62b9b0	0.055352867
135	0xbda6dfbc	-0.08148143
136	0x3dbc1cae	0.09185158
137	0xbcdbd3c8	-0.026834384
138	0x3cbd5bf0	0.023115128
139	0x3d1671e8	0.036729723
140	0x3d9a0852	0.07521118
141	0x3d93a128	0.072084725
142	0xbd888836	-0.06666605
143	0x3cac1580	0.021006346
144	0xbdfcd1ba	-0.1234469
145	0x3d7872f8	0.060656518
146	0x3c6700d0	0.014099315
147	0xbc4e31b0	-0.012585089
148	0x3ce60210	0.028077155
149	0xbd70bf88	-0.05877641
150	0xbd695964	-0.056970015
151	0x3dbf0908	0.093278944
152	0x3ddd7356	0.10813014
153	0xbdee7d08	-0.116449416
154	0xbdb2e11a	-0.08734341
155	0xbdeeacc6	-0.11654048
156	0x3d525260	0.05134809
157	0x3d7c085c	0.06153141
158	0x3d596684	0.053076282
159	0x3d6ec7f8	0.058296174
160	0xbd9dcbf2	-0.07704915
161	0x3db37768	0.08763009
162	0xbd5b04e4	-0.05347146
163	0x3d0bc730	0.034125507
164	0xbdd09d5e	-0.101862654
165	0xbd83bd24	-0.0643256
166	0xbba13d80	-0.0049206614
167	0xbd63d510	-0.055623114
168	0x3d849cb8	0.06475204
169	0x3ded983a	0.116013005
170	0xbda0ce7c	-0.07851884
171	0x3ddc5ae8	0.107595265
172	0x3db6f28c	0.08932981
173	0xbde25c48	-0.110527575
174	0x3dc39dda	0.09551592
175	0x3d938be4	0.072044164
176	0x3dc79aa0	0.09746289
177	0x3c97d4d0	0.018534094
178	0x3d1407cc	0.03614025
179	0x3d62af6c	0.055343077
180	0xbd97b796	-0.07408063
181	0x3dc533ce	0.096290216
182	0xbd484e00	-0.04890251
183	0x3d2836e8	0.041067988
184	0xbc231620	-0.0099540055
185	0x3dd2b100	0.10287666
186	0x3de1c820	0.11024499
187	0xbdcbba72	-0.09947671
188	0xbdcee0f6	-0.10101502
189	0x3de79d14	0.11309257
190	0xbc70b950	-0.014692619
191	0x3de2d504	0.11075786
192	0xbd1b0be8	-0.03785315
193	0xbd55cf24	-0.052199498
194	0x3db2a87e	0.087235436
195	0x3dfe2d86	0.12411027
196	0x3c8be340	0.017076135
197	0xbdb875d2	-0.090068474
198	0xbcb6d2a8	-0.022317246
199	0xbcb825e0	-0.022478998
200	0xbd7a2000	-0.061065674
201	0xbd6889d0	-0.056772053
202	0x3dd5aaa2	0.10432936
203	0x3d29ec58	0.04148516
204	0x3dd097f8	0.10185236
205	0xbdfd8a60	-0.123799086
206	0xbdfcff48	-0.123533785
207	0xbd293824	-0.041313305
208	0xbdf7623a	-0.12079282
209	0xbd994034	-0.07482949
210	0xbd2607f4	-0.04053493
211	0xbcec8560	-0.028872192
212	0x3c9c2370	0.019059867
213	0x3d5bf30c	0.053698584
214	0xbd9eb700	-0.07749748
215	0xbd9f2244	-0.077702075
216	0x3ca42890	0.020038873
217	0xbd5194e0	-0.05116737
218	0xbd868da6	-0.06569986
219	0xbdb7d83a	-0.08976789
220	0xbccbef08	-0.024894252
221	0x3dde52ae	0.10855614
222	0xbb662e40	-0.0035122782
223	0x3d8fa204	0.07013324
224	0x3dec76a8	0.115460694
225	0x3cedd0f0	0.029030293
226	0x3d201eb8	0.039091796
227	0x3df60782	0.12013151
228	0x3cd11c30	0.025526136
229	0x3ddc4348	0.107550204
230	0x3dc91de6	0.09820156
231	0xbbd0dda0	-0.006374076
232	0x3de9df24	0.11419514
233	0x3dfaa8f8	0.122392595
234	0xbdf7df18	-0.12103099
235	0x3dc66f28	0.0968917
236	0xbdaf7296	-0.085667774
237	0x3d8653de	0.06558965
238	0x3d84cb96	0.064841434
239	0xbb3c1780	-0.002870053
240	0xbda6c308	-0.08142668
241	0xbde7cdb6	-0.11318533
242	0x3db7ad52	0.08968605
243	0x3d1a8460	0.0377239
244	0x3df9e46c	0.12201771
245	0x3db8210c	0.08990678
246	0x3df328ec	0.118730396
247	0x3dfe054c	0.12403354
248	0xbda226b2	-0.07917537
249	0xbdb3ca38	-0.087788045
250	0x3b23e140	0.0025006086
251	0x3d496598	0.049169153
252	0xbde6bff6	-0.112670824
253	0x3d685730	0.056723773
254	0x3de0d102	0.10977365
255	0xbdac5466	-0.08414535

fc2.bias f4 [64]
0	0xbdcbe868	-0.09956437
1	0xbd64a7f0	-0.05582422
2	0xbd421b38	-0.04738924
3	0x3d89b902	0.067247406
4	0xbd8bb0fc	-0.068208665
5	0x3d9b0158	0.07568616
6	0xbddb4f2e	-0.10708462
7	0x3ccb4038	0.024810895
8	0x3bab3fc0	0.0052261055
9	0x3de38986	0.11110215
10	0xbdf8646e	-0.121285304
11	0xbd2213d8	-0.039569706
12	0xbc72d5f0	-0.0148215145
13	0xbde7c44e	-0.11316739
14	0x3cbba4c0	0.022905707
15	0x3d1df064	0.038559332
16	0xbd6888d8	-0.05677113
17	0xbd85667e	-0.065136895
18	0x3d9a5c88	0.0753718
19	0x3b657080	0.0035009682
20	0xbccc03b0	-0.024904102
21	0xbd384ed0	-0.044997036
22	0xbdb8bbaa	-0.09020169
23	0x3c306210	0.010765567
24	0xbde56a16	-0.11201875
25	0xbd399cb8	-0.045315474
26	0xbcf786c8	-0.030215636
27	0x3d47ca08	0.048776656
28	0xbcb95e00	-0.02262783
29	0xbdb64ab2	-0.08900966
30	0x3c5dea00	0.0135445595
31	0x3c8fc298	0.017548844
32	0x3c6f37f0	0.014600739
33	0xbdb09392	-0.08621897
34	0xbd1dc494	-0.03851755
35	0xbd181b34	-0.037135318
36	0xbd458d84	-0.048230663
37	0x3dfdb04a	0.1238714
38	0xbd736f10	-0.05943209
39	0xbb01e400	-0.0019819736
40	0x3da82c38	0.08211559
41	0x3dd224b4	0.10260907
42	0x3c795770	0.015218601
43	0xbbd73c00	-0.006568432
44	0xbd0c9850	-0.034324944
45	0x3a3e3e00	0.00072571635
46	0xbd2ea17c	-0.042634472
47	0x3d48fbe8	0.04906836
48	0xbd35a310	-0.04434496
49	0x3c872d60	0.016501129
50	0x3df5ea42	0.12007572
51	0xbc0c9490	-0.008580342
52	0xbdc23ac8	-0.09483868
53	0xbdf1403c	-0.1177983
54	0xbda649c6	-0.0811954
55	0x3c6ec4d0	0.014573291
56	0x3da84522	0.08216311
57	0xbd8a1c54	-0.067436844
58	0x3deec252	0.116581574
59	0x3dbf22e2	0.09332825
60	0x3d3d36b0	0.046194732
61	0xbdb2d8fc	-0.08732793
62	0x3c997320	0.018731654
63	0x3dee5fb2	0.11639346

fc3.weight f4 [1, 64]
0	0xbdb957fa	-0.09049983
1	0xbdf8b5d0	-0.12144053
2	0xbd74a810	-0.05973059
3	0xbd529538	-0.051411837
4	0xbdf454d4	-0.11930242
5	0xbd3e13cc	-0.0464056
6	0xbd612d08	-0.054974586
7	0xbbc564a0	-0.0060239583
8	0x3dd5ae66	0.104336545
9	0xbd69dadc	-0.057093486
10	0x3d5e46b0	0.05426663
11	0x3c94f8c8	0.018185034
12	0xbc068160	-0.008209556
13	0x3d09f77c	0.033683285
14	0x3d06e710	0.032935202
15	0xbde6ff2c	-0.11279139
16	0xbde70e9c	-0.112820834
17	0xbcd25e58	-0.025679752
18	0xbdbc582a	-0.091965035
19	0xbdb5fee0	-0.08886504
20	0xbde57c12	-0.11205305
21	0xbcc031f8	-0.023461327
22	0x3dd38c00	0.10329437
23	0xbd4cea00	-0.050027847
24	0xbd1a7c1c	-0.037716016
25	0x3d39afe0	0.045333743
26	0xbcfa0db8	-0.03052412
27	0xbb642f80	-0.0034818351
28	0xbc985650	-0.018595845
29	0x3d701644	0.058614984
30	0xbdbd7f74	-0.092528254
31	0x3dc18b1e	0.094503626
32	0x3d72d264	0.059282675
33	0xbd8cb990	-0.06871331
34	0x3b448fc0	0.0029992908
35	0xbdb184ce	-0.086679086
36	0x3984a400	0.00025299191
37	0xbdbdd998	-0.09270018
38	0x3d6fc350	0.058535874
39	0x3dc19dd6	0.09453933
40	0xbd153edc	-0.0364369
41	0xbda33864	-0.0796974
42	0xbd876796	-0.06611554
43	0x3d8da7fa	0.069168046
44	0x3db1e114	0.08685508
45	0xbd380be4	-0.044933215
46	0x3d9cefb4	0.07662907
47	0xbbfd2f20	-0.007726565
48	0xbdd12f00	-0.10214043
49	0xbde50c6c	-0.1118401
50	0xbb83cb80	-0.004022062
51	0xbd9e2444	-0.07721761
52	0xbde33a5a	-0.11095114
53	0x3cc41c48	0.023939267
54	0xbdc16ad8	-0.09444207
55	0xbd36ea98	-0.04465732
56	0x3da2925a	0.079380706
57	0xbdf47f08	-0.11938292
58	0x3d7facd8	0.062420696
59	0xbdc2bb36	-0.09508364
60	0xbd94d488	-0.072670996
61	0xbda31ff6	-0.079650804
62	0xbb0c4440	-0.0021402985
63	0x3da69e48	0.081356585
