data/models/rl_aca_20250316_215047.pt (torch, 23198 bytes, 5 tensors)

fc1.weight f4 [64, 11]
0	0x3e518188	0.20459569
1	0x3e99131e	0.29897398
2	0x3d01e3e0	0.03171146
3	0x3dd5d03c	0.10440108
4	0xbd5243c0	-0.051334143
5	0x3e05f5e0	0.13082075
6	0x3e644f88	0.22295964
7	0xbe080598	-0.13283384
8	0x3e073b1c	0.13206142
9	0xbcbefd40	-0.023314118
10	0x3e270d0a	0.16313568
11	0x3dda88e8	0.10670644
12	0x3e00d3ae	0.1258075
13	0x3e212256	0.15735754
14	0xbdf5082c	-0.11964449
15	0xbde1811e	-0.11010955
16	0x3daba880	0.08381748
17	0x3c0e8ce0	0.008700579
18	0x3e86fb56	0.2636363
19	0x3c6e8340	0.01455766
20	0x3c8b5100	0.017006397
21	0xbe3229fd	-0.1739883
22	0x3e4fbb38	0.20286262
23	0x3e0ae7e2	0.13565019
24	0xbe83e00e	-0.25756878
25	0x3e9910a8	0.2989552
26	0x3e2d31f0	0.16913581
27	0xbe543da8	-0.20726645
28	0xbe6bd546	-0.23030576
29	0x3dd44c5c	0.10366127
30	0xbe8099f2	-0.2511745
31	0x3c3e3200	0.011608601
32	0x3e2b31f8	0.1671828
33	0x3e9450a6	0.2896778
34	0x3e8f7458	0.2801845
35	0xbdea8e92	-0.114529744
36	0x3e9940e8	0.29932332
37	0xbe11da89	-0.14243521
38	0x3df451c8	0.11929661
39	0x3e833596	0.2562682
40	0x3e93f894	0.28900588
41	0xbe60caf0	-0.21952415
42	0xbe560f44	-0.20904261
43	0xbe904e7a	-0.28184873
44	0xbc9861b0	-0.018601269
45	0xbca9b9e0	-0.020718515
46	0xbe12f6e8	-0.14352
47	0xbd658cb8	-0.056042403
48	0xbe0b93fd	-0.13630672
49	0xbe8608e3	-0.26178655
50	0xbdd55e66	-0.10418396
51	0xbe084a71	-0.13309647
52	0xbe291e5d	-0.16515489
53	0x3e10e57e	0.14150044
54	0x3e91c820	0.28472996
55	0xbe2f4a37	-0.17118154
56	0x3df16548	0.11786896
57	0xbe85516a	-0.26038677
58	0xbdd80380	-0.105475426
59	0xbe2fc615	-0.17165406
60	0x3e601a4c	0.21885031
61	0x3d335488	0.043781787
62	0xbe0ec764	-0.13943249
63	0x3db3c090	0.08776963
64	0xbd9bf7b8	-0.07615608
65	0x3e95e088	0.29272866
66	0x3d4b7fa0	0.04968226
67	0x3ddd1f10	0.1079694
68	0xb90b2800	-0.00013270974
69	0xbe86d211	-0.26332143
70	0x3e816550	0.25272608
71	0xbe559070	-0.2085588
72	0xbe6dcf5f	-0.23223637
73	0x3d82c67c	0.06385514
74	0x3e574904	0.21023947
75	0x3e373f42	0.17895225
76	0x3e7446ec	0.2385518
77	0x3e3a2978	0.18179882
78	0x3dd2f88c	0.10301313
79	0xbe983258	-0.2972591
80	0x3e102dd0	0.14079976
81	0xbe445262	-0.19172052
82	0xbe4a8537	-0.1977738
83	0x3e7a149c	0.24421924
84	0xbcf5f3e0	-0.030023515
85	0x3e10dac6	0.14145955
86	0xba197c00	-0.0005854964
87	0xbe35819c	-0.17725223
88	0x3e3fdbb6	0.18736157
89	0x3e0cb3f6	0.13740525
90	0xbe19cf29	-0.15020432
91	0x3e319cf2	0.17345026
92	0xbd853814	-0.06504837
93	0xbc55b580	-0.013043761
94	0xbda291fc	-0.079380006
95	0xbe84f4d2	-0.25968033
96	0xbe7846e2	-0.2424579
97	0xbe927508	-0.28604913
98	0x3d678230	0.05652064
99	0x3d978f40	0.0740037
100	0x3ded6ed8	0.115934074
101	0x3d4429c8	0.04789141
102	0xbe82af8e	-0.25524563
103	0xbe7adee6	-0.24499092
104	0xbe8b7040	-0.27234077
105	0x3e77d738	0.24203193
106	0x3e74c5c8	0.23903573
107	0xbdb3aebe	-0.08773564
108	0x3e0585fe	0.13039395
109	0x3e8108a6	0.2520191
110	0xbe363f41	-0.17797567
111	0x3d1af538	0.037831515
112	0x3e6b3330	0.22968745
113	0xbd95624e	-0.07294141
114	0x3e2a9260	0.166574
115	0x3e987cc0	0.29782677
116	0x3e90a326	0.28249472
117	0x3e92d980	0.28681564
118	0xbe095b24	-0.13413674
119	0xbe55a4ac	-0.20863599
120	0x3e896142	0.26832014
121	0x3def0320	0.11670518
122	0x3e6f9380	0.2339611
123	0xbe6947c0	-0.22781277
124	0x3e8e7b64	0.27828515
125	0xbe59cd51	-0.21269728
126	0xbd0bf3a0	-0.034167886
127	0x3cf5b920	0.029995501
128	0x3dabdd58	0.08391827
129	0x3e23cf38	0.15997016
130	0x3d6aaaa8	0.057291657
131	0xbd9c46b2	-0.076306716
132	0xbe28e045	-0.16491802
133	0x3e887884	0.26654446
134	0xbdfc7400	-0.12326813
135	0x3d94e28c	0.07269773
136	0xbe00b85d	-0.12570329
137	0xbe050c5f	-0.12993
138	0x3e833724	0.25628006
139	0x3ddc06e0	0.10743499
140	0x3e1aa232	0.15100935
141	0xbc9c54e0	-0.01908344
142	0x3e92a938	0.2864473
143	0x3e6160ec	0.22009629
144	0x3ddbb5f0	0.10728061
145	0xbdb84230	-0.08996999
146	0x3d48b330	0.04899901
147	0xbe1a8dad	-0.15093108
148	0x3e56be04	0.20970923
149	0x3e97881c	0.2959603
150	0x3d7ccb58	0.06171736
151	0x3bdf5ec0	0.006816715
152	0x3dfe7074	0.124237925
153	0xbe995165	-0.29944912
154	0x3c492160	0.012276024
155	0x3d1824e8	0.03714457
156	0x3e0e7e72	0.13915423
157	0x3e39adca	0.18132702
158	0x3dc9bd6c	0.098505825
159	0x3dc7cce8	0.0975588
160	0x3d68f538	0.056874484
161	0xbdf0fb68	-0.11766702
162	0x3df3ede8	0.119106114
163	0xbe4af2ca	-0.19819179
164	0xbe7f74a0	-0.24946833
165	0xbe30558e	-0.17220137
166	0xbe8a5b94	-0.27022994
167	0x3df7feec	0.12109169
168	0xbd3dd340	-0.04634404
169	0xbe84c534	-0.25931704
170	0x3e440c1c	0.19145244
171	0xbe0c5835	-0.13705523
172	0x3e714360	0.23560858
173	0x3e431822	0.19052175
174	0x3c36b2e0	0.011151046
175	0xbdbbe018	-0.09173602
176	0x3e68a154	0.22717792
177	0x3e8c899c	0.27448738
178	0x3d28fbf0	0.04125589
179	0xbe796fa3	-0.24358992
180	0x3e1bc6f2	0.1521261
181	0xbe25554e	-0.16145822
182	0xbe7d4765	-0.24734266
183	0x3e7b82d8	0.24561632
184	0xbcda42e0	-0.026643217
185	0xbe77d602	-0.24202731
186	0x3dc97558	0.09836835
187	0x3df559d0	0.11980021
188	0xbdb95d84	-0.0905104
189	0x3d73aae8	0.05948916
190	0x3e6e0718	0.23244894
191	0xbe6aeb44	-0.22941309
192	0x3d55b128	0.052170902
193	0x3e781048	0.24224961
194	0x3df7ca0c	0.12099084
195	0x3e60e41c	0.21962017
196	0xbe4e7d98	-0.20165098
197	0xbd968fcc	-0.07351646
198	0x3e0dfff6	0.13867173
199	0xbe9241f0	-0.2856593
200	0xbe56dd34	-0.2098282
201	0xbd961d6e	-0.07329832
202	0xbe8f0c36	-0.27939004
203	0xbdd53f52	-0.10412468
204	0x3e3ce22c	0.18445653
205	0xbc61d800	-0.013784409
206	0x3d35f358	0.044421524
207	0xbe88f53a	-0.26749593
208	0x3e8c0ff6	0.27355927
209	0x3e7f7e70	0.24950576
210	0xbe9258d9	-0.2858341
211	0xbe2d9f3d	-0.16955276
212	0x3e573898	0.21017683
213	0xbe84b939	-0.25922564
214	0x3e947408	0.28994775
215	0xbe5aa9da	-0.21353856
216	0x3e46500e	0.19366476
217	0x3e77af34	0.24187928
218	0x3d34f168	0.044175535
219	0xbe96d248	-0.29457307
220	0x3e647674	0.22310811
221	0xbc157b60	-0.009123653
222	0x3e8426a6	0.25810736
223	0xbe8fcc7f	-0.28085706
224	0x3d55d760	0.05220735
225	0xbd0ff5a8	-0.035146385
226	0xbe342d5b	-0.17595427
227	0x3e73ed4c	0.2382099
228	0x3e4b893c	0.1987657
229	0x3df4369c	0.119244784
230	0x3e872048	0.26391816
231	0x3cb899a0	0.022534192
232	0x3e95b41a	0.2923897
233	0x3e87eaac	0.26546228
234	0x3dbb079c	0.09132311
235	0x3e21353c	0.15742964
236	0xbe3122b7	-0.17298399
237	0xbe6c96d6	-0.23104414
238	0x3e0a7024	0.13519341
239	0x3e966ae8	0.29378438
240	0x3d8f2148	0.0698877
241	0xbe856298	-0.26051784
242	0x3d81a1ec	0.06329712
243	0xbd3dc2c8	-0.046328336
244	0x3e3e0c10	0.18559289
245	0xbdaf69b0	-0.0856508
246	0xbe4972ba	-0.19672671
247	0xbe5d9dcc	-0.21642226
248	0xbe2fc3a4	-0.17164475
249	0x3d2be308	0.04196456
250	0xbe477f9f	-0.19482277
251	0xbdded198	-0.108798206
252	0xbe23ced0	-0.15996861
253	0x3c939710	0.018016368
254	0x3ca91790	0.020641118
255	0xbdb5e856	-0.08882205

fc1.bias f4 [64]
0	0xbe80ff5d	-0.25194827
1	0xbda2dd5e	-0.07952379
2	0x3db0be68	0.08630067
3	0xbe289bcd	-0.16465683
4	0x3e650da0	0.22368479
5	0x3dde19a4	0.10844734
6	0x3e03bc10	0.12864709
7	0x3e158482	0.14601329
8	0x3da5be0c	0.08092889
9	0xbc0ca320	-0.008583814
10	0xbd9f4904	-0.077775985
11	0x3e675c5c	0.22593826
12	0xbda8861c	-0.08228704
13	0xbda6532c	-0.081213325
14	0xbe6d42ea	-0.23170057
15	0x3dc25bdc	0.09490177
16	0xbe08ede1	-0.13371994
17	0x3dd1c878	0.102433145
18	0x3db4a950	0.08821356
19	0xbe6e5a74	-0.23276693
20	0x3da89a0c	0.08232507
21	0xbe9113c9	-0.28335407
22	0x3e9978e0	0.29975033
23	0x3e08f066	0.13372955
24	0x3e7b224c	0.24524802
25	0x3e5d77f0	0.21627784
26	0x3e41158c	0.18855876
27	0x3e28a734	0.16470033
28	0x3e902efc	0.28160846
29	0xbe90510c	-0.28186834
30	0xbe8db472	-0.2767673
31	0x3d5e9750	0.05434352
32	0xbdbd29d0	-0.09236491
33	0x3d34f758	0.044181198
34	0x3d8b4e54	0.06802049
35	0x3e675c40	0.22593784
36	0xbdb832d0	-0.08994067
37	0xbdf0f97c	-0.11766335
38	0xbc7ea2a0	-0.0155417025
39	0x3d579358	0.052630752
40	0xbe6c0516	-0.23048815
41	0x3e573cfc	0.21019357
42	0x3e2a02e2	0.16602662
43	0x3e87f5e2	0.2655478
44	0x3defae70	0.11703193
45	0xbe42df2a	-0.19030443
46	0xbd24a1c0	-0.04019332
47	0xbce709c0	-0.028202891
48	0x3dfeb074	0.124359995
49	0xbd96585c	-0.07341072
50	0xbae2b900	-0.0017297566
51	0x3e103a7c	0.1408481
52	0xbdd9c490	-0.106331944
53	0xbe95b021	-0.29235938
54	0xbe72cdb2	-0.23711279
55	0xbe5df51a	-0.2167553
56	0xbe7fa28f	-0.24964355
57	0xbe1b235b	-0.15150206
58	0x3d44a050	0.04800445
59	0xbe7dfb60	-0.24802923
60	0x3e9088e4	0.2822944
61	0x3e8d96ea	0.276542
62	0x3e7d114c	0.2471363
63	0x3d222e88	0.039595157

fc2.weight f4 [64, 64]
0	0xbdcf7aac	-0.1013082
1	0xbdc6f130	-0.097139716
2	0x3dd880c6	0.105714366
3	0x3dc3125a	0.09524985
4	0x3d950cfa	0.07277866
5	0x3cf6d1d8	0.030129358
6	0x3ddc3ee6	0.107541844
7	0xbbd3cd80	-0.0064637065
8	0xbcbd7fa8	-0.02313216
9	0x3d630e98	0.05543384
10	0xbd9ac244	-0.075565845
11	0x3d3ac2b8	0.045595855
12	0xbde1aafa	-0.11018939
13	0x3d39c13c	0.0453503
14	0x3df94c32	0.12172736
15	0xbd7c5424	-0.06160368
16	0x3dd8700e	0.10568248
17	0x3dc42f70	0.095793605
18	0x3ad91280	0.00165613
19	0x3d5e54ac	0.05427997
20	0xbd4bb8b4	-0.049736694
21	0x3de91cc0	0.11382437
22	0x3dc36356	0.09540431
23	0xbb4c5940	-0.0031181127
24	0x3d7f6554	0.062352493
25	0x3c809a08	0.015698448
26	0xbbed6700	-0.0072449446
27	0xbd7b5838	-0.06136343
28	0xbc9754b8	-0.018473014
29	0xbc641c60	-0.013922781
30	0x3dcfa414	0.10138717
31	0x3d542200	0.051790237
32	0x3d377280	0.04478693
33	0x3c880f40	0.016608834
34	0xbdaa17f8	-0.08305353
35	0x3df6cc2e	0.12050663
36	0xbdb04e30	-0.08608663
37	0xbd9846fa	-0.07435413
38	0xbdb84e7e	-0.08999346
39	0xbd97c428	-0.07410461
40	0x3d82c7b0	0.063857436
41	0x3dd833ec	0.10556778
42	0xbdf217be	-0.11820935
43	0xbdc531ee	-0.09628664
44	0x3d8d96e6	0.06913547
45	0x3dd42006	0.103576705
46	0x3dcb8086	0.09936623
47	0xbdac6b70	-0.084189296
48	0x3cbdf890	0.023189813
49	0x3d1b6704	0.03794004
50	0x3da4650c	0.08027086
51	0xbdc10876	-0.09425442
52	0x3d80ca82	0.06288625
53	0xbd598920	-0.05310929
54	0xbdd97ec4	-0.10619882
55	0x3db64776	0.08900349
56	0x3d516e30	0.051130474
57	0xbda65dc8	-0.08123356
58	0xbd9cc150	-0.07654059
59	0x3b1faf80	0.002436608
60	0xbd1bde14	-0.038053587
61	0x3cd4f510	0.025995761
62	0x3d722a64	0.059122458
63	0xbdff1be8	-0.124564946
64	0xbc88ffd0	-0.016723543
65	0x3db93640	0.090435505
66	0x3d76ba54	0.06023629
67	0xbc98f838	-0.018673047
68	0xbc9965c8	-0.01872529
69	0xbd8fcdd4	-0.070216805
70	0x3c863e00	0.016386986
71	0xbdcbcf8c	-0.09951696
72	0x3c828fb8	0.015937671
73	0xbc9f8b58	-0.019475624
74	0xbbdbea60	-0.0067112893
75	0x3c21e360	0.009880871
76	0xbdcfa18a	-0.10138233
77	0xbdecd456	-0.11563937
78	0xbbc8eaa0	-0.006131485
79	0x3c23ec20	0.010005027
80	0x3b9473a0	0.004530385
81	0xbd79de5c	-0.061003074
82	0x3df966b6	0.12177794
83	0xbdbb349a	-0.09140892
84	0x39860e00	0.00025568902
85	0xbce494e0	-0.02790302
86	0x3d693914	0.0569392
87	0xbdcb38e0	-0.099229574
88	0x3cb39d68	0.021925643
89	0xbcd76b18	-0.026296183
90	0xbdf35132	-0.11880721
91	0xbb9955a0	-0.0046793967
92	0x3c6632b0	0.014050171
93	0x3d44df7c	0.048064694
94	0xbc83c6f0	-0.016086072
95	0x3c0cf4e0	0.008603305
96	0xbd67400c	-0.056457564
97	0x3d9fa3ce	0.07794915
98	0x3dd9061e	0.1059687
99	0x3c51b7e0	0.012800187
100	0x3d18afb0	0.037276924
101	0xbdde2076	-0.10846035
102	0x3d128fb8	0.035781592
103	0x3c8dcdc8	0.017310038
104	0x3d29ff28	0.0415031
105	0x3ddea81a	0.108719066
106	0x3dc2ae9a	0.09505959
107	0xbc8b0de0	-0.01697439
108	0x3ded41d2	0.1158482
109	0x3d8f4222	0.06995036
110	0xbd375a88	-0.04476407
111	0xbd75be98	-0.059996217
112	0xbda9fd00	-0.08300209
113	0xbabe8900	-0.0014536679
114	0xbda047f8	-0.07826227
115	0xbdc5b020	-0.09652734
116	0x3d1fabe4	0.038982287
117	0x3d495f54	0.049163178
118	0xbd2b59f4	-0.041833833
119	0x3d3da85c	0.046303138
120	0xba22cb00	-0.0006210059
121	0xbdea2a3e	-0.11433838
122	0x3da23a78	0.07921308
123	0x3be37ee0	0.006942615
124	0x3d66ec10	0.05637747
125	0x3d98e7a8	0.0746606
126	0x3d37fed0	0.044920743
127	0x3db5a7d8	0.08869904
128	0xbdaf534a	-0.08560808
129	0x3da3d12a	0.07998879
130	0x3dfbb42e	0.12290226
131	0xbd77da24	-0.06051077
132	0x3ced08d0	0.028934866
133	0x3d0af0a8	0.033920914
134	0x3d6debfc	0.05808638
135	0x3d851760	0.06498599
136	0x3d2ce2b0	0.042208374
137	0xbdc7b1bc	-0.09750697
138	0x3dcf0f28	0.10110313
139	0xbc9fb460	-0.01949519
140	0xbc086530	-0.008324906
141	0x3cc492f8	0.023995861
142	0x3dc7b500	0.0975132
143	0x3d3c6d28	0.046002537
144	0xbd8c4ac6	-0.068501994
145	0x3bd1a200	0.0063974857
146	0x3ced5418	0.028970763
147	0x3dd2eeb4	0.10299435
148	0x3cb08370	0.02154705
149	0xbd9672c0	-0.073461056
150	0xbcfbcce0	-0.03073734
151	0x3d0ed428	0.034870297
152	0xbb06f340	-0.0020591766
153	0xbddca282	-0.107731834
154	0xbdc81814	-0.097702175
155	0x3dce9446	0.10086875
156	0x3dad544c	0.08463344
157	0x3d409284	0.04701473
158	0x3d5cd108	0.053910285
159	0x3dc672f4	0.09689894
160	0xbddce448	-0.10785729
161	0xbdc574cc	-0.09641418
162	0x3dd2c1bc	0.10290858
163	0x3d9256c8	0.071454585
164	0x3ddacb5e	0.106833205
165	0xbdd386e4	-0.10328463
166	0x3d00e7a4	0.03147091
167	0xbd49a840	-0.04923272
168	0x3bb53d20	0.0055309683
169	0x3d3e4dc8	0.046460897
170	0xbc127430	-0.008938834
171	0x3dbea2ee	0.0930842
172	0x3da18e2e	0.07888447
173	0x3d702c50	0.05863601
174	0x3de07602	0.10960008
175	0x3cc4e2c8	0.024033919
176	0xbde280da	-0.11059733
177	0x3d426000	0.047454834
178	0x3ddc6cc8	0.10762936
179	0x3dd73e04	0.105098754
180	0x3ce0dde8	0.027449563
181	0x3d1fba10	0.038995802
182	0x3d9de51e	0.07709716
183	0xbdafd38a	-0.0858527
184	0xbdd0c868	-0.101944745
185	0x3dce9c80	0.10088444
186	0x3dc2c4d4	0.09510198
187	0xbd06be0c	-0.032896087
188	0xbb035940	-0.002004221
189	0x3d402408	0.046909362
190	0x3caa9150	0.020821244
191	0xbca90858	-0.020633861
192	0xbdaf5c08	-0.085624754
193	0xbda740c4	-0.0816665
194	0xbd93d476	-0.07218258
195	0x3d13763c	0.03600143
196	0x3dc52f1e	0.096281275
197	0x3df67f50	0.12036002
198	0x3da4ddb6	0.080501005
199	0xbd48b450	-0.049000084
200	0xbde71c38	-0.11284679
201	0x3dd96662	0.10615231
202	0x3dc17dfa	0.09447856
203	0xbde6dc7a	-0.11272521
204	0x3da7675e	0.081740126
205	0x3df1646c	0.11786732
206	0x3c83f340	0.016107202
207	0xbd61b8a4	-0.055107728
208	0x3db2b468	0.08725816
209	0xbd5164a0	-0.051121354
210	0xbdc94238	-0.09827083
211	0xbdeb4128	-0.11487037
212	0xbda63d2a	-0.08117135
213	0xbdc898e8	-0.097947896
214	0xbd759cf8	-0.05996415
215	0xbdfa48b2	-0.12220897
216	0x3d33ff70	0.043944776
217	0x3ddf64a8	0.109078705
218	0x3de60398	0.11231154
219	0xbdcd7626	-0.10032301
220	0xbdea645e	-0.11444925
221	0xbda59a4e	-0.08086072
222	0xbd1c28b4	-0.038124755
223	0x3d9328aa	0.071854904
224	0x3d0156a0	0.031576753
225	0xbcbfd840	-0.023418546
226	0x3cd08e60	0.025458515
227	0x3d522898	0.051308244
228	0x3df072aa	0.117406204
229	0xbdd87c48	-0.1057058
230	0xbcc7f0a8	-0.024406746
231	0x3de31a06	0.11088948
232	0xbd9856ee	-0.074384555
233	0xbda9d862	-0.08293225
234	0x3db15ce0	0.086602926
235	0x3d8f3f74	0.069945246
236	0x3dfd4cb2	0.12368144
237	0x3cfc85f0	0.030825585
238	0x3c771b40	0.0150821805
239	0xbd6e6394	-0.058200434
240	0x3debae76	0.11507885
241	0x3dca1004	0.09866336
242	0x3df6027a	0.12012191
243	0xbbd01c40	-0.006351024
244	0xbdd20ec2	-0.10256721
245	0xbdbe3388	-0.092871726
246	0xbd9b8576	-0.07593815
247	0xbcee6d38	-0.029104814
248	0xbb841ba0	-0.0040316135
249	0x3df075e2	0.11741234
250	0x3d1a6b98	0.037700266
251	0x3de6d6e0	0.11271453
252	0xbce133c0	-0.027490497
253	0x3dffeffc	0.12496945
254	0x3dc28630	0.094982505
255	0xbdf870b0	-0.121308684

fc2.bias f4 [64]
0	0xbd451c0c	-0.04812245
1	0x3ba8d2a0	0.0051520616
2	0xbdf867f0	-0.121291995
3	0xbc49a2c0	-0.012306869
4	0x3d0a32a0	0.033739686
5	0x3acbae80	0.0015539676
6	0xbd9c2832	-0.07624854
7	0xbccad6d0	-0.024760634
8	0xbdb73f68	-0.08947641
9	0xbbd66260	-0.006542489
10	0x3d729d80	0.059232235
11	0x3deca6be	0.11555241
12	0xbced6e90	-0.028983384
13	0xbd1e7760	-0.038688064
14	0xbcf8f700	-0.030391216
15	0xbdf2c0fa	-0.118532136
16	0xbd09f8d8	-0.03368458
17	0xbded9c12	-0.11602034
18	0xbcc4e140	-0.024033189
19	0xbdfc789c	-0.12327692
20	0xbc13fad0	-0.009031966
21	0x3dcfbd2e	0.10143505
22	0x3cc0d0e8	0.023537114
23	0x3dbcdf38	0.09222263
24	0xbdfcccd0	-0.123437524
25	0xbd0b492c	-0.03400533
26	0xbd958604	-0.07300952
27	0x3dcd9228	0.10037643
28	0x3c123360	0.008923382
29	0x3d9a0584	0.07520583
30	0xbd598f14	-0.053114966
31	0x3df79cbe	0.12090443
32	0x3de16d4c	0.11007175
33	0xbdfd9430	-0.1238178
34	0x3ddcb1ea	0.10776122
35	0x3db0da98	0.086354434
36	0xba84cc00	-0.0010131598
37	0xbd90b7e2	-0.07066323
38	0x3ded18cc	0.11576995
39	0xbd20a010	-0.039215147
40	0xbdd96608	-0.10615164
41	0xbce74d30	-0.028235048
42	0x3d533948	0.0515683
43	0x3df290fc	0.1184406
44	0x3db710de	0.08938764
45	0x3c5af1c0	0.013363302
46	0xbdb7501a	-0.08950825
47	0xbdb3e600	-0.087841034
48	0x3b866c20	0.004102245
49	0x3dbf85b0	0.09351671
50	0xbd36f9b4	-0.04467173
51	0xb9973c00	-0.00028845668
52	0x3df9822a	0.1218303
53	0xbd9e84c2	-0.07740165
54	0xbda21348	-0.07913834
55	0xbda0d43e	-0.07852982
56	0xbd042ea4	-0.032271042
57	0x3dd1bfbe	0.1024165
58	0xbdab5354	-0.08365503
59	0xbca9bef8	-0.020720944
60	0xbcac4470	-0.021028727
61	0xbde7f9ce	-0.11326943
62	0x3df2a804	0.11848453
63	0x3dad39aa	0.08458264

fc3.weight f4 [1, 64]
0	0x3d81f882	0.06346227
1	0xbcd66648	-0.026171818
2	0x3c338b20	0.010958463
3	0xbdf3105c	-0.11868355
4	0x3d953fa0	0.07287526
5	0x3d199100	0.0374918
6	0xbdb479be	-0.08812283
7	0xbdc1a02a	-0.09454377
8	0xbcc20508	-0.02368404
9	0x3df10616	0.11768739
10	0x3d5bb48c	0.05363898
11	0x3cc79168	0.024361327
12	0xbd65f748	-0.05614403
13	0xbdb94340	-0.0904603
14	0xbc425140	-0.011860192
15	0xbdcd974e	-0.10038625
16	0xbdf70762	-0.12061955
17	0x3dca9c5a	0.09893103
18	0xbd5fbde0	-0.05462444
19	0x3dea5ed4	0.11443868
20	0xbd7b298c	-0.06131892
21	0x3c4e0c20	0.012576133
22	0x3df01e5a	0.11724539
23	0x3dc7124c	0.09720287
24	0x3dc4e44c	0.09613857
25	0x3d68b9d0	0.05681783
26	0xbb5c5800	-0.0033621788
27	0xbdba15a8	-0.09086162
28	0x3de13388	0.10996157
29	0x3ce2def0	0.027694196
30	0x3cf38bd8	0.029729769
31	0xb939f000	-0.00017732382
32	0x3d2357fc	0.03987883
33	0x3d9d2b88	0.076743186
34	0x3d898426	0.067146584
35	0x3d73c8d0	0.05951768
36	0xbdb34632	-0.08753623
37	0xbc7adc90	-0.015311375
38	0x3c9a2a30	0.018818945
39	0x3cce1ac0	0.02515924
40	0x3d9c56f6	0.07633774
41	0x3d8fb952	0.07017769
42	0x3df0219e	0.11725162
43	0xbd201724	-0.03908457
44	0xbdd6427a	-0.10461898
45	0xbdf0de40	-0.11761141
46	0xbda9f8d6	-0.08299415
47	0x3dd38aa2	0.103291765
48	0x3acf6400	0.0015822649
49	0x3d673cf8	0.05645463
50	0x3c333560	0.010938019
51	0x3dd87284	0.10568717
52	0xbc3a4d40	-0.011370957
53	0xbdd96382	-0.10614683
54	0xbd254554	-0.04034932
55	0x3d9f62ec	0.0778254
56	0x3de122f4	0.10992995
57	0xbd11c2b8	-0.03558609
58	0xbd1e1a60	-0.038599372
59	0x3d002f7c	0.031295285
60	0x3d8e0aa0	0.0693562
61	0xbdba05c8	-0.09083134
62	0x3d2c5f3c	0.04208301
63	0xbce43540	-0.027857423
