data/models/rl_aca_20250316_215314.pt (torch, 23198 bytes, 5 tensors)

fc1.weight f4 [64, 11]
00000000: dede 923e b859 7b3e f95d 46be 04f3 cd3d
00000010: 2124 93be fa72 fcbd c056 75bc 309f c03c
00000020: 57b7 98be 5041 f93d faf6 51be 762c 43be
00000030: 9000 653e 8c55 663e 3c73 85bd 3ab7 4fbe
00000040: 7ca2 8c3e c6bf 2dbe 00c8 2239 b88f 413e
00000050: 942a 9b3d eec4 91bd 312d 81be e07f 33be
00000060: 4a61 fdbd 24d9 863e 809a 593b cc11 8b3e
00000070: b6ff 81bd 827a 383e 0ca2 ad3d e410 fd3d
00000080: 68bf 583e 4830 8e3e 3c80 8cbe 9c3d 4d3e
00000090: 400b 99be c8fb 46bd 90f7 4d3e cece 3ebe
000000a0: 528a 453e 701b 983c 8844 0c3d 9048 10be
000000b0: 76f9 d0bd a669 e7bd d260 67be fa23 803e
000000c0: e85a 0cbd 7577 80be c43d 403e 5ee6 2d3e
000000d0: fef0 453e e28a 0d3e 867c 3dbe a8fb 24bd
000000e0: b21b 403e defb 053e 36d3 263e 84ce 5cbe
000000f0: c429 5bbd e029 e83d 8833 893e 8075 0dbb
00000100: a304 23be 94a8 6b3e c0f6 813e e8ec 903e
00000110: 608b 683e e833 003e aac4 233e e016 a0bc
00000120: 6030 f23d 7823 10be c0a8 17be f0b5 aa3d
00000130: 0a17 3bbe 76ea 303e 3039 233e d078 093d
00000140: c019 6c3c 60f8 2e3e 65df 36be a0b9 3c3e
00000150: e225 debd 34ab 1dbe 0295 aebd 660b 903e
00000160: 3840 843e f47c 84be 1838 d03d bebf f6bd
00000170: f27f 023e 82a3 273e 0048 a9bd fccb 85be
00000180: 34e2 fc3d 864c 3e3e e24c 73be e07a 3a3e
00000190: aea9 8dbe d48c 7e3e 041a d5bd 0016 cbbb
000001a0: 7c0b 1d3e 51f2 87be 7e25 87be 00ca 13ba
000001b0: d66b 12be 2868 393d 000d 2abe 5003 87bc
000001c0: eee6 01be a0ce 45be 00e5 59bb 1a6d 9ebd
000001d0: ddd8 44be ccde 69be decf 043e a435 ebbd
000001e0: 8063 6abc a486 603e 7060 773e f8bc 3c3d
000001f0: 12cc 6abe 854a 93be 74ef 163e 2656 95bd
00000200: 58fc b53d 3466 f63d 184e f7bd 7d72 96be
00000210: 0073 43bc 40b6 ac3b 44f3 d43d 9cb8 923e
00000220: 6c1d 4abe 547e b4bd 5ce7 a43d 603e 8a3c
00000230: 3c8f bfbd 546a 713e d6f5 96be be9c 973e
00000240: 7baa 6bbe c0f1 ea3b e1c2 95be fa1a 77be
00000250: 80ba 483e 20a2 6b3d 25f9 07be 645d 2fbe
00000260: 7012 d2bc 92e4 8a3e 0a29 203e b051 e53c
00000270: 72bb 193e ca3c 8fbe 8e59 dfbd 4055 a3bb
00000280: 2255 79be eed9 2d3e 70eb 813e dace 5dbe
00000290: bad5 8a3e a832 5c3e 10f9 a4bc d862 063e
000002a0: 281f f33d 8c1d 8cbe ce26 6abe d84c 363e
000002b0: f87c d63d 5c54 c33d 8869 0bbd 9057 9e3d
000002c0: 7099 d83d 2085 293c 0c7c 0c3e 2326 98be
000002d0: b945 68be 5a63 8ebe 006d 6d3e a4ac 933e
000002e0: 0873 7e3d d012 20bd f05a 6e3e eeae 62be
000002f0: c82e 8e3e ecce 8cbe a8c0 603e d900 82be
00000300: 80ca 18be 1cdc 66bd 2ea7 813e 2146 56be
00000310: 07c4 92be 3024 51be 30b6 c0bc 4027 c83d
00000320: ecde a43d 9139 8ebe 589b c93d 64ff 3abe
00000330: ee75 1c3e 649c a2bd d8fc 913e 82ee 923e
00000340: 0023 4f3c 1c61 54be bc50 fabd 003d 21bc
00000350: 6c03 6c3e c049 f53b b03e 9f3c dccb 903d
00000360: 7c07 b83d a070 3fbd 9cdc 7d3e 3ce6 c63d
00000370: 3a1d 8dbd 6253 b4bd f432 5a3e 674a 41be
00000380: f05c 9f3d 58e1 b7bd 1a75 f1bd f0fd 783d
00000390: 805e 5e3e 123c 08be 27b4 00be b0d2 9cbc
000003a0: 02e9 7ebe b421 b1bd 28f3 843e eaff 2ebe
000003b0: 74fe ebbd ecc1 683e d02b d73c a0cb 7e3e
000003c0: 00a0 8abb 9e71 193e 1202 063e d4df 54be
000003d0: c083 163d 04ea d13d cd12 4abe dc1e da3d
000003e0: 1619 93be 14ba 653e a078 433e 0e34 88be
000003f0: 88fe 8dbe 1831 353e 1b4d 97be ae27 933e
0.2868566 0.24545944 -0.19371785 0.10056117 -0.28738502 -0.123266175 -0.014974296 0.023513407
-0.29827377 0.121706605 -0.2050437 -0.19059929 0.22363496 0.22493571 -0.0651612 -0.20284739
0.27467716 -0.16967687 0.0001552403 0.1890248 0.075764805 -0.071176395 -0.2522979 -0.17529249
-0.12372072 0.2633754 0.0033203661 0.27162015 -0.06347601 0.18015483 0.084781736 0.12356737
0.21166766 0.2777121 -0.27441585 0.20043033 -0.29891396 -0.04857996 0.20113969 -0.18633577
0.19291046 0.01856777 0.034245044 -0.1409018 -0.10203831 -0.11299448 -0.22595528 0.25027448
-0.034266382 -0.25091138 0.18773562 0.1698241 0.19330212 0.13822511 -0.18504533 -0.04027906
0.18760565 0.13084361 0.16291508 -0.21563154 -0.053506628 0.11336112 0.26797128 -0.0021584928
-0.15919738 0.23013526 0.25383568 0.28305745 0.22709417 0.125198 0.1599299 -0.019542158
0.11825633 -0.1407603 -0.14810467 0.08335483 -0.18270507 0.1727694 0.15939784 0.03356248
0.014410436 0.17086935 -0.17858656 0.18430185 -0.10847069 -0.1539734 -0.08524515 0.28133696
0.25830245 -0.25876582 0.10166949 -0.12048291 0.1274412 0.16370967 -0.08265686 -0.2613219
0.12347832 0.18583879 -0.23759797 0.18210936 -0.27668518 0.24858409 -0.10405353 -0.006197691
0.15336412 -0.2655206 -0.26395792 -0.00056377053 -0.14298949 0.045265347 -0.16606522 -0.016481072
-0.12685749 -0.19317102 -0.0033248067 -0.07735653 -0.19223352 -0.22838897 0.1296992 -0.114848405
-0.014305949 0.21926361 0.24157882 0.046078652 -0.22929409 -0.2876779 0.14739782 -0.07291822
0.088860214 0.120312124 -0.12075442 -0.29384223 -0.011929274 0.0052707493 0.10397962 0.2865647
-0.19737786 -0.08813158 0.08051941 0.016875446 -0.09353492 0.23575717 -0.29484433 0.29611772
-0.23014252 0.007169932 -0.29250243 -0.24131384 0.19602394 0.05752766 -0.13278635 -0.1712547
-0.025643557 0.2712751 0.15640655 0.027993053 0.15012911 -0.27976066 -0.10905753 -0.004984528
-0.24348882 0.16977665 0.25374937 -0.21660939 0.27116185 0.21503699 -0.020138294 0.13123643
0.11871177 -0.27366292 -0.22866365 0.17802751 0.10473055 0.09537575 -0.03403619 0.07731545
0.10576141 0.010346681 0.13719195 -0.29716596 -0.22682847 -0.27810174 0.23186111 0.28842652
0.06212142 -0.03908044 0.23276877 -0.22137043 0.27770066 -0.2750162 0.21948493 -0.25391272
-0.14920998 -0.056362256 0.2532286 -0.2092519 -0.28665182 -0.2042396 -0.023524374 0.09773111
0.080503315 -0.27778295 0.098440826 -0.18261486 0.15279362 -0.079399854 0.28513217 0.28697592
0.012642622 -0.2074017 -0.1222243 -0.009841204 0.2304818 0.0074855983 0.019439071 0.07070133
0.089858025 -0.046738267 0.24791187 0.097118825 -0.0689034 -0.088049665 0.213085 -0.18876038
0.07781398 -0.08978528 -0.117899135 0.06078905 0.21715736 -0.13304165 -0.12568723 -0.019143432
-0.24893573 -0.086490065 0.25966763 -0.17089811 -0.115231425 0.22730225 0.026266009 0.24882364
-0.0042304993 0.14984748 0.13086727 -0.20788509 0.03674674 0.10249713 -0.19733734 0.10650417
-0.28730077 0.22434264 0.19088984 -0.26602215 -0.27733254 0.17694509 -0.29551014 0.2874121

fc1.bias f4 [64]
00000000: ffae 33be 92e8 57be ca7d 8d3e 588d da3d
00000010: f0eb 44bd a0aa 733d 6ee1 1b3e 7c04 d2bd
00000020: 492f 8ebe 3cd1 63be d0da 9dbd a8a3 653d
00000030: 0013 a33b c27c 0d3e 00e2 bcbd 2ce4 ad3d
00000040: 694a 4ebe 00dd cf3c b070 f5bd 517e 89be
00000050: 34d5 e2bd 00ac 3c3d b62c 62be de91 813e
00000060: ca26 72be 0430 cb3d ec1f 793e 28e2 463e
00000070: 8b9c 8bbe 4863 51be 8570 0ebe f00a 243d
00000080: 22b4 76be 8ccc c03d 38ce 66be 5619 f1bd
00000090: 700d 843d 7802 763d 4409 c4bd 0a69 39be
000000a0: 3026 0abd a6ef 833e 809a 9d3d 1017 5dbd
000000b0: 1017 c83c 5098 c23c 845f 543e f4c8 b63d
000000c0: e8be e3bd 90c7 00be 0454 3a3e e0fb f8bd
000000d0: f8bc 7a3d 10ef 3ebd 29a0 0bbe d97c 24be
000000e0: 1263 993e 50ba 653d 2c35 743e 027d 253e
000000f0: a05d 9a3e 805b a43b a07c 4b3e 80fc e53d
-0.17547224 -0.21084812 0.27635032 0.106714904 -0.04807657 0.059488893 0.15222713 -0.102547616
-0.2777045 -0.22247785 -0.07707751 0.056064278 0.00497663 0.13817123 -0.092227936 0.08490786
-0.20145573 0.025373936 -0.11984384 -0.26854184 -0.110758215 0.04606247 -0.22087368 0.253066
-0.2364761 0.09921268 0.24328583 0.1942221 -0.2726787 -0.20448029 -0.1391011 0.040049493
-0.24092153 0.09414014 -0.22539604 -0.117724106 0.064478755 0.060060948 -0.0957208 -0.18106475
-0.033727825 0.25768775 0.07695484 -0.053977072 0.02442506 0.023754269 0.20739561 0.089250475
-0.11120397 -0.12576127 0.18196112 -0.12157416 0.06121537 -0.046614707 -0.13635315 -0.1606325
0.29958397 0.056085885 0.23848408 0.16160968 0.30149555 0.0050157905 0.1987176 0.11229801

fc2.weight f4 [64, 64]
00000000: 2cd0 09bd 16ac ebbd a039 63bc 9226 b8bd
00000010: d645 bc3d a0cc 59bc 7877 c2bd faa6 85bd
00000020: 9ad1 dcbd 3251 8f3d c8b7 a03c 74c2 233d
00000030: 80f9 e93b 5c4b a23d 767c e43d 7449 9b3d
00000040: c0df 80bb b4dc 663d 8097 ffbc b6f1 a73d
00000050: a209 adbd 6637 aabd 7c69 aebd b8f8 dcbd
00000060: 88d4 0c3d 0414 04bd fc8f 37bd 2054 843d
00000070: cedd 82bd b408 813d 6acc 983d b0f5 073c
00000080: 7833 f3bc 3207 d0bd e06e acbb 9ab8 f33d
00000090: 74b1 75bd f447 dcbd b828 b4bc 0000 b9bb
000000a0: 50a1 8c3d f697 a43d 9e74 fabd ce9f 943d
000000b0: 8002 9dbb 40ee 03bc 50d7 e33c 40c1 d63b
000000c0: a094 babb 388f 843c 6080 703d 86d6 a23d
000000d0: 36f3 d23d 244b 5ebd 28ed e33d 30c8 0abc
000000e0: e486 7abd c859 3bbd 7822 e43d 3012 8c3c
000000f0: d43f 093d 301c 6dbd 34b7 66bd 3a23 d8bd
00000100: 3040 663c e864 63bd a0a5 083d 4070 1abc
00000110: 9c36 4c3d 00dd cebc 40dc aebb 4459 ac3d
00000120: 8846 c8bd ac6d b3bd 58e9 10bd 5c7b 543d
00000130: b8b8 413d 46d9 d7bd 2e48 dfbd 406b 9cbb
00000140: fcdb 923d c041 b9bd f0c4 c7bc 0011 f4bb
00000150: 288f d2bd a68b c73d d8a4 c3bd b8ee 54bd
00000160: 282c 9b3d 8804 a93c 3678 e93d f8c1 1c3d
00000170: 3008 ea3c a059 873b d05a cc3c a845 cc3d
00000180: 5664 903d fc0f 1ebd e030 043c 20f8 ec3d
00000190: 38d2 fcbd b0f1 e03c b86c ebbc ec7c 663d
000001a0: 3835 ebbd ec36 14bd 2e2b ab3d 54cf 9a3d
000001b0: dec8 b23d a039 72bc 3259 cabd 40a6 523d
000001c0: 98e7 dabd fc01 c43d 46db b0bd 507f 0ebd
000001d0: 8a2a c2bd d278 f23d 222a a0bd c860 a13d
000001e0: 9257 97bd f048 e1bd f0d9 ebbd 56c6 cf3d
000001f0: 8418 0b3d a89c d9bc e04e 4bbd 4847 6fbd
00000200: c28f 83bd e0df bdbd 2030 ef3d 2aa6 fe3d
00000210: 1ed8 f9bd cc55 d23d 90c3 d1bc a237 f8bd
00000220: 6a5b 80bd f8fb 90bc 38d7 b93c 00c1 153a
00000230: ec88 73bd 6247 db3d 2c86 06bd 801c 2bbd
00000240: ced9 e23d c0c5 f7bc e074 903b 6065 7d3d
00000250: c0c6 bdbc ac9e fe3d 40b8 383c 9e99 fe3d
00000260: 8011 24bb e402 ce3d 7827 ac3d c017 16bb
00000270: 0052 0b3d 106e 77bd 3079 f03c 0ea2 c9bd
00000280: e0bf f53b a033 873d 2463 81bd f019 d5bd
00000290: 66b8 aabd 4846 e33c 54d0 7a3d 246c 1e3d
000002a0: b0b2 72bc b013 8e3d 5c96 003d 6aa7 e83d
000002b0: 6c4d cfbd 00a9 803d 1038 46bc 70d8 c63c
000002c0: 18b2 a43c 1cf4 86bd 041c 253d 44c2 f1bd
000002d0: 544e 163d f65d 933d 6c7a ea3d fceb b9bd
000002e0: 382f c63c e006 fa3c e428 ad3d fed8 bfbd
000002f0: 8a36 803d 5869 c5bd ec4f a63d 308a 0c3c
00000300: c4ea af3d 80f9 693d 00b9 633a 4026 69bb
00000310: 2c03 83bd 60f6 353d 20d5 ca3c cc8e 493d
00000320: 72b4 90bd 9841 573d 80cb 8b3b 40e4 653b
00000330: 1813 613d 4004 88bb f8e9 8fbc f285 ffbd
00000340: 58ba b33d b0e7 1bbd f4f0 e33d 70ce 3ebc
00000350: 0e39 dcbd fcff 53bd ec99 b23d 40db 47bc
00000360: 48aa ea3d 9859 b43d 7c2e 3f3d 9467 c73d
00000370: 9461 b8bd b407 073d 4840 51bd f8e2 513d
00000380: c066 343d 9c78 0a3d 0e50 893d 0079 e1bc
00000390: a009 7ebc 30bd 163c 5a36 d33d 5c4a 423d
000003a0: 2442 b1bd 3c44 debd a023 bd3d 5005 033c
000003b0: 92dc f73d 180f bdbc e065 5fbc d038 a8bc
000003c0: c00a e9bd 888c d53d 2674 bfbd 9205 a23d
000003d0: 8cb3 4ebd ec54 debd c0d9 4ebd 083d 3b3d
000003e0: 8003 cfbb 3a69 f83d c0e8 753d 80dd 4cbc
000003f0: 7836 76bd d8e6 fbbc bccb 7cbd f824 103d
-0.033645794 -0.11507432 -0.013868719 -0.08991732 0.09193008 -0.013293415 -0.09495443 -0.06525989
-0.10782166 0.06997909 0.019618884 0.039980367 0.0071403384 0.0792453 0.111565515 0.075823694
-0.003932923 0.056362823 -0.03120017 0.082003996 -0.08449103 -0.08311348 -0.08516213 -0.10789627
0.034382373 -0.03224565 -0.04481505 0.06461358 -0.06389962 0.06300488 0.07460864 0.008298323
-0.029687628 -0.101576224 -0.005262241 0.11900444 -0.059983686 -0.107559115 -0.021992072 -0.005645752
0.068667054 0.08036797 -0.12229274 0.07257043 -0.004791558 -0.008052409 0.02781263 0.006553799
-0.005693987 0.016181573 0.058716178 0.07951073 0.10300295 -0.05427088 0.11129218 -0.00847058
-0.061163798 -0.04573992 0.11139387 0.017098516 0.033508137 -0.05788821 -0.05632706 -0.10553594
0.014053389 -0.055516154 0.033361077 -0.009426177 0.049856767 -0.025251865 -0.0053363144 0.084154636
-0.09779078 -0.087611526 -0.035378784 0.051875457 0.047295302 -0.105394885 -0.10902439 -0.0047735274
0.07170865 -0.09045744 -0.0243859 -0.0074483156 -0.10281211 0.09743433 -0.09552926 -0.051985472
0.075767815 0.020632043 0.113998815 0.03827092 0.028568357 0.004130557 0.024945647 0.099742234
0.070503876 -0.038589463 0.008068293 0.115707636 -0.123447835 0.027458996 -0.028738365 0.05627148
-0.1148476 -0.03618519 0.08357845 0.07559076 0.087297186 -0.014784247 -0.09880294 0.05142808
-0.10688704 0.09570691 -0.08635573 -0.034789383 -0.0948077 0.11839451 -0.07820536 0.07879788
-0.073897496 -0.1100024 -0.11516178 0.101452515 0.033958927 -0.026563957 -0.049635768 -0.05841759
-0.06423904 -0.092712164 0.11679101 0.12434037 -0.12199424 0.10270271 -0.025605947 -0.12119986
-0.06267436 -0.017698273 0.022685632 0.0005712658 -0.05945675 0.107069746 -0.0328428 -0.041775227
0.11076699 -0.030245662 0.004408464 0.061864257 -0.02316606 0.12432608 0.011274397 0.12431644
-0.0025034845 0.10059145 0.084059656 -0.002290234 0.03401375 -0.0604077 0.029354662 -0.098453626
0.00749968 0.066016436 -0.06317738 -0.10405338 -0.083359525 0.027743474 0.061233833 0.03867735
-0.01481311 0.06937349 0.031393394 0.11360057 -0.10122189 0.06282234 -0.012098327 0.024273127
0.020104453 -0.06589529 0.04030992 -0.11804631 0.036695793 0.07195656 0.11449131 -0.090782136
0.024192438 0.030520856 0.08455065 -0.0936756 0.062604025 -0.09639233 0.08120713 0.008577868
0.085897 0.057122707 0.000868693 -0.0035575777 -0.06397089 0.044424415 0.024759829 0.049208447
-0.07065667 0.05255279 0.0042662024 0.0035078675 0.05494985 -0.0041508973 -0.01756762 -0.1247672
0.087757766 -0.03806275 0.111299425 -0.011645898 -0.1075307 -0.051757798 0.087207645 -0.012198269
0.1145826 0.08806151 0.04667519 0.09736553 -0.090029866 0.03296633 -0.051086694 0.051241845
0.044043303 0.03380643 0.06704722 -0.027523518 -0.0155052245 0.009200379 0.10313101 0.047434196
-0.086551934 -0.108528584 0.092353106 0.007996872 0.12102617 -0.023078486 -0.013635129 -0.020534903
-0.113790035 0.10427195 -0.093483254 0.07911219 -0.050464198 -0.10856041 -0.05050063 0.0457125
-0.006317556 0.121294454 0.06003642 -0.012503982 -0.06011054 -0.030749723 -0.061717734 0.035191506

fc2.bias f4 [64]
00000000: 206b ea3b ca70 c13d 2845 b4bd 1442 40bd
00000010: 78fa 303d 0e2e a03d e206 eebd f06b 63bd
00000020: 3e09 c0bd c218 8a3d 20f7 d63c ac0a edbd
00000030: 1ab5 ea3d cc26 a73d 36e8 9ebd ac05 9dbd
00000040: 38c3 c8bd f4b8 a93d b47e 8f3d f082 e5bc
00000050: ae09 9d3d a04c ac3c d4be 6e3d 0638 e73d
00000060: 40b1 d8bc bc02 183d a8be d9bd cee1 8abd
00000070: e034 0b3c ce7b 94bd dea7 d73d f8da 91bc
00000080: 840d ecbd 7a7d df3d 4422 3f3d 1688 f63d
00000090: de03 84bd 26bb 933d 004b d4ba d05e d4bc
000000a0: d4fb 4dbd fc69 433d d8c3 d2bd 7c44 603d
000000b0: e8a0 5b3d bc8e c3bd dc22 4bbd ce9d efbd
000000c0: 4069 7d3c 5ed3 883d e2b5 f23d 9848 7abd
000000d0: 60cd 0dbd b661 acbd 04ba a8bd 1007 7fbd
000000e0: 82c4 81bd 4806 b3bd f258 8f3d 600b 763c
000000f0: 48cb d6bc 42a1 9e3d 6efa e9bd 68df 36bd
0.0071538836 0.09445341 -0.08802253 -0.046938017 0.043207616 0.07821284 -0.116224065 -0.05552286
-0.09376763 0.067430034 0.026240885 -0.11574301 0.11460324 0.08161697 -0.077591345 -0.076670974
-0.0980286 0.0828723 0.070065886 -0.028016537 0.07667862 0.021032631 0.058287457 0.112899825
-0.026451707 0.037111983 -0.10632068 -0.0678135 0.008496493 -0.07250176 0.10530065 -0.017804608
-0.115260154 0.10912605 0.046663538 0.12037675 -0.0644605 0.0721343 -0.0016196668 -0.025924116
-0.05028899 0.047708496 -0.102912605 0.05475281 0.05362025 -0.09548709 -0.04959379 -0.11700021
0.015466988 0.0668094 0.11851098 -0.061104387 -0.03461969 -0.084170744 -0.08238605 -0.062262595
-0.06336309 -0.087414324 0.06999387 0.01501736 -0.026219979 0.07745601 -0.11424719 -0.04464665

fc3.weight f4 [1, 64]
00000000: 6a9f c1bd b8b9 8e3c 2cbc 28bd 9a31 da3d
00000010: 40ec 8f3b 92fb a53d 50ba 46bd 8854 6cbd
00000020: 482d 2c3d 9400 983d d8ca 593d ecfe b03d
00000030: 807b 383b e4a3 963d d091 6cbd ac67 e23d
00000040: 5eae f7bd 2aa1 af3d 3861 943c 206a e8bb
00000050: 1632 c3bd c834 063d e04d 23bd 8601 a33d
00000060: 4c9b 333d 10c0 96bd c0f0 ee3c 3ccd 9d3d
00000070: 6ab7 cbbd 581b ef3c c0ce babc 5843 723d
00000080: c0c5 01bd 8417 ec3d 9abb df3d f03b 0f3c
00000090: c890 abbc 1e6e d33d 1ec0 a5bd ec4a 76bd
000000a0: 66cf 97bd a0ca f9bd 80ef d53d e45c 8cbd
000000b0: 7e85 d53d b0a7 913c 28ee 63bd b831 67bd
000000c0: c845 863d 4045 8a3c 00ed 393b 50fa c83c
000000d0: 76b6 afbd c83f 81bc ea76 c73d 304b f33c
000000e0: c886 8e3c fcfd 263d dc67 703d 7806 c6bc
000000f0: a4cc 72bd fc91 c03d 3458 17bd 908b 7d3d
-0.09454234 0.017422542 -0.04119508 0.10653992 0.004392177 0.08104624 -0.048517525 -0.057697803
0.04203537 0.07421985 0.053171962 0.086423725 0.0028149784 0.073554784 -0.057756245 0.1105493
-0.12093805 0.085756615 0.018112764 -0.007092729 -0.095310375 0.03276518 -0.03986919 0.07959275
0.043849275 -0.07360852 0.029167533 0.07705161 -0.09947093 0.029187843 -0.022803664 0.059146255
-0.03168273 0.11527923 0.10924454 0.008742318 -0.02094306 0.103237376 -0.08093284 -0.060130045
-0.07412605 -0.12196851 0.104460716 -0.06853655 0.10425852 0.017780155 -0.055647045 -0.0564439
0.065562785 0.016878724 0.0028370023 0.02453342 -0.085797235 -0.015777484 0.09739478 0.029698938
0.017398253 0.040769562 0.058692798 -0.024173006 -0.05927719 0.09402844 -0.03694935 0.061900675
