data/models/rl_aca_20250316_220531.pt (torch, 23198 bytes, 5 tensors)

fc1.weight f4 [64, 11]
0.21677 0.0010579526 0.23332042 -0.108694226 0.041454166 -0.263643 0.27901703 0.14835581
0.03835225 0.24514782 0.28337187 -0.15786088 -0.114583194 -0.25436428 0.1664738 -0.0480012
-0.2839615 -0.23283508 0.21525854 -0.040035963 -0.0700389 0.16974542 -0.27084604 -0.26453936
-0.07637252 -0.25564685 -0.07544017 -0.066805124 0.22294277 -0.25092518 0.20816761 0.2978608
-0.1976915 -0.23309653 0.054184943 0.26843327 -0.08315453 -0.22368634 -0.27137524 0.22007877
-0.24287552 0.2823249 -0.07897468 -0.29834482 -0.14155973 0.29168326 0.055009633 -0.086674094
0.25948656 -0.24105789 0.14945248 0.12614301 0.14711192 -0.10059585 0.2970417 0.057672888
0.19442004 0.08863172 -0.26709175 -0.28176016 0.23335254 0.13821855 0.053378344 0.089378804
0.06065908 -0.013563931 0.21652734 0.17078578 0.22305745 -0.015926868 0.022459507 0.1743966
-0.030958563 -0.22815084 0.05329305 -0.13779065 -0.071614966 -0.17773391 -0.27994037 -0.22600897
-0.2748022 -0.16936791 0.28253788 0.24619538 -0.0831904 -0.14161804 0.09583911 0.28068298
0.17312121 0.07592648 0.29809988 -0.2402047 0.034877867 -0.03452155 0.063851744 0.10539624
0.20733273 -0.15173979 0.22071546 0.2630989 -0.24954444 -0.120912924 -0.079181075 0.061152756
0.21016806 -0.20121688 0.04811853 -0.23792917 0.21244997 -0.19897038 -0.054494336 -0.04581672
0.085922986 -0.06810349 0.09250572 -0.08738339 -0.1776844 -0.01579222 -0.13193296 0.078308076
-0.067643344 0.2262398 -0.1649775 -0.25286812 -0.038240254 0.22076541 0.26885295 -0.02735734
-0.018754989 -0.056217626 0.027398616 0.20490378 -0.14967239 -0.13082483 -0.012762755 -0.11105898
0.2636546 -0.15437552 -0.065045 -0.25582153 0.11934808 -0.014005601 0.2932915 -0.26032174
0.11031449 -0.26619613 0.22839254 -0.2500334 0.120458454 -0.089509174 -0.15962783 0.03370294
-0.27734047 0.19312257 0.23678648 0.100568324 0.10076201 0.28812575 0.21593428 0.03218162
0.28739703 0.22070152 0.27348703 -0.0166848 -0.1839041 -0.23151109 -0.22580308 0.06271756
-0.12012847 -0.20750442 0.0062755346 0.021980196 -0.16373508 0.03295219 -0.13313219 0.27831525
-0.21830967 -0.10588808 0.23155707 -0.29886642 0.27034134 0.044019848 -0.2733131 -0.029545248
0.036319017 -0.093931735 0.10999569 -0.23047978 0.21182156 0.25015736 -0.24208485 0.032814503
-0.14006649 -0.2701826 0.28359205 -0.30114868 0.037317187 -0.25210926 0.25661045 -0.22885522
0.17069757 0.25747168 0.2931376 -0.27665198 0.062998444 0.042674363 -0.1903666 0.2861973
-0.0663843 -0.07090765 0.2741397 -0.13741617 -0.2999226 -0.26259252 0.22919154 -0.014497846
-0.09186961 0.19475886 -0.24943493 -0.16941711 -0.23489028 0.2037636 0.21930552 0.24747884
0.17561963 0.07299003 -0.16247584 0.2413122 0.28737032 0.14701664 0.20341676 -0.236507
0.17095503 -0.14891025 -0.17693494 -0.18728298 0.15899387 -0.11816099 0.12789509 0.21656007
-0.20801297 -0.16026719 0.04428029 -0.14342935 0.2128852 -0.27214158 -0.2102221 0.21905482
0.21852136 -0.002433002 0.16311571 0.248995 0.04085028 -0.17612259 0.1204263 0.19061127
00000000: f4f8 5d3e 00ab 8a3a 8ceb 6e3e 149b debd
00000010: d8cb 293d 37fc 86be 52db 8e3e 96ea 173e
00000020: 4017 1d3d 0808 7b3e 1e16 913e 48a6 21be
00000030: 98aa eabd 093c 82be 1c78 2a3e e89c 44bd
00000040: 6763 91be 526c 6ebe bc6c 5c3e c0fc 23bd
00000050: 8e70 8fbd bed1 2d3e 55ac 8abe b471 87be
00000060: 3269 9cbd 25e4 82be 6080 9abd 20d1 88bd
00000070: 1c4b 643e 4479 80be e429 553e 3681 983e
00000080: a46f 4abe dbb0 6ebe 08f1 5d3d 1670 893e
00000090: ec4c aabd 080e 65be b2f1 8abe 545c 613e
000000a0: 5cb4 78be e48c 903e 7abd a1bd a7c0 98be
000000b0: 09f5 10be 8257 953e c851 613d 3082 b1bd
000000c0: 6cdb 843e e1d7 76be 120a 193e a22b 013e
000000d0: 82a4 163e 3205 cebd da15 983e 683a 6c3d
000000e0: 0c16 473e 8c84 b53d 40c0 88be de42 90be
000000f0: f8f3 6e3e 2a89 0d3e 40a3 5a3d 3c0c b73d
00000100: a875 783d 403b 5ebc 58b9 5d3e 78e2 2e3e
00000110: 2c69 643e 1079 82bc 00fd b73c 0695 323e
00000120: d09c fdbc 60a0 69be d049 5a3d fe18 0dbe
00000130: deaa 92bd e1ff 35be 5854 8fbe e56e 67be
00000140: e0b2 8cbe c86e 2dbe cea8 903e a41a 7c3e
00000150: ba5f aabd 5204 11be 4c47 c43d aeb5 8f3e
00000160: b046 313e 587f 9b3d 8ca0 983e 39f8 75be
00000170: 18dc 0e3d 7866 0dbd b4c4 823d fcd9 d73d
00000180: 084f 543e ad61 1bbe 3c03 623e e6b4 863e
00000190: 9488 7fbe 32a1 f7bd b029 a2bd 507b 7a3d
000001a0: 4c36 573e cc0b 4ebe f017 453d b4a3 73be
000001b0: 7c8c 593e e4be 4bbe 7435 5fbd 50aa 3bbd
000001c0: 64f8 af3d d879 8bbd a473 bd3d 10f6 b2bd
000001d0: e6f2 35be b05e 81bc 6f19 07be fc5f a03d
000001e0: 9888 8abd 68ab 673e ddef 28be ee77 81be
000001f0: d0a1 1cbd 5410 623e 18a7 893e 801c e0bc
00000200: 10a4 99bc 7444 66bd 1073 e03c 4cd2 513e
00000210: b843 19be f2f6 05be e01a 51bc e472 e3bd
00000220: bcfd 863e 9e14 1ebe 5036 85bd 0afb 82be
00000230: c46c f43d c077 65bc 4e2a 963e e448 85be
00000240: 90ec e13d dc4a 88be bcdf 693e 6104 80be
00000250: ecb2 f63d 9650 b7bd 7a75 23be 180c 0a3d
00000260: 92ff 8dbe ecc1 453e 2878 723e c4f6 cd3d
00000270: 505c ce3d 3885 933e e01d 5d3e e0d0 033d
00000280: b425 933e 94ff 613e 7e06 8c3e 90ae 88bc
00000290: 5b51 3cbe 3e11 6dbe ec38 67be 1072 803d
000002a0: ea05 f6bd 0a7c 54be 00a3 cd3b d00f b43c
000002b0: 2baa 27be e0f8 063d ce53 08be 567f 8e3e
000002c0: 928c 5fbe dadb d8bd 4c1d 6d3e 0505 99be
000002d0: 2e6a 8a3e 284e 343d b2ef 8bbe e008 f2bc
000002e0: 40c3 143d 485f c0bd 6c45 e13d e402 6cbe
000002f0: c0e7 583e a014 803e 17e5 77be 8068 063d
00000300: 976d 0fbe 6055 8abe fa32 913e 2930 9abe
00000310: e8d9 183d 7714 81be 7262 833e 0659 6abe
00000320: 58cb 2e3e 54d3 833e 2216 963e 54a5 8dbe
00000330: 5405 813d 50cb 2e3d 76ef 42be 7488 923e
00000340: 7ef4 87bd 0838 91bd 0a5c 8c3e d3b6 0cbe
00000350: 748f 99be 8772 86be 30b1 6a3e 6088 6dbc
00000360: 2226 bcbd de6e 473e df6b 7fbe ae7b 2dbe
00000370: 1487 70be 68a7 503e a091 603e 186b 7d3e
00000380: a2d5 333e cc7b 953d 1160 26be 8c1a 773e
00000390: 3422 933e 888b 163e 7c4c 503e e42e 72be
000003a0: d60e 2f3e ee7b 18be 6f2e 35be 1cc7 3fbe
000003b0: 4acf 223e 64fe f1bd eef6 023e ecc1 5d3e
000003c0: 5a01 55be 151d 24be 405f 353d 25df 12be
000003d0: 94fe 593e 2456 8bbe 7644 57be e84f 603e
000003e0: 10c4 5f3e 0073 1fbb ce07 273e 8cf8 7e3e
000003f0: a052 273d 7b59 34be 10a2 f63d 9a2f 433e

fc1.bias f4 [64]
0.17507878 -0.070149004 -0.03307739 -0.26057944 0.019405276 0.042617798 -0.01862654 0.09037709
0.0918152 0.14709985 -0.21973681 -0.1809208 -0.16990702 -0.1835273 -0.1259224 0.24663252
0.27967018 -0.0031588972 -0.2789067 -0.06838216 0.22963476 -0.08033851 -0.14756505 0.26541674
-0.23272358 -0.19399428 0.2482872 0.039723933 -0.29391548 -0.1852811 0.056772828 -0.14686988
-0.29967588 -0.17379673 0.20792538 0.13931134 0.011859328 -0.026404768 0.079342276 -0.0023152232
0.28134364 -0.29416502 -0.2215938 -0.08736032 -0.27422622 -0.27937254 0.3007036 -0.048401505
0.011742443 0.124656856 -0.057559013 -0.16606756 0.19254956 0.26065928 -0.20301159 0.29937613
0.07489103 -0.14303559 -0.25026497 0.18158579 -0.20890799 0.13706514 0.14963928 -0.03818521
00000000: da47 333e 48aa 8fbd 287c 07bd ab6a 85be
00000010: d0f7 9e3c 0090 2e3d b096 98bc a017 b93d
00000020: 9c09 bc3d 58a1 163e b002 61be 4d43 39be
00000030: 1bfc 2dbe 95ee 3bbe cdf1 00be 3c8d 7c3e
00000040: ee30 8f3e 8005 4fbb dccc 8ebe f20b 8cbd
00000050: 6025 6b3e 8488 a4bd 4b1b 17be b4e4 873e
00000060: 174f 6ebe 70a6 46be 003f 7e3e 90b5 223d
00000070: 177c 96be 54ba 3dbe a08a 683d 0f65 16be
00000080: 1e6f 99be c5f7 31be 64ea 543e a2a7 0e3e
00000090: a04d 423c d04e d8bc 347e a23d 00bb 17bb
000000a0: 460c 903e cc9c 96be 7ce9 62be f8e9 b2bd
000000b0: 6167 8cbe eb09 8fbe d2f5 993e a840 46bd
000000c0: 6063 403c 184c ff3d 00c3 6bbd 9d0d 2abe
000000d0: b62b 453e 2275 853e 45e2 4fbe d447 993e
000000e0: 7860 993d ec77 12be bb22 80be a0f1 393e
000000f0: faeb 55be ce5a 0c3e 0a3b 193e 1868 1cbd

fc2.weight f4 [64, 64]
-0.07366164 -0.120753706 0.054580018 0.09887543 0.040530458 -0.012603253 -0.044480845 0.025711909
-0.027509853 -0.0469352 -0.11854245 -0.05122587 0.06886169 -0.017058492 0.043903947 0.10944824
-0.008186296 0.061313182 0.07586646 -0.032958165 0.11648226 0.09211613 0.076691836 -0.074741945
-0.010703936 -0.029246017 0.009407908 -0.061325416 0.012576729 0.04305935 -0.1192576 0.027203083
-0.03388816 -0.09014325 0.051174313 -0.013030142 -0.048399076 -0.09691322 -0.06839661 0.07659896
-0.11052008 0.039907217 -0.046793297 0.07996096 -0.038853377 0.099312425 0.11831428 0.04510741
0.044089794 -0.07223439 -0.083759055 0.05582255 -0.045458928 -0.018014684 -0.038755625 0.021345034
-0.00786826 -0.031326577 0.110594824 0.10904239 -0.1135675 -0.105138406 -0.11265409 0.016669929
-0.03660229 -0.0019935817 0.047434315 0.08493364 -0.05994658 0.04805301 -0.0057443827 -0.05800484
-0.07706854 -0.02735643 0.08770539 0.050153702 0.12241523 -0.12303889 -0.10879196 0.003100425
0.066515505 0.11474167 -0.09413482 -0.10453606 0.0724176 0.06377527 -0.07133721 0.04837969
0.033588454 0.092934474 0.067449436 -0.015935078 0.001869157 -0.011218265 0.088523895 0.07224876
-0.033924937 0.06645453 0.11556399 0.023138463 -0.10818431 0.005509287 -0.113034174 -0.072033286
0.014023438 0.08356924 -0.047378436 0.086996555 -0.07583998 -0.081591964 0.037238657 -0.015183091
-0.08113681 0.012942269 -0.032243803 -0.018008709 -0.051164404 -0.06512697 -0.015219301 0.118952766
-0.10262227 -0.0055425167 -0.030981317 0.0007647425 -0.1181525 0.10508883 -0.009643227 -0.0017768145
0.073831245 0.051932797 -0.10524315 0.07177764 -0.07059993 -0.08481564 -0.083204344 -0.12480345
0.090784475 -0.12385978 0.09620036 0.11925788 -0.01316601 -0.05960174 -0.054377496 0.092193365
0.09754035 -0.02255039 -0.08825372 0.029692039 0.060462862 -0.041568846 -0.075341776 -0.013528645
0.023173183 -0.0094670355 0.117888615 -0.020689473 -0.10821286 0.06257594 -0.041321605 -0.05249153
0.08074632 -0.02275537 -0.05435662 0.01678133 -0.09332284 0.05227165 -0.062451586 0.04029964
0.06743598 -0.027330652 0.11170785 -0.080997616 0.021287382 -0.040052727 -0.0493062 -0.09505394
0.08495122 -0.021790236 -0.046682045 -0.01672694 0.10197896 0.0276981 0.05216755 -0.0926557
0.09078835 -0.010509431 0.02477616 0.023483813 -0.12336345 -0.053858846 -0.11883704 0.00015461445
-0.041964903 -0.018508032 -0.09599733 0.06438027 0.050127298 0.11987907 0.07999684 0.11511418
0.113878906 -0.03232734 -0.030954883 0.00479275 -0.015257597 -0.049087718 -0.020730928 -0.07528597
-0.077292174 -0.00010614097 0.058044106 -0.12487829 -0.11580339 0.051952347 0.090317294 0.107698694
-0.032838956 -0.025937349 0.068917856 -0.088637814 -0.1146595 0.003097862 -0.014397442 0.1211461
-0.028163731 0.056652635 -0.026646867 -0.0027848035 -0.0850191 -0.06302802 0.057306245 0.027491301
-0.057871595 -0.032454684 -0.006750047 -0.0029826015 -0.012713373 0.069554895 -0.10332967 0.1006621
0.04647325 -0.09971741 0.0060706586 -0.034986153 0.06116329 -0.058952272 0.067620695 -0.10874906
-0.041007802 -0.006110996 -0.09841813 0.048005074 0.011937946 0.04003437 -0.09688611 -0.10123888
00000000: eadb 96bd b84d f7bd 4c8f 5f3d 347f ca3d
00000010: 4403 263d e07d 4ebc 8c31 36bd c8a1 d23c
00000020: 585c e1bc 203f 40bd 62c6 f2bd 38d2 51bd
00000030: 5c07 8d3d 40be 8bbc a0d4 333d 6626 e03d
00000040: d01f 06bc 8823 7b3d e05f 9b3d 24ff 06bd
00000050: 408e ee3d 62a7 bc3d 9c10 9d3d 4e12 99bd
00000060: 905f 2fbc 5895 efbc a023 1a3c 5c30 7bbd
00000070: a00e 4e3c 005f 303d 543d f4bd 00d9 de3c
00000080: 50ce 0abd 069d b8bd 289c 513d 607c 55bc
00000090: 1c3e 46bd 707a c6bd 8613 8cbd eadf 9c3d
000000a0: 5a58 e2bd c075 233d 54aa 3fbd 92c2 a33d
000000b0: b824 1fbd 5064 cb3d c24e f23d 8cc2 383d
000000c0: 8097 343d a0ef 93bd de89 abbd 30a6 643d
000000d0: 2433 3abd 8893 93bc 38be 1ebd c8db ae3c
000000e0: e0e9 00bc 4c50 00bd 8a7f e23d 9e51 df3d
000000f0: 1496 e8bd ce52 d7bd 30b7 e6bd 608f 883c
00000100: 48ec 15bd c0a6 02bb 7c4a 423d b0f1 ad3d
00000110: 8c8a 75bd 3cd3 443d 603b bcbb 7c96 6dbd
00000120: 1cd6 9dbd 981a e0bc e29e b33d f86d 4d3d
00000130: d6b4 fa3d d0fb fbbd 52ce debd 8030 4b3b
00000140: 4839 883d aefd ea3d c2c9 c0bd 0017 d6bd
00000150: ae4f 943d 9c9c 823d 3e19 92bd c829 463d
00000160: 0c94 093d 6e54 be3d ee22 8a3d 488a 82bc
00000170: 80fe f43a d0cc 37bc 044c b53d 28f7 933d
00000180: e0f4 0abd 5019 883d d0ac ec3d e08c bd3c
00000190: bc8f ddbd 4087 b43b 767e e7bd 3086 93bd
000001a0: 90c2 653c 5a26 ab3d e40f 42bd 402b b23d
000001b0: fe51 9bbd b019 a7bd 9087 183d 80c2 78bc
000001c0: 0e2b a6bd d00b 543c 1412 04bd 0087 93bc
000001d0: c491 51bd 4a61 85bd 605a 79bc 829d f33d
000001e0: a02b d2bd 009e b5bb 88cc fdbc 0079 483a
000001f0: f0f9 f1bd d038 d73d a0fe 1dbc 00e4 e8ba
00000200: d634 973d 7cb7 543d b889 d7bd 2800 933d
00000210: b296 90bd d2b3 adbd 0a67 aabd f498 ffbd
00000220: 36ed b93d 32aa fdbd b204 c53d 7a3d f43d
00000230: 40b6 57bc f420 74bd f0ba 5ebd e0cf bc3d
00000240: 3cc3 c73d 98bb b8bc 5ebe b4bd b83c f33c
00000250: e8a7 773d 1844 2abd ca4c 9abd 40a7 5dbc
00000260: b0d5 bd3c a01b 1bbc 966f f13d f87c a9bc
00000270: b49e ddbd d027 803d d840 29bd 5c01 57bd
00000280: 545e a53d 7869 babc 0ca5 5ebd 0079 893c
00000290: 0c20 bfbd cc1a 563d 3ccd 7fbd 3c11 253d
000002a0: e01b 8a3d 88e4 dfbc 16c7 e43d 14e2 a5bd
000002b0: e062 ae3c 540e 24bd 4cf5 49bd a4ab c2bd
000002c0: e8fa ad3d 7081 b2bc ac35 3fbd f006 89bc
000002d0: 58da d03d 20e7 e23c a4ad 553d 46c2 bdbd
000002e0: 3eef b93d c02f 2cbc 60f7 ca3c 2061 c03c
000002f0: faa5 fcbd 189b 5cbd d660 f3bd 0020 2239
00000300: 64e3 2bbd 289e 97bc 409a c4bd ced9 833d
00000310: 4852 4d3d 2883 f53d 62d5 a33d fcc0 eb3d
00000320: 5839 e93d ac69 04bd 1895 fdbc 800c 9d3b
00000330: 00fb 79bc 3410 49bd e8d3 a9bc 882f 9abd
00000340: 5c4b 9ebd 0098 deb8 a8bf 6d3d 30c0 ffbd
00000350: 542a edbd fccb 543d 46f8 b83d 2291 dc3d
00000360: 2482 06bd 907a d4bc ce24 8d3d be87 b5bd
00000370: 9ad2 eabd 8005 4b3b 40e3 6bbc 721b f83d
00000380: a0b7 e6bc 980c 683d 884a dabc 4081 36bb
00000390: 7e1e aebd d614 81bd f4b9 6a3d 7035 e13c
000003a0: c40a 6dbd 34ef 04bd 802f ddbb c077 43bb
000003b0: c04b 50bc cc72 8e3d 829e d3bd ee27 ce3d
000003c0: bc5a 3e3d a438 ccbd 60ec c63b a44d 0fbd
000003d0: 5c86 7a3d f077 71bd b87c 8a3d d4b7 debd
000003e0: ccf7 27bd c03e c8bb 728f c9bd f8a0 443d
000003f0: 6097 433c 14fb 233d 3a6c c6bd 5456 cfbd

fc2.bias f4 [64]
-0.027122214 -0.034486234 0.045019567 0.10130048 -0.08348465 -0.09674232 -0.105066165 0.03715384
0.10645385 0.074256554 0.020629391 0.025898248 0.055405036 -0.034135997 0.03293489 0.07476716
0.064551935 0.0919058 0.050572515 0.059537545 0.00948666 -0.026510343 0.114931375 -0.046818882
-0.013549373 -0.10874595 -0.02914089 -0.083315805 0.017828554 0.03806871 0.089161575 0.08992913
0.01118426 -0.09354976 0.1183496 0.007150337 0.10035424 0.11554946 -0.048471704 -0.048898786
0.050832763 0.07028571 -0.108873814 0.067252114 0.033567086 0.04088831 0.03076534 -0.018782154
-0.11175841 -0.07967985 0.10709144 0.05803214 -0.02705656 -0.046077117 -0.025453076 -0.08500868
0.00623402 0.07433708 0.08274835 0.11327542 0.078659415 0.1171183 -0.036397487 -0.033871815
00000000: 682f debc 7041 0dbd 7066 383d a076 cf3d
00000010: 00fa aabd d620 c6bd ee2c d7bd a02e 183d
00000020: 7a04 da3d d213 983d f8fe a83c 9028 d43c
00000030: 64f0 623d 30d2 0bbd bce6 063d 861f 993d
00000040: ce33 843d 1c39 bc3d 2025 4f3d a4dd 733d
00000050: f06d 1b3c 382c d9bc 2461 eb3d 28c5 3fbd
00000060: 30fe 5dbc 32b6 debd e0b8 eebc 7aa1 aabd
00000070: 300d 923c f0ed 1b3d 589a b63d c42c b83d
00000080: 303e 373c 0497 bfbd 4661 f23d 604d ea3b
00000090: 8686 cd3d 32a5 ec3d 448a 46bd 184a 48bd
000000a0: 0436 503d f4f1 8f3d 3cf9 debd 7abb 893d
000000b0: a47d 093d 807a 273d 9807 fc3c 08dd 99bc
000000c0: 98e1 e4bd 302f a3bd c252 db3d 1cb3 6d3d
000000d0: b8a5 ddbc 5cbb 3cbd f882 d0bc 0819 aebd
000000e0: c046 cc3b 0a3e 983d f877 a93d f2fc e73d
000000f0: 3018 a13d b8db ef3d 8815 15bd 2cbd 0abd

fc3.weight f4 [1, 64]
-0.055657715 -0.1108153 -0.120238125 -0.030808285 -0.096763596 -0.052994058 0.00826934 -0.06822953
0.059710056 -0.09847589 -0.08398734 -0.0635411 0.031234264 -0.02209112 -0.09408206 0.123478934
0.01584366 0.106750384 -0.099033505 -0.00791049 -0.07658425 0.09915912 0.08946693 -0.0017332882
0.10912521 -0.021186203 0.0004067272 0.0075572133 0.061660156 0.0056883693 0.044500604 0.06447443
0.085066065 -0.022338152 0.031120077 0.0722851 0.10059537 -0.03785497 -0.04263076 -0.0042434633
0.031235605 0.07102689 0.049996853 0.02093117 -0.09941122 -0.12233998 0.10458994 -0.06558591
0.03546104 0.0043943077 -0.038226306 -0.04952322 -0.0369903 0.10814062 0.11148816 0.014121264
0.098177776 0.04066986 0.10563199 0.023963809 -0.12020595 0.0082167685 0.030630305 -0.078945756
00000000: 58f9 63bd 22f3 e2bd 683f f6bd a861 fcbc
00000010: fe2b c6bd 4c10 59bd 207c 073c ecbb 8bbd
00000020: 8892 743d baad c9bd 8e01 acbd d621 82bd
00000030: 00df ff3c 70f8 b4bc 18ae c0bd 86e2 fc3d
00000040: 90ca 813c f29f da3d 14d2 cabd 009b 01bc
00000050: 34d8 9cbd f013 cb3d 703a b73d 802f e3ba
00000060: 0a7d df3d b08e adbc 003e d539 80a2 f73b
00000070: 5c8f 7c3d 8065 ba3b 4446 363d 2c0b 843d
00000080: 1e37 ae3d 80fe b6bc 88ef fe3c 360a 943d
00000090: f204 ce3d d00d 1bbd 989d 2ebd c00c 8bbb
000000a0: d0e1 ff3c 8c76 913d 80c9 4c3d d877 ab3c
000000b0: 1c98 cbbd 628d fabd 4033 d63d e851 86bd
000000c0: 983f 113d 20fe 8f3b 3093 1cbd dcd8 4abd
000000d0: 2483 17bd d478 dd3d e853 e43d e05c 673c
000000e0: 6e11 c93d 7095 263d 9655 d83d c04f c43c
000000f0: 8a2e f6bd a09f 063c 68ec fa3c 50ae a1bd
