data/models/rl_aca_20250316_163152.pt (torch, 23198 bytes, 5 tensors)

fc1.weight f4 [64, 11]
0	0xbd8c60c8	-0.06854397
1	0xbc040140	-0.008056939
2	0xbe074ccb	-0.13212888
3	0xbe359822	-0.17733815
4	0xbd0d1800	-0.034446716
5	0xbe8827f9	-0.26592997
6	0xbd82d1b2	-0.063876525
7	0x3c99dd20	0.018782198
8	0x3e8c9a6e	0.2746157
9	0xbe55849b	-0.20851366
10	0xbe97676a	-0.29571086
11	0xbe582f9d	-0.21111913
12	0x3e410d4c	0.18852729
13	0xbe139d85	-0.14415558
14	0x3e38b778	0.18038738
15	0x3ca479d0	0.020077616
16	0x3d5b5ae0	0.053553462
17	0xbdf839da	-0.12120409
18	0x3e7d2fcc	0.24725264
19	0xbe11de18	-0.14244878
20	0xbe98adcb	-0.29820094
21	0x3d037508	0.03209403
22	0x3e2aa360	0.16663885
23	0x3da0aae0	0.07845092
24	0xbd87efb0	-0.06637514
25	0xbe36143c	-0.17781156
26	0xbda9ed40	-0.08297205
27	0x3e8da33e	0.27663606
28	0xbe60c9af	-0.21951936
29	0x3e70d95c	0.23520416
30	0x3e23d63e	0.15999696
31	0x3d3d30b0	0.04618901
32	0xbde868e0	-0.11348128
33	0xbd64bf9c	-0.055846795
34	0xbe667a30	-0.22507548
35	0x3e5bfc88	0.21483052
36	0x3e5efcbc	0.21776098
37	0x3e8fc340	0.2807865
38	0x3e251414	0.1612094
39	0x3dde6da8	0.10860759
40	0x3dd47d8c	0.10375509
41	0xbe6472b0	-0.22309375
42	0xbe48f9b3	-0.19626503
43	0xbe1ff422	-0.15620473
44	0x3e5670bc	0.20941442
45	0x3e811ae8	0.2521584
46	0xbd385bb8	-0.045009345
47	0x3e7906a4	0.2431894
48	0xbe687a97	-0.22703014
49	0x3e53ed38	0.2069596
50	0xbe47e23c	-0.19519895
51	0x3e2e2cf2	0.17009333
52	0xbe7986fc	-0.24367899
53	0xbe5db96c	-0.21652764
54	0x3e789878	0.24276912
55	0x3e887c92	0.2665754
56	0xbde75eaa	-0.112973526
57	0xbdf6dc4a	-0.120537356
58	0x3e876584	0.26444638
59	0xbd416480	-0.047214985
60	0x3e052904	0.13003927
61	0xbe42398c	-0.18967265
62	0x3e2da486	0.16957292
63	0xbd9957f2	-0.07487477
64	0x3e892c2c	0.26791513
65	0xbdc02066	-0.093811795
66	0x3d9a4d00	0.07534218
67	0xbe471db7	-0.19444929
68	0x3e98cfac	0.2984594
69	0x3d957810	0.07298291
70	0xbd6966b0	-0.056982696
71	0xbc202bc0	-0.009776056
72	0xbe8985ec	-0.26859987
73	0xbd3aabe0	-0.04557407
74	0x3dc8f0d4	0.09811559
75	0x3e4ef8cc	0.20212096
76	0x3e606878	0.21914852
77	0xbe72aa99	-0.2369789
78	0xbe3c2a76	-0.18375573
79	0xbe815ec5	-0.25267616
80	0xbddff822	-0.109359995
81	0x3e8a5d38	0.27024245
82	0xbe485621	-0.19564106
83	0xbe1af51f	-0.15132569
84	0x3e6649a4	0.22489029
85	0xbe1e07c9	-0.15432657
86	0xbe950e80	-0.29112625
87	0x3d1c8888	0.038216144
88	0x3e94242c	0.28933847
89	0xbe6e2613	-0.23256712
90	0x3e1bc6fe	0.15212628
91	0x3e240872	0.16018847
92	0xbe1e66fa	-0.1546897
93	0x3e31e8c2	0.17373946
94	0x3d85bc54	0.06530061
95	0x3e04b590	0.12959886
96	0x3e90032c	0.2812742
97	0xbe6cbe9e	-0.2311959
98	0xbd2357f0	-0.039878786
99	0x3c19bd20	0.00938347
100	0x3d4c2668	0.049841315
101	0x3dfd32e4	0.12363222
102	0x3e4c7764	0.19967419
103	0x3d813cc0	0.06310415
104	0xbe1abbaf	-0.15110658
105	0xbe251402	-0.16120914
106	0x3e28da50	0.1648953
107	0xbe3da9b8	-0.18521774
108	0x3dd04e38	0.10171169
109	0xbded4896	-0.1158611
110	0x3e8ae868	0.27130437
111	0x3d60fcc8	0.05492857
112	0x3e8d8f42	0.2764836
113	0xbe735c65	-0.23765714
114	0xbd2e1f98	-0.0425106
115	0x3dacea9c	0.08443186
116	0xbe270b2f	-0.1631286
117	0x3d7000a0	0.058594346
118	0x3e44936c	0.19196862
119	0xbd4ca690	-0.049963534
120	0x3d292d50	0.04130298
121	0xbe4189d3	-0.18900232
122	0xbe877014	-0.26452696
123	0x3df94888	0.12172037
124	0x3e01247a	0.12611571
125	0x3de2d5c8	0.11075932
126	0xbe927223	-0.28602704
127	0x3e62574c	0.22103614
128	0xbe3f08b8	-0.1865567
129	0xbe21a08b	-0.15783899
130	0xbcf3c570	-0.029757231
131	0x3d8aa998	0.06770629
132	0x3e5049d8	0.20340669
133	0xbe0b357e	-0.13594624
134	0x3e873478	0.26407218
135	0x3e817682	0.25285727
136	0x3e56e5a8	0.20986044
137	0x3e7f4dbc	0.24931997
138	0xbdf6d9e0	-0.12053275
139	0xbde70908	-0.112810194
140	0xbe01b81f	-0.12667893
141	0x3e84bcb2	0.25925213
142	0xbe9a3d0f	-0.3012471
143	0xbdc27afc	-0.09496114
144	0x3d75e9b8	0.060037345
145	0xbe33bfe1	-0.17553665
146	0xbe1a29db	-0.15055029
147	0xbe643702	-0.22286609
148	0x3e472fa8	0.19451773
149	0x3e97cc26	0.2964794
150	0x3e12934e	0.14314005
151	0xbc9b2820	-0.018940032
152	0x3de92c50	0.11385405
153	0xbdb6ec7c	-0.089318246
154	0x3e041192	0.12897328
155	0xbe980a3d	-0.2969531
156	0x3c23e220	0.010002643
157	0xbe8c57f9	-0.27410868
158	0x3d699488	0.057026416
159	0xbd451828	-0.04811874
160	0xbe779a9e	-0.24180076
161	0x3e69fee4	0.2285114
162	0xbe3e0750	-0.18557477
163	0xbe641740	-0.22274494
164	0xbd843138	-0.064547
165	0x3cf425f0	0.029803246
166	0x3e267db0	0.16258883
167	0x3e1f0f96	0.1553329
168	0xbd361438	-0.044452876
169	0xbdd437dc	-0.10362217
170	0xbd943ec8	-0.07238537
171	0xbde8191c	-0.11332914
172	0x3e202548	0.15639222
173	0xbe3369ee	-0.17520878
174	0x3df79c1c	0.120903224
175	0x3e0973aa	0.13423029
176	0xbe928cae	-0.28622955
177	0x3e515f48	0.20446503
178	0xbe2a1d41	-0.16612722
179	0x3d9038b0	0.07042062
180	0xbe10a78f	-0.14126419
181	0x3def3178	0.11679357
182	0xbe3c0f81	-0.1836529
183	0x3e6f30d4	0.2335847
184	0x3e886756	0.2664134
185	0xbd1b06d8	-0.037848324
186	0x3e74f91c	0.23923153
187	0xbe558b06	-0.20853814
188	0x3dd90e7c	0.10598466
189	0xbb9e09c0	-0.0048229396
190	0x3d2b7a98	0.04186496
191	0x3e83b6a4	0.2572528
192	0x3e60befc	0.21947855
193	0xbe82208c	-0.25415456
194	0x3d4c29d0	0.049844563
195	0x3e828902	0.25495154
196	0xbd306a70	-0.043070257
197	0x3e6c2f1c	0.23064846
198	0x3e0756be	0.13216683
199	0xbe8f5b1c	-0.27999198
200	0xbe0ed647	-0.13948928
201	0x3e7f2730	0.24917293
202	0xbd051540	-0.03249097
203	0x3e99a840	0.30011177
204	0xbdeeaf8a	-0.11654575
205	0xbe51325a	-0.20429364
206	0xbe52b1ad	-0.2057559
207	0x3dbec8a8	0.09315616
208	0xbd315c10	-0.04330069
209	0xbe8256b0	-0.25456762
210	0x3e26f38c	0.16303843
211	0xbe3dc158	-0.18530786
212	0xbe75dcfc	-0.2401008
213	0xbd98533c	-0.07437751
214	0x3e4d433c	0.20045179
215	0x3e99e31c	0.30056083
216	0x3d8096ec	0.06278786
217	0xbe55251f	-0.20814942
218	0x3b422380	0.002962321
219	0xbd274900	-0.040841103
220	0xbe681a5c	-0.22666305
221	0xbe98eef4	-0.29869807
222	0x3e88a410	0.2668767
223	0xbe156819	-0.14590491
224	0x3e261d94	0.1622222
225	0xbc273160	-0.010204643
226	0x3e78cc4c	0.24296683
227	0x3d429b10	0.04751116
228	0xbe6b0010	-0.22949243
229	0xbdfda590	-0.12385094
230	0xbe1189f4	-0.14212781
231	0x3e68cd08	0.22734463
232	0x3bc720c0	0.006076902
233	0x3d785178	0.06062457
234	0x3d6b93c8	0.057513982
235	0x3e5fe668	0.21865237
236	0xbe14ad11	-0.14519145
237	0x3e8f9602	0.28044134
238	0x3e1af2b6	0.1513165
239	0x3e0b9600	0.13631439
240	0x3e5da544	0.21645075
241	0xbe892ebb	-0.26793465
242	0x3e8989b2	0.26862866
243	0xbe619018	-0.22027624
244	0xbce9a560	-0.02852124
245	0xbd7c098c	-0.061532542
246	0xbd1940c8	-0.037415296
247	0xbe8d9d03	-0.27658853
248	0xbb93ef00	-0.004514575
249	0x3e635a00	0.22202301
250	0xbd27aa90	-0.040934145
251	0xbe8fa325	-0.28054157
252	0x3e0321e8	0.12805903
253	0xbe2d8794	-0.1694625
254	0xbe220805	-0.15823372
255	0x3d2dd578	0.042439908

fc1.bias f4 [64]
0	0x3e01a540	0.12660694
1	0xbe88917c	-0.26673496
2	0xbe99e48e	-0.30057186
3	0x3dcdaee8	0.10043126
4	0xbdf7440c	-0.12073526
5	0x3d259608	0.040426284
6	0xbe85a700	-0.26103973
7	0xbe933daa	-0.28757983
8	0x3e06fe84	0.13183028
9	0xbe04d783	-0.12972836
10	0xbdd96c2a	-0.10616334
11	0xbd185c68	-0.0371975
12	0x3dd16394	0.10224071
13	0x3e404986	0.18778047
14	0xbd9283ea	-0.07154067
15	0xbdb053e8	-0.08609754
16	0x3d827748	0.06370407
17	0xbdb1b25a	-0.08676596
18	0xbdd0891c	-0.101824015
19	0x3dc727c4	0.097243816
20	0xbcce1aa0	-0.02515918
21	0xbdd43136	-0.10360949
22	0xbe943d0d	-0.28952828
23	0xbd774c14	-0.060375288
24	0x3df20144	0.11816648
25	0x3e239e38	0.15978324
26	0xbd8473e8	-0.0646742
27	0x3e90d736	0.28289193
28	0x3c947390	0.01812151
29	0xbe2f1728	-0.17098677
30	0xbe2a8095	-0.16650613
31	0x3e8c18a8	0.2736256
32	0xbe95c159	-0.29249075
33	0x3e4f4794	0.20242149
34	0xbc2f5b00	-0.010702848
35	0x3e90eb14	0.2830435
36	0xbe3480ab	-0.17627208
37	0xbe21c1ce	-0.15796587
38	0x3b805240	0.003916055
39	0xbe37caad	-0.17948408
40	0x3da3e848	0.080032885
41	0xbe4000e4	-0.1875034
42	0x3ddbecc4	0.10738519
43	0xbe1c774d	-0.15279885
44	0x3c822630	0.01588735
45	0xbda267cc	-0.07929954
46	0xbcd3d260	-0.02585715
47	0x3e56de84	0.2098332
48	0x3e3b6d32	0.18303373
49	0xbe2fbdab	-0.17162196
50	0xbd99154c	-0.07474765
51	0x3b723400	0.0036957264
52	0xbe8afb72	-0.27144963
53	0x3df41cd0	0.11919558
54	0xbe1d78de	-0.15378138
55	0xbe63daab	-0.22251384
56	0x3e032690	0.12807679
57	0xbc799ae0	-0.015234679
58	0xbc180c80	-0.009280324
59	0xbe8ec224	-0.27882493
60	0x3e288e8e	0.1646063
61	0x3d399758	0.04531035
62	0xbe1b738a	-0.15180793
63	0x3e7045fc	0.23464197

fc2.weight f4 [64, 64]
0	0x3d94c130	0.0726341
1	0x3de53cda	0.11193247
2	0xbde1a46e	-0.110176906
3	0xba9b3e00	-0.0011844039
4	0xbdce18c6	-0.10063319
5	0xbd0718bc	-0.032982573
6	0xbbbf27c0	-0.005833596
7	0xbde4418c	-0.111453146
8	0xbde71c8e	-0.11284743
9	0x3da102fe	0.07861899
10	0xbdd8283c	-0.10554549
11	0x3ca35380	0.019937277
12	0xbdc952d6	-0.09830253
13	0xbd291ec8	-0.04128912
14	0x3c89d1c0	0.01682365
15	0x3d57e5d8	0.05270943
16	0x3d55d180	0.052201748
17	0xbc43fd70	-0.01196228
18	0x3d6637c8	0.05620554
19	0x3d14f668	0.036367804
20	0x3db197e6	0.086715505
21	0xbde41a54	-0.11137834
22	0xbdd1930c	-0.10233125
23	0x3d8d5d9c	0.0690262
24	0xbceeb0d8	-0.02913706
25	0xbd8970ec	-0.06710991
26	0xbd8362a4	-0.064152986
27	0xbb952c20	-0.0045523793
28	0xbdc7a1ec	-0.09747681
29	0xbd2215b0	-0.039571464
30	0xbdb2f1ac	-0.087375015
31	0x3d2de7f4	0.042457536
32	0x39d8e400	0.00041368604
33	0x3dc91718	0.09818858
34	0x3dc14618	0.094371974
35	0xbd6f1134	-0.058366016
36	0xbdf4847c	-0.11939332
37	0x3c58b120	0.013225824
38	0xbda3492c	-0.07972941
39	0xbd5819f0	-0.05275911
40	0x3c862d40	0.016378999
41	0xbde8be9c	-0.11364481
42	0xbd279cbc	-0.040920958
43	0x3d703338	0.058642596
44	0x3db4b400	0.08823395
45	0xbad6e380	-0.0016394705
46	0xbcd09fb0	-0.02546677
47	0x3dba052a	0.09083016
48	0x3de0508e	0.109528646
49	0x3dcc56f6	0.09977524
50	0xbdfd86c8	-0.12379223
51	0xbd858d4c	-0.06521091
52	0x3d499128	0.049210697
53	0x3db2c6da	0.08729334
54	0xbda296e2	-0.07938935
55	0xbc7ee8d0	-0.0155584365
56	0x3dc8780c	0.09788522
57	0xbde04958	-0.10951489
58	0xbd8eca72	-0.06972207
59	0xbb646b00	-0.0034853816
60	0xbdb59b3e	-0.08867501
61	0xbdf258ba	-0.118333295
62	0xbd9ca552	-0.0764872
63	0xbd647cc8	-0.055783063
64	0xbcafc808	-0.021457687
65	0xbdf51660	-0.11967158
66	0x3d54b51c	0.05193053
67	0x3c291460	0.010319799
68	0xbdf7b4e4	-0.12095049
69	0xbda5d022	-0.08096339
70	0x3dd1f266	0.10251312
71	0x3db10500	0.08643532
72	0xbda505ca	-0.08057745
73	0xbcca2180	-0.024674177
74	0xbd991368	-0.074744046
75	0x3cf2a718	0.029620692
76	0xbd82d9ca	-0.06389196
77	0xbdb822de	-0.089910254
78	0xbd95be30	-0.07311666
79	0xbc188ab0	-0.009310409
80	0xbda6c98c	-0.08143911
81	0xbce461e8	-0.027878717
82	0xbdf11484	-0.11771491
83	0xbdad8fb6	-0.08474676
84	0xbd7e7940	-0.06212735
85	0x3de5db38	0.11223453
86	0x3d9e361e	0.07725166
87	0x3d510f14	0.05103977
88	0x3ab6d500	0.0013948977
89	0xbd5c8034	-0.0538332
90	0x3d7fa42c	0.062412426
91	0x3c862960	0.016377151
92	0x3da4fd62	0.080561414
93	0x3d17a210	0.03701979
94	0xbd9cd0ae	-0.0765699
95	0x3cb2ea18	0.02184014
96	0xbd366a8c	-0.044535205
97	0x3de7cfb8	0.11318916
98	0x3c067440	0.008206427
99	0xbdcc938a	-0.09989078
100	0x3d64f710	0.05589968
101	0x3dff2952	0.12459053
102	0xbd732518	-0.059361547
103	0x3dee57be	0.11637829
104	0x3da66766	0.081251904
105	0x3d0f50fc	0.034989342
106	0xbd3da538	-0.046300143
107	0x3d9c1fa8	0.076232255
108	0xbd1c6a3c	-0.03818725
109	0x3d0c1168	0.034196287
110	0xbdc4c09a	-0.09607048
111	0x3d2ef28c	0.04271178
112	0xbdb259da	-0.08708544
113	0x3d2e5b9c	0.042567834
114	0x3ddd4d18	0.1080572
115	0xbddf89da	-0.10914965
116	0x3d80f78e	0.06297217
117	0x3ca9b1c0	0.02071464
118	0xbc8789c8	-0.016545191
119	0x3d3e3990	0.046441615
120	0x3dd355d2	0.10319103
121	0xbabbac00	-0.0014318228
122	0xbd865b20	-0.065603495
123	0x3cbdb130	0.023155779
124	0x3d085b90	0.033290446
125	0xbd75932c	-0.059954807
126	0xbdeb99da	-0.11503954
127	0xbca830b8	-0.020531043
128	0xbde0ce7c	-0.10976884
129	0x3df4d2fc	0.119543046
130	0x3df25bd8	0.11833924
131	0xbc7932c0	-0.015209854
132	0xbda33fa4	-0.07971123
133	0x3d75e278	0.06003043
134	0xbcfae0a8	-0.030624703
135	0xbc9086a0	-0.01764232
136	0xbddbfa28	-0.10741073
137	0xbdbdc3c4	-0.09265855
138	0x3c142630	0.009042308
139	0xbdf02e1e	-0.11727546
140	0x3d93a9c6	0.07210116
141	0xbd65297c	-0.055947766
142	0xbd924ac0	-0.07143164
143	0x3daa9818	0.08329791
144	0xbd5d8bdc	-0.05408846
145	0xbdb42c30	-0.087974906
146	0x3dcc4d00	0.09975624
147	0x3d38cf90	0.045119822
148	0x3bf087a0	0.0073403865
149	0xbde2a3a6	-0.1106637
150	0xbd2c9e04	-0.042142883
151	0xbda7497e	-0.081683144
152	0x3d37af40	0.044844866
153	0x3df3614a	0.11883791
154	0xbdb14922	-0.08656527
155	0xbd6ab9fc	-0.057306275
156	0xbd0a2cac	-0.03373401
157	0xbcc8ffc0	-0.024536014
158	0x3ccee270	0.025254458
159	0x3cb8b5f8	0.022547707
160	0xbdd7f264	-0.10544279
161	0xbdda9998	-0.10673827
162	0xbdd78480	-0.10523319
163	0x3d3912f4	0.04518409
164	0xbcdc80e0	-0.026916921
165	0x3d62acdc	0.055340633
166	0xbdc0c56e	-0.09412657
167	0xbd33ff1c	-0.043944463
168	0x3d6aa4cc	0.05728607
169	0xbda41e5a	-0.080136016
170	0x3db8f918	0.09031886
171	0x3dc83f24	0.09777668
172	0x3d55c190	0.05218655
173	0xbd5bb548	-0.05363968
174	0xbd949f36	-0.072569296
175	0x3dae6282	0.085148826
176	0xbd929f8e	-0.07159339
177	0xbd862f18	-0.06551951
178	0xbdff5260	-0.12466884
179	0xbd0eceb0	-0.03486508
180	0x3d3bb4e8	0.045826823
181	0xbbcbb360	-0.0062164515
182	0x3ca09f80	0.019607306
183	0xbdbb42d8	-0.09143609
184	0xbd807754	-0.0627276
185	0x3dd9e932	0.106401816
186	0xbddf6e7c	-0.10909745
187	0xbde7bfd6	-0.11315887
188	0xbd24823c	-0.040163264
189	0x3bfeaca0	0.0077720433
190	0x3db2bfc2	0.08727981
191	0x3cc58ef8	0.024116024
192	0xbc46a880	-0.0121251345
193	0x3d3fb680	0.046804905
194	0xbdd150d6	-0.10220496
195	0x3d10ad6c	0.035321638
196	0xbded774a	-0.11595018
197	0x3d3114b8	0.04323265
198	0xbd6fff58	-0.058593124
199	0x3d17b4e8	0.03703776
200	0xbde58fba	-0.11209054
201	0x3d5c2638	0.053747386
202	0x3bd74d20	0.0065704733
203	0xbd31cf84	-0.043410793
204	0xbcc49d60	-0.024000823
205	0xbd680630	-0.056646526
206	0x3cfd14d8	0.030893728
207	0x3cc792e8	0.024362043
208	0xbc581630	-0.013188884
209	0xbdb56712	-0.0885755
210	0x3d5f4ce4	0.054516688
211	0x3dbb422e	0.09143482
212	0xbdde76c6	-0.10862498
213	0x3d5a7520	0.053334355
214	0x3dac717a	0.084200814
215	0x3ae2e100	0.0017309487
216	0x3c9c2de0	0.019064844
217	0x3d9fc9ae	0.07802139
218	0xbd19f580	-0.037587643
219	0x3de0fcba	0.10985704
220	0x3d99377a	0.074812844
221	0xbc74ed20	-0.014949113
222	0xbc755160	-0.014973015
223	0x3c2969c0	0.010340154
224	0x3abd5580	0.0014445037
225	0x3da83756	0.082136795
226	0x3bec4ec0	0.007211536
227	0x3dd24768	0.10267526
228	0x3ddd5ff4	0.10809317
229	0xbddb992e	-0.10722576
230	0xbd0ac180	-0.033875942
231	0xbcd9a698	-0.026568696
232	0x3df137c8	0.117782176
233	0xbde600ce	-0.11230622
234	0xbda13f24	-0.07873371
235	0xbdf37612	-0.118877545
236	0x3dcd964c	0.100384325
237	0xbd96f77c	-0.07371423
238	0x3d013c34	0.031551555
239	0x3d0d46a0	0.03449118
240	0x3ddd1466	0.10794906
241	0xbbce7220	-0.006300226
242	0x3dbd8678	0.092541635
243	0x3db4c880	0.08827305
244	0xbda194c8	-0.07889706
245	0xbdc5edba	-0.09664483
246	0xbdcd366c	-0.10020146
247	0x3cef0ba8	0.029180363
248	0xbd96557a	-0.07340522
249	0x3d8f82ba	0.07007356
250	0x3db190b0	0.08670175
251	0xbc3b5fa0	-0.011436373
252	0x3b0bea40	0.002134934
253	0x3c518820	0.012788802
254	0x3db960da	0.09051676
255	0x3dce3c3c	0.100700825

fc2.bias f4 [64]
0	0x3d5ca58c	0.053868815
1	0x3cb091f8	0.021553978
2	0x3d95976a	0.073042706
3	0x3d3f02ac	0.046633407
4	0x3c3ba880	0.011453748
5	0xbda44d0e	-0.080225095
6	0xbd3d4260	-0.04620588
7	0xbcb9c6f0	-0.022677869
8	0x3d839ec0	0.064267635
9	0xbce7fbb0	-0.028318256
10	0x3db37a48	0.08763558
11	0xbde7dc98	-0.11321372
12	0xbdafa774	-0.08576861
13	0x3dbd9576	0.09257023
14	0x3de06a00	0.10957718
15	0x3dfa9730	0.12235868
16	0x3cc3cc88	0.023901239
17	0xbd2218ac	-0.03957431
18	0xbdd49d38	-0.103815496
19	0xbd2a0590	-0.04150921
20	0xbdb9123e	-0.090366825
21	0xbdf200c0	-0.11816549
22	0x3d7d3b00	0.061823845
23	0x3d72d73c	0.059287295
24	0x3d86f150	0.065889955
25	0x3db10bf0	0.08644855
26	0x3defff12	0.11718573
27	0xbca506e8	-0.020144895
28	0x3b5d1700	0.0033735633
29	0xbcd95b80	-0.026532888
30	0xbd49b5e8	-0.049245745
31	0xbc887b90	-0.016660482
32	0x3d9437ee	0.0723723
33	0x3d61feb0	0.05517453
34	0xbde8aa74	-0.11360636
35	0x3d711830	0.058860958
36	0x3cf22890	0.029560357
37	0xbd92c2b8	-0.07166046
38	0xbd888b9c	-0.066672534
39	0xbd29264c	-0.04129629
40	0xbd51fbc8	-0.051265508
41	0xbd484aec	-0.048899576
42	0xbda1d632	-0.07902183
43	0x3da532fe	0.080663666
44	0x3df1193c	0.11772391
45	0xbd01ba80	-0.031672
46	0xbce32480	-0.027727365
47	0x3d9d6dee	0.07686983
48	0xbdd0697e	-0.10176371
49	0xbd2785b8	-0.04089901
50	0x3d1c0ff8	0.038101166
51	0x3de3abea	0.111167744
52	0x3cabf680	0.020991564
53	0x3d8892f8	0.06668657
54	0x3d832d60	0.06405139
55	0x3dd71dc8	0.10503727
56	0xbdef1590	-0.116740346
57	0xbda157c4	-0.07878068
58	0x3da2a5d8	0.079417884
59	0xbd24573c	-0.040122256
60	0x3dd81bd0	0.1055218
61	0x3dbb9820	0.09159875
62	0xbd956aea	-0.07295783
63	0x3c85a488	0.016313806

fc3.weight f4 [1, 64]
0	0xba9eb000	-0.0012106895
1	0x3dd1534c	0.10220966
2	0xbd6c57d0	-0.057700932
3	0xbcb80bc0	-0.02246654
4	0x3deebec2	0.11657478
5	0x3df9307c	0.12167451
6	0xbb047b40	-0.0020215064
7	0xbdedce36	-0.11611597
8	0xbdabd5b0	-0.08390367
9	0x3c878f58	0.016547844
10	0x3d675368	0.056476027
11	0x3d280150	0.041016877
12	0xbd2ca0ac	-0.042145416
13	0xbd82733a	-0.06369634
14	0xbcb707a8	-0.022342518
15	0xbd8eb438	-0.06967968
16	0xbddc6e02	-0.1076317
17	0xbcb6f498	-0.022333428
18	0xbc6a3f20	-0.014297277
19	0x3db9ea6a	0.09077914
20	0xbdcada62	-0.099049345
21	0x3dd4a85c	0.103836745
22	0x3dba055e	0.09083055
23	0x3da5ef0e	0.08102237
24	0x3d0432f0	0.03227514
25	0x3d361ac8	0.044459134
26	0xbddfb81e	-0.109237894
27	0xbd96c34c	-0.07361469
28	0xbdee2522	-0.11628176
29	0x3c14ddf0	0.009086117
30	0xbd9a2bee	-0.0752791
31	0xbd72757c	-0.059194073
32	0x3d7d0d4c	0.06178026
33	0x3dc31e60	0.09527278
34	0xbd9f086e	-0.0776528
35	0x3c92dd50	0.017927796
36	0xbc8edfc8	-0.017440692
37	0xbde234b6	-0.1104521
38	0x3d4700bc	0.048584685
39	0xbdb6e57e	-0.08930491
40	0x3de3eb28	0.11128837
41	0x3df31ee0	0.11871123
42	0xbdb58a7a	-0.08864303
43	0xbd45826c	-0.048220083
44	0x3ca510b0	0.020149559
45	0x3ce28650	0.027651936
46	0x3cd4f3a8	0.02599509
47	0x3db97fa2	0.09057547
48	0x3c6fe550	0.014642075
49	0xbc800978	-0.015629515
50	0xbde718ee	-0.11284052
51	0xbdfe3fd2	-0.124145165
52	0x3d5f8b78	0.054576367
53	0x3d8e1c06	0.06938939
54	0x3daf8f7e	0.08572291
55	0xbc7a0f30	-0.01526241
56	0x3dfad558	0.12247723
57	0x3dea1166	0.114291
58	0x3d1a08d8	0.03760609
59	0xbc966e28	-0.018363073
60	0x3d9faf6c	0.07797131
61	0x3dd9c138	0.10632557
62	0x3d95b4ca	0.073098734
63	0xbdb6a3dc	-0.089179724
