data/models/rl_aca_20250316_215211.pt (torch, 23198 bytes, 5 tensors)

fc1.weight f4 [64, 11]
-0.27982372 -0.27935693 0.007657826 -0.075255916 0.24947977 0.23457819 0.22398907 -0.29097062
0.28822327 0.15981719 -0.07316367 0.21819568 -0.058488667 -0.1746504 0.15045792 0.13649508
0.22358948 0.14170036 0.17678839 0.10104942 -0.000988394 -0.11356014 -0.028199911 0.23546332
-0.0108217 0.17594197 -0.08536027 -0.26857516 -0.25692666 -0.14459397 -0.007280469 0.011136413
0.10588205 -0.2315551 -0.097399935 -0.15648612 0.2814718 -0.26019132 0.20501989 0.27249372
-0.12725902 0.28233033 -0.014698327 0.095002085 0.13884619 -0.22971433 -0.14614832 -0.11099385
-0.25442794 0.08391836 0.08390379 -0.247565 0.23295367 -0.14684957 -0.292037 0.18768501
0.091413796 0.020810187 -0.16064732 0.18457061 0.04324889 -0.27065733 0.014032692 -0.0132778585
0.18773842 -0.1904253 0.03939259 -0.15233958 0.24954331 0.08743855 -0.2217375 0.028749615
-0.18245557 0.15899959 -0.2936601 -0.13952476 -0.104028866 -0.07265009 0.17399338 -0.019550383
0.043708503 -0.047593176 -0.18208808 -0.088365465 0.1885266 0.27562028 0.12013167 -0.18317217
-0.24093744 0.29095787 -0.100925446 0.18978176 -0.21069723 0.18809792 -0.23112056 -0.04428187
-0.18915077 -0.2022228 0.12356946 0.25962806 0.21847326 -0.19619055 0.24444383 0.24102545
-0.21675137 0.23715729 -0.20934826 -0.20606792 -0.26890522 -0.044750154 0.25090927 0.2410711
-0.058117166 0.13816062 0.21759856 -0.17300728 0.24826276 -0.28438225 0.05008921 -0.00972265
-0.0042994022 -0.15073314 0.21283984 0.19964218 0.12238106 0.0906885 0.12843227 0.12298167
-0.23696682 -0.1658948 0.1276263 0.21516478 -0.08639561 0.26668435 0.2233144 -0.26751736
-0.0852074 -0.21131879 -0.27981147 0.09478474 0.26572192 -0.18279493 -0.013405204 0.024206579
-0.2527792 -0.046724766 0.06410885 -0.22497407 -0.21900757 -0.13928404 0.043304622 -0.14983395
-0.27710083 0.20163071 -0.050032765 0.14142239 -0.06361626 -0.09089035 0.23024791 0.07013652
0.08935928 0.13531476 0.07875702 0.10337329 0.065038264 -0.083488435 0.12791413 0.13202938
0.14194584 0.11474264 -0.266776 0.24544233 -0.019148678 -0.21110666 -0.0077084303 -0.19845268
0.03837064 -0.11396964 0.004309356 -0.023341209 -0.27318424 -0.078108355 0.14204803 0.08143735
0.18064606 -0.046943605 0.053204894 0.01754427 0.11726177 0.20659024 -0.0042766333 -0.18514657
0.24008 0.02875349 -0.09482686 0.069756836 -0.2040444 -0.18672216 0.101931125 -0.06912643
-0.28625104 0.056221038 0.01630485 0.047075987 -0.053375572 0.12452796 -0.10794151 -0.048454046
0.19982547 -0.0050645173 0.034575194 -0.13029227 0.23398048 -0.008634537 0.12103385 -0.1385189
-0.15335356 -0.25711173 0.21028656 0.11697754 0.2773652 0.23882794 0.2761736 -0.17701757
-0.27046508 -0.0175848 0.012410134 -0.07253921 0.270526 -0.08974172 0.2519526 0.049965262
-0.078256905 0.12431303 -0.15709579 -0.0047713816 0.02463749 -0.10095121 -0.2802057 -0.011275172
-0.27634653 0.11005303 0.24579084 -0.024572253 -0.26372978 0.1682311 0.2563002 -0.27091447
-0.296598 0.08413428 -0.28017548 0.22240376 0.13146973 -0.04124257 -0.055461735 0.2909901
00000000: 0e45 8fbe df07 8fbe 80ee fa3b c61f 9abd
00000010: a077 7f3e 4435 703e 645d 653e 1afa 94be
00000020: 0092 933e 1ea7 233e d6d6 95bd b06e 5f3e
00000030: d091 6fbd 8ed7 32be a411 1a3e 5ec5 0b3e
00000040: a4f4 643e e619 113e 0408 353e 00f3 ce3d
00000050: 008d 81ba 3892 e8bd 8003 e7bc 4c1d 713e
00000060: 804d 31bc 222a 343e 5ed1 aebd af82 89be
00000070: e48b 83be 7110 14be 0091 eebb 8075 363c
00000080: b0d8 d83d c81c 6dbe 9e79 c7bd e63d 20be
00000090: 121d 903e cc37 85be bcf0 513e 4c84 8b3e
000000a0: 3050 02be 9a8d 903e 40d1 70bc 7490 c23d
000000b0: b22d 0e3e 3c3a 6bbe e8a7 15be be50 e3bd
000000c0: 6144 82be 64dd ab3d c0d5 ab3d ae81 7dbe
000000d0: 688b 6e3e bc5f 16be e085 95be 8030 403e
000000e0: 2837 bb3d 207a aa3c bb80 24be 1400 3d3e
000000f0: c025 313d 9993 8abe 60e9 653c 608b 59bc
00000100: 803e 403e dafe 42be 205a 213d e8fe 1bbe
00000110: 4888 7f3e fc12 b33d 280f 63be 5084 eb3c
00000120: a2d5 3abe cad0 223e 9e5a 96be 94df 0ebe
00000130: 160d d5bd 92c9 94bd 522b 323e 2028 a0bc
00000140: b007 333d 10f1 42bd 4c75 3abe f4f8 b4bd
00000150: 1e0d 413e 1a1e 8d3e 9807 f63d 7c91 3bbe
00000160: 4eb8 76be 6ef8 943e 00b2 cebd 2656 423e
00000170: 04c1 57be be9c 403e deaa 6cbe e860 35bd
00000180: bdb0 41be 7e13 4fbe fc11 fd3d f8ed 843e
00000190: 74b7 5f3e 2de6 48be 7c4f 7a3e 60cf 763e
000001a0: 12f4 5dbe 5cd9 723e 645f 56be 7803 53be
000001b0: f2ad 89be f04b 37bd 2e77 803e 58db 763e
000001c0: 440c 6ebd fa79 0d3e 28d2 5e3e d228 31be
000001d0: 9838 7e3e 8d9a 91be 582a 4d3d c04b 1fbc
000001e0: 00e2 8cbb ca59 1abe b0f2 593e 006f 4c3e
000001f0: eca2 fa3d e4ba b93d c083 033e d0dd fb3d
00000200: 6ea7 72be 54e0 29be 78b0 023e 2854 5c3e
00000210: 2ef0 b0bd da8a 883e 88ac 643e 09f8 88be
00000220: 3881 aebd f463 58be 7343 8fbe 801e c23d
00000230: b40c 883e 982e 3bbe 80a1 5bbc e04c c63c
00000240: 466c 81be 7862 3fbd 804b 833d 9a5f 66be
00000250: 8543 60be 7aa0 0ebe 3060 313d 126e 19be
00000260: 29e0 8dbe 4878 4e3e 28ef 4cbd 08d1 103e
00000270: 3e49 82bd b824 babd 1cc6 6b3e bca3 8f3d
00000280: 0002 b73d f48f 0a3e 5c4b a13d 60b5 d33d
00000290: c832 853d fcfb aabd ecfb 023e b632 073e
000002a0: 405a 113e 30fe ea3d dd96 88be 3c55 7b3e
000002b0: b0dd 9cbc 582c 58be 0097 fcbb 2e37 4bbe
000002c0: 882a 1d3d ea68 e9bd 8035 8d3b 1036 bfbc
000002d0: cede 8bbe 46f7 9fbd 0a75 113e a0c8 a63d
000002e0: 48fb 383e f047 40bd 60ed 593d 00b9 8f3c
000002f0: f026 f03d 648c 533e 0023 8cbb 1097 3dbe
00000300: 88d7 753e 708c eb3c 9634 c2bd acdc 8e3d
00000310: 04f1 50be 1834 3fbe 44c1 d03d 2892 8dbd
00000320: 7f8f 92be 0848 663d c091 853c c0d2 403d
00000330: 58a0 5abd 8408 ff3d 7010 ddbd c077 46bd
00000340: 0c9f 4c3e 40f4 a5bb b89e 0d3d 566b 05be
00000350: 9498 6f3e e077 0dbc 98e0 f73d e6d7 0dbe
00000360: b708 1dbe 26a4 83be 5c55 573e ec91 ef3d
00000370: d002 8e3e 508f 743e a066 8d3e 1844 35be
00000380: 667a 8abe 000e 90bc e053 4b3c 708f 94bd
00000390: 6282 8a3e 82ca b7bd eeff 803e 60a8 4c3d
000003a0: 2845 a0bd d497 fe3d b8dd 20be 4059 9cbb
000003b0: 90d4 c93c 82bf cebd 1f77 8fbe 80bb 38bc
000003c0: 4b7d 8dbe 7c63 e13d 98b0 7b3e c04b c9bc
000003d0: 9707 87be c644 2c3e c839 833e 4db5 8abe
000003e0: b1db 97be 984e ac3d 2973 8fbe d0bd 633e
000003f0: 00a0 063e f8ed 28bd d82b 63bd a8fc 943e

fc1.bias f4 [64]
-0.20203388 0.1465542 -0.0929943 0.119546145 0.03578922 0.2524795 0.2738617 0.072722584
0.05098635 -0.038796246 0.21514821 0.11686444 -0.2603511 -0.075942606 -0.24624574 0.11477545
-0.29193804 0.16119775 0.039139003 -0.17950083 0.1456601 0.22897637 -0.22733092 0.03095889
-0.121096954 -0.094097495 0.28744638 0.027644545 0.191511 0.004812479 0.28797972 -0.08650541
0.10807881 -0.24655098 -0.08723463 -0.2272704 0.1073845 -0.100792274 -0.06792557 -0.2121095
-0.13090575 -0.1537678 0.19896579 -0.13524273 -0.28803915 0.18046787 0.27689892 -0.113149166
0.29826945 -0.25959355 -0.2589629 0.12918451 0.053683102 0.04267621 -0.036173135 0.25296605
0.18652591 0.27551836 -0.1498271 0.26419497 0.21419752 -0.20563327 -0.2558928 0.13454163
00000000: f8e1 4ebe 4e12 163e cc73 bebd 9cd4 f43d
00000010: b897 123d fe44 813e 9a37 8c3e 94ef 943d
00000020: 10d7 503d d0e8 1ebd d04f 5c3e a056 ef3d
00000030: bd4c 85be cc87 9bbd d827 7cbe 640f eb3d
00000040: e778 95be 0611 253e 3850 203d 11cf 37be
00000050: ec27 153e c878 6a3e 70c9 68be 809d fd3c
00000060: ae01 f8bd 30b6 c0bd 2c2c 933e d076 e23c
00000070: 761b 443e 00b2 9d3b 1472 933e c029 b1bd
00000080: 6c58 dd3d dc77 7cbe 12a8 b2bd 92b9 68be
00000090: 68ec db3d 2e6c cebd 901c 8bbd 3c33 59be
000000a0: 280c 06be 4e75 1dbe b0bd 4b3e 127d 0abe
000000b0: de79 93be 92cc 383e b2c5 8d3e c0ba e7bd
000000c0: c6b6 983e 72e9 84be c996 84be f248 043e
000000d0: d0e2 5b3d 40cd 2e3d 482a 14bd c484 813e
000000e0: a600 3f3e be10 8d3e 466c 19be 9044 873e
000000f0: 9856 5b3e 8791 52be 6204 83be 48c5 093e

fc2.weight f4 [64, 64]
0.074523225 -0.079555884 -0.01830569 -0.01942961 -0.056871206 -0.050583243 0.09453051 0.08619389
-0.09348747 0.014305666 0.044243038 0.095636785 0.060630634 -0.001254037 0.09343481 -0.08611448
-0.12408376 0.055172548 0.10068065 0.07372248 0.026609212 -0.09242079 0.005082011 -0.122707054
0.034028187 -0.07622878 -0.118772015 0.07909089 -0.10620506 -0.0029214174 -0.120658934 -0.026692495
0.06035693 -0.027167082 -0.02340658 -0.027213454 0.07659824 -0.05023943 -0.084339514 0.05995314
-0.095627785 0.087712854 0.11570753 -0.07005152 0.11239894 -0.015496269 0.07657084 -0.08351709
0.11240484 0.090390965 0.017268702 -0.044377953 0.021091044 -0.013229817 -0.048562214 -0.04114276
-0.059798717 -0.023544386 -0.0026442409 0.12112814 0.03555113 -0.066085175 0.023508966 0.035325512
0.055134237 -0.07588886 -0.112165585 -0.034966096 -0.018228084 0.12481022 -0.10780649 0.05507928
0.029734671 0.015111759 -0.07165761 0.042675212 -0.04145457 0.07348004 0.11567499 -0.016441956
-0.048698783 0.034465045 -0.074880615 -0.057073474 0.02302356 0.08577375 0.004991159 0.11273278
-0.035810053 0.10852526 -0.07586554 -0.054365814 -0.11843209 0.112773284 -0.12276207 0.019032165
-0.07453574 -0.047710508 -0.08317739 -0.029149547 -0.12096885 0.079071924 0.10474379 -0.086655736
-0.03681904 0.06895997 -0.030016035 -0.013177499 0.07702178 0.11892401 -0.023198664 -0.010279715
-0.059430808 0.11544943 -0.05009657 -0.11684203 0.07720488 0.09589669 -0.07873817 0.02866213
-0.058123127 -0.063872844 0.07333282 -0.042673096 -0.028869376 0.007971093 -0.11049491 0.1241049
0.057658255 0.02255319 -0.054651618 0.08915886 0.08957009 -0.10193902 0.06433995 -0.08344436
0.088758454 -0.074655175 -0.024353832 0.047327533 -0.12160544 -0.0075704157 0.014734954 -0.09302007
0.015634492 -0.040134624 0.11583945 -0.07477595 0.10995552 -0.0045333654 0.085330516 0.020991161
-0.0053045005 0.086214766 0.03622295 -0.07832852 -0.088108495 -0.0678398 -0.018551916 -0.047924265
-0.07131851 0.11421046 0.04239863 -0.0837637 0.068040594 0.10936622 -0.10406923 0.07872839
0.05818802 0.03626825 -0.12117694 -0.09348218 -0.112496644 0.12081313 -0.034166202 -0.0891431
0.06519508 0.015077904 0.06918053 0.08236942 -0.0014583766 0.03895247 -0.118840605 -0.03443511
-0.04928282 0.0895337 0.09216802 -0.090152875 0.025143892 0.02228935 0.012847796 0.08852835
-0.081064016 -0.009746715 0.05828771 0.11901948 -0.108369246 0.049780175 0.055599153 0.08746973
-0.067502245 -0.11899237 0.093930334 -0.12328537 -0.11547725 -0.0072236657 -0.032528117 -0.12278515
-0.05615419 0.03479691 -0.06519079 -0.08949576 0.083927274 -0.028371185 0.08302005 0.033264607
-0.05480936 -0.013923585 0.06527552 0.07019438 -0.015948012 -0.050242454 -0.034351304 0.008215964
0.104432926 0.11593819 0.03230098 0.02407007 0.08729769 0.070771605 -0.028000742 -0.07609156
-0.011936888 -0.093412474 -0.09690125 -0.02099301 0.015839055 -0.10078554 0.08874126 -0.0076883286
0.0132570565 -0.10576643 0.033164516 -0.020138308 -0.031791717 -0.010185093 -0.09298821 0.08587819
0.01073502 0.025101438 0.05637817 0.011989281 -0.053468406 0.02207379 0.08048196 0.023423076
00000000: a29f 983d 32ee a2bd d0f5 95bc d82a 9fbc
00000010: c8f1 68bd 6030 4fbd 3699 c13d 6c86 b03d
00000020: 5c76 bfbd 5062 6a3c 3038 353d 38dd c33d
00000030: d457 783d 805e a4ba c05a bf3d ca5c b0bd
00000040: a01f febd 9cfc 613d a831 ce3d d0fb 963d
00000050: 90fb d93c 1c47 bdbd 0087 a63b d64d fbbd
00000060: 2461 0b3d d61d 9cbd be3e f3bd 68fa a13d
00000070: 0a82 d9bd 4075 3fbb 081c f7bd 38aa dabc
00000080: d438 773d 808d debc 28bf bfbc c0ee debc
00000090: 8adf 9c3d dcc7 4dbd 32ba acbd 6c91 753d
000000a0: 80d8 c3bd cca2 b33d 12f8 ec3d 2c77 8fbd
000000b0: 6a31 e63d 10e4 7dbc 2cd1 9c3d 020b abbd
000000c0: 8234 e63d e61e b93d 1877 8d3c a8c5 35bd
000000d0: 20c7 ac3c e0c1 58bc 2ce9 46bd 5085 28bd
000000e0: 80ef 74bd 28e0 c0bc 004b 2dbb 0812 f83d
000000f0: 109e 113d aa57 87bd e095 c03c 7cb1 103d
00000100: 70d4 613d 9e6b 9bbd 12b7 e5bd 9c38 0fbd
00000110: 1053 95bc 809c ff3d a6c9 dcbd d09a 613d
00000120: 2096 f33c 5097 773c 3ac1 92bd 34cc 2e3d
00000130: 44cc 29bd b47c 963d 02e7 ec3d 48b1 86bc
00000140: 6078 47bd 382b 0d3d 025b 99bd e0c5 69bd
00000150: e89b bc3c 26aa af3d e08c a33b 72e0 e63d
00000160: 90ad 12bd 7e42 de3d 645f 9bbd b0ae 5ebd
00000170: 868c f2bd aef5 e63d ae6a fbbd 58e9 9b3c
00000180: 32a6 98bd 186c 43bd e858 aabd 08cb eebc
00000190: 84be f7bd 76f0 a13d ea83 d63d 9078 b1bd
000001a0: 90cf 16bd e23a 8d3d 30e4 f5bc 70e6 57bc
000001b0: 98bd 9d3d 6e8e f33d 200b bebc 406c 28bc
000001c0: b86d 73bd c070 ec3d 1032 4dbd e04a efbd
000001d0: 981d 9e3d 7c65 c43d 7a41 a1bd d8cc ea3c
000001e0: 8412 6ebd c4cf 82bd 842f 963d fcc9 2ebd
000001f0: 787f ecbc 3099 023c 284b e2bd b62a fe3d
00000200: 102b 6c3d 78c1 b83c 60da 5fbd ec98 b63d
00000210: 8670 b73d 68c5 d0bd aac4 833d e0e4 aabd
00000220: fec6 b53d d0e4 98bd b081 c7bc 84da 413d
00000230: 460c f9bd 4011 f8bb e06a 713c 4e81 bebd
00000240: e813 803c 3464 24bd 3c3d ed3d 2224 99bd
00000250: 5c30 e13d a08c 94bb c4c1 ae3d a8f5 ab3c
00000260: 60d1 adbb 5e91 b03d 845e 143d b46a a0bd
00000270: 3a72 b4bd 98ef 8abd 30fa 97bc 3c4c 44bd
00000280: 700f 92bd 2ce7 e93d 30aa 2d3d 4e8c abbd
00000290: de58 8b3d 66fb df3d 4022 d5bd 5a3c a13d
000002a0: 9056 6e3d 048e 143d 9e2b f8bd 9673 bfbd
000002b0: a464 e6bd e06c f73d dcf1 0bbd a890 b6bd
000002c0: 0085 853d 5009 773c 86ae 8d3d 4cb1 a83d
000002d0: 0027 bfba a08c 1f3d b462 f3bd d40b 0dbd
000002e0: c8dc 49bd 725d b73d 96c2 bc3d 12a2 b8bd
000002f0: 90fa cd3c 2898 b63c 907f 523c 5a4e b53d
00000300: e404 a6bd b0b0 1fbc 18bf 6e3d 7cc0 f33d
00000310: b2f0 ddbd 4ce6 4b3d f0bb 633d 5423 b33d
00000320: 9e3e 8abd 46b2 f3bd 8c5e c03d 0a7d fcbd
00000330: 567f ecbd 80b4 ecbb 343c 05bd c876 fbbd
00000340: f001 66bd 3487 0e3d c082 85bd 8e49 b7bd
00000350: 10e2 ab3d b06a e8bc 6a06 aa3d 7840 083d
00000360: c87f 60bd c01f 64bc 2caf 853d 12c2 8f3d
00000370: 68a5 82bc 08cb 4dbd f4b3 0cbd 409c 063c
00000380: eee0 d53d 0071 ed3d 084e 043d 982e c53c
00000390: 22c9 b23d b4f0 903d d061 e5bc e4d5 9bbd
000003a0: f092 43bc 0a4f bfbd 2a74 c6bd 88f9 abbc
000003b0: e8c0 813c a668 cebd fabd b53d 60ee fbbb
000003c0: 2034 593c 129c d8bd 84d7 073d 18f9 a4bc
000003d0: 0838 02bd 60df 26bc 9a70 bebd e8e0 af3d
000003e0: f0e1 2f3c 88a1 cd3c ccec 663d b06e 443c
000003f0: b001 5bbd 18d4 b43c bad3 a43d c0e1 bf3c

fc2.bias f4 [64]
-0.078402564 0.101089194 -0.08515632 0.016692594 0.11640607 -0.023964703 0.074821725 0.03518428
0.039894357 0.086213574 0.05538647 -0.022627711 0.003746435 0.042074427 -0.049644306 0.033464313
0.07876557 0.08906415 -0.018378899 0.09756024 -0.07603292 0.031385854 -0.08910222 0.008723706
0.06140384 -0.072212815 0.024028212 0.059433445 0.04893206 -0.083271116 0.08631477 -0.009796873
0.029948413 -0.048823595 -0.10545756 -0.057532534 0.09179652 -0.08577597 -0.044318974 -0.11665653
0.063611865 0.066379026 -0.08250685 -0.042066023 -0.051210657 -0.06770754 -0.09552629 0.08067383
-0.025505587 0.11117482 -0.02710332 0.088445604 -0.0013498515 0.016226754 0.09203699 -0.08182709
-0.09875077 -0.070846885 -0.09297411 -0.11065154 -0.11060223 -0.062476993 0.07311082 0.059884936
00000000: 8691 a0bd da07 cf3d 7066 aebd e8be 883c
00000010: 4e66 ee3d a051 c4bc 223c 993d 641d 103d
00000020: 4468 233d be90 b03d ecdc 623d c05d b9bc
00000030: c086 753b 3c56 2c3d d457 4bbd e011 093d
00000040: d84f a13d 4467 b63d 588f 96bc aacd c73d
00000050: 26b7 9bbd 748e 003d 3a7b b6bd e0ed 0e3c
00000060: 9882 7b3d 50e4 93bd d0d6 c43c 7c70 733d
00000070: fc6c 483d 0c8a aabd ccc5 b03d 1083 20bc
00000080: 6056 f53c 40fb 47bd 22fa d7bd 3ca7 6bbd
00000090: d0ff bb3d 50ab afbd d087 35bd 9ee9 eebd
000000a0: f046 823d baf1 873d 5af9 a8bd 6c4d 2cbd
000000b0: 44c2 51bd 40aa 8abd 4aa3 c3bd 5238 a53d
000000c0: 18f1 d0bc a0af e33d c807 debc f822 b53d
000000d0: 80ed b0ba f8ed 843c e47d bc3d f694 a7bd
000000e0: d83d cabd 2c18 91bd 3669 bebd 469d e2bd
000000f0: 6c83 e2bd e0e7 7fbd 20bb 953d e849 753d

fc3.weight f4 [1, 64]
0.049378797 0.075038895 -0.061690345 0.046707287 -0.059882447 0.08187044 -0.061352804 -0.005773127
-0.027905747 -0.12237845 0.034368187 0.060389116 0.008576274 -0.081527695 -0.08803284 0.104726896
-0.08352198 0.0049347878 -0.088487044 -0.03969334 -0.11124843 -0.11441362 -0.11202209 0.05707909
-0.028409958 0.024163336 -0.117566556 0.052666843 0.0100096315 0.07306659 -0.101903185 -0.06076345
0.049856216 0.052023083 0.0659298 -0.06118782 -0.03201981 0.10956465 -0.10036507 0.041013584
-0.01068151 -0.09771581 0.07039823 0.087723285 0.062263086 0.06536344 0.057492018 0.01731667
0.070428535 0.031851888 -0.06801063 0.018277988 -0.0552364 0.022398084 -0.019280642 -0.031005636
-0.06448746 -0.03902261 0.00024478137 0.067351595 0.01723659 0.025595188 0.07848993 -0.11021669
00000000: 6c41 4a3d fead 993d 04af 7cbd 2450 3f3d
00000010: 4c47 75bd b0ab a73d 144d 7bbd 802c bdbb
00000020: 989a e4bc 8ea1 fabd a8c5 0c3d 945a 773d
00000030: 8083 0c3c fef7 a6bd 904a b4bd 0e7b d63d
00000040: 920d abbd 00b4 a13b b238 b5bd 7c95 22bd
00000050: 38d6 e3bd b051 eabd d66b e5bd c4cb 693d
00000060: 00bc e8bc 30f2 c53c bcc6 f0bd 30b9 573d
00000070: 70ff 233c f0a3 953d 9eb2 d0bd 18e3 78bd
00000080: 0836 4c3d 2816 553d 3406 873d 14a0 7abd
00000090: 3427 03bd 6e63 e03d 348c cdbd dcfd 273d
000000a0: 8001 2fbc 3a1f c8bd f22c 903d 44a8 b33d
000000b0: 9407 7f3d 44dd 853d c07c 6b3d b0db 8d3c
000000c0: d63c 903d 2077 023d 2849 8bbd b8bb 953c
000000d0: 903f 62bd 307c b73c 70f2 9dbc 88ff fdbc
000000e0: 0012 84bd 2cd6 1fbd 0056 8039 a2ef 893d
000000f0: c033 8d3c 00ad d13c 54bf a03d 4ab9 e1bd
