data/models/rl_aca_20250316_214850.pt (torch, 23198 bytes, 5 tensors)

fc1.weight f4 [64, 11]
0	0xbdc201b4	-0.09472981
1	0xbe45e856	-0.1932691
2	0xbe8a72a7	-0.27040598
3	0x3c447a20	0.0119920075
4	0xbe551e8e	-0.20812437
5	0xbd908930	-0.070574164
6	0x3d0c8460	0.03430593
7	0x3bfffac0	0.007811874
8	0xb916f800	-0.00014397502
9	0xbcc074b0	-0.023493141
10	0x3e95ec6c	0.29281938
11	0x3dae91c4	0.08523896
12	0x3e417cf8	0.18895328
13	0xbb9cf580	-0.004790008
14	0xbd9a1170	-0.07522857
15	0xbe34b9f9	-0.17649068
16	0x3e81ddb8	0.2536447
17	0x3e3e4d4c	0.18584174
18	0x3cb2c9e0	0.021824777
19	0xbda8f338	-0.08249515
20	0xbd90b5cc	-0.07065925
21	0xbe057ad6	-0.1303514
22	0xbe32d3b1	-0.17463566
23	0x3e822110	0.2541585
24	0x3e4240a2	0.18969968
25	0x3e9689a8	0.29401898
26	0xbe3d925a	-0.1851286
27	0xbdcbcb26	-0.09950857
28	0xbaed2400	-0.0018092394
29	0xbe820d1e	-0.25400633
30	0x3e57b7ac	0.21066159
31	0x3e1a46f6	0.15066132
32	0x3e04152c	0.12898701
33	0xbc68c680	-0.014207482
34	0xbc008100	-0.007843256
35	0x3e868cfa	0.26279432
36	0xbe953f3f	-0.29149815
37	0xbe1a1b15	-0.15049393
38	0x3e6512b0	0.2237041
39	0xbe7c23ae	-0.24622986
40	0x3e091076	0.13385186
41	0x3e40660c	0.18788928
42	0x3e5975bc	0.21236318
43	0x3e0ee3b6	0.13954052
44	0x3cb8d790	0.022563726
45	0x3dc1b350	0.09458029
46	0x3e36ccf2	0.17851618
47	0xbe952acb	-0.2913421
48	0x3e312732	0.17300108
49	0x3ddb6fcc	0.10714683
50	0x3dc4d440	0.09610796
51	0x3e8e0fde	0.2774648
52	0xbe0f4474	-0.13990957
53	0x3e1b5770	0.15170074
54	0x3e445086	0.19171342
55	0xbe89ee6c	-0.26939714
56	0x3c8265a0	0.0159176
57	0x3e8f3540	0.27970314
58	0xbcf2f740	-0.029658914
59	0x3e3d5460	0.18489218
60	0x3dc18780	0.09449673
61	0x3dc02a74	0.09383097
62	0xbabaa500	-0.0014239848
63	0x3e7fdf58	0.24987543
64	0xbe857743	-0.26067552
65	0x3e861b96	0.2619292
66	0x3e9368c2	0.2879086
67	0xbd71f860	-0.05907476
68	0xbda44fe8	-0.080230534
69	0x3e805c44	0.25070393
70	0x3d980b68	0.074240506
71	0x3df7cb04	0.12099269
72	0x3e1fddea	0.15611997
73	0x3e0b7c64	0.1362167
74	0xbd852c0e	-0.065025434
75	0xbe393fda	-0.18090764
76	0x3d13d2a0	0.03608954
77	0xbe35f7c2	-0.17770293
78	0x3d562508	0.05228141
79	0xbe42a300	-0.19007492
80	0xbdb9c670	-0.09071052
81	0xbde6e88c	-0.112748235
82	0xbd9f23cc	-0.077704996
83	0x3dd0b834	0.10191384
84	0xbe1e7e39	-0.15477838
85	0x3dcb5e54	0.09930101
86	0xbe18ecb7	-0.1493405
87	0x3d9bcf84	0.0760794
88	0xbe0e6c28	-0.13908446
89	0xbdc515b8	-0.09623283
90	0xbe6c5874	-0.23080617
91	0x3cb35c80	0.021894693
92	0x3e8e59b6	0.2780282
93	0xbe80f200	-0.2518463
94	0xbe2546b1	-0.16140248
95	0x3e53236c	0.20618981
96	0x3d83c8f4	0.06434813
97	0xbe856acd	-0.26058045
98	0xbe1d69ae	-0.15372345
99	0x3e5281a0	0.2055726
100	0xbdb463be	-0.08808087
101	0xbe332bcd	-0.17497177
102	0x3dd3f834	0.10350075
103	0x3e96db8e	0.29464382
104	0xbc6d4020	-0.014480621
105	0xbe8e9e01	-0.27854922
106	0xbe869e7c	-0.2629279
107	0x3e214818	0.15750158
108	0xbdcbdff0	-0.09954822
109	0xbe5fa8b2	-0.21841696
110	0xbe11409f	-0.14184807
111	0x3df27d34	0.11840287
112	0xbe509fc2	-0.20373443
113	0xbe624189	-0.22095312
114	0x3bfed680	0.0077770352
115	0x3dd8584c	0.10563716
116	0xbdc7f612	-0.09763731
117	0x3d36ec28	0.04465881
118	0xbe8025ee	-0.25028938
119	0xbd9e79a6	-0.07738046
120	0xbe8f0316	-0.27932042
121	0x3dfc70c0	0.12326193
122	0x3cb151c0	0.021645427
123	0x3dd6cf8c	0.10488805
124	0xbd8e184e	-0.069382295
125	0x3d8d74ec	0.06907067
126	0x3e4f6eb8	0.2025708
127	0x3e4aa2c6	0.19788656
128	0x3dee6c60	0.11641765
129	0xbe4aaef0	-0.19793296
130	0x3e0e1fe6	0.13879356
131	0x3e4b15c0	0.19832516
132	0x3e322e4e	0.17400476
133	0x3e11deaa	0.14245096
134	0x3e59bef8	0.21264255
135	0x3e221daa	0.15831628
136	0xbdcc1c80	-0.099663734
137	0xbe8cbe9f	-0.27489182
138	0xbe816280	-0.25270462
139	0x3e80a158	0.25123096
140	0x3cac10f0	0.02100417
141	0x3e8c6da0	0.27427387
142	0xbce0afc0	-0.027427554
143	0x3e2595cc	0.16170424
144	0xbe2f51a9	-0.17120995
145	0xbcb5fba0	-0.02221471
146	0xbd85cfa0	-0.06533742
147	0xbe65cd11	-0.22441508
148	0x3e739870	0.23788619
149	0xbd92ea82	-0.07173635
150	0x3e80fb64	0.25191796
151	0xbdd34018	-0.10314959
152	0xbe246c19	-0.16056861
153	0x3e2fb864	0.17160183
154	0x3e6c5fb4	0.23083383
155	0x3e5e4054	0.21704227
156	0x3df8ed44	0.1215463
157	0xbe8cc23b	-0.27491936
158	0x3d00f588	0.031484157
159	0x3dd0b44c	0.10190639
160	0x3da46664	0.08027342
161	0xbe84806e	-0.25879234
162	0xbe4ded80	-0.2011013
163	0xbe816d72	-0.25278813
164	0x3da0a0e8	0.078431904
165	0x3db1d000	0.08682251
166	0xbe102d3d	-0.14079757
167	0xbd548c94	-0.05189188
168	0x3e9629a6	0.2932865
169	0x3d247ee0	0.04016006
170	0x3e946778	0.2898519
171	0x3d52cca8	0.051464707
172	0xbe8ac5b8	-0.27103972
173	0xbd3e1740	-0.04640889
174	0xbe6cf800	-0.2314148
175	0xbe85393d	-0.26020232
176	0xbd128c68	-0.035778433
177	0x3e81a43e	0.2532062
178	0xbd6745e8	-0.056463152
179	0x3d193788	0.037406474
180	0x3e938c92	0.28818184
181	0x3d900aac	0.070332855
182	0x3dbf4924	0.09340122
183	0x3d3c4810	0.04596716
184	0x3d6842e0	0.056704402
185	0x3d4a5810	0.04940039
186	0x3e32c1fe	0.17456815
187	0x3e1dd1e8	0.15412104
188	0x3e86c046	0.26318568
189	0xbe466a92	-0.19376591
190	0x3e05b20a	0.13056198
191	0x3c42ae00	0.011882305
192	0xbe04cc15	-0.12968476
193	0xbe87347f	-0.2640724
194	0xbddf9da0	-0.109187365
195	0x3deb2f90	0.11483681
196	0xbdb2aaf4	-0.08724013
197	0x3e883d42	0.26609236
198	0xbe80f416	-0.25186223
199	0xbe2b2dd4	-0.16716701
200	0x3e33b9c6	0.17551336
201	0x3e4055c6	0.1878272
202	0xbdc6ec2c	-0.09713015
203	0x3e853f5c	0.26024902
204	0xbdff8e7a	-0.12478347
205	0xbad65900	-0.0016353428
206	0xbe2f7eba	-0.17138186
207	0x3d958d74	0.07302371
208	0x3dc8bea0	0.09801984
209	0xbe8769af	-0.26447818
210	0x3c3a4460	0.011368841
211	0xbe38bd30	-0.1804092
212	0xbd85271a	-0.06501599
213	0x3d3c2828	0.045936733
214	0x3e837892	0.25677925
215	0xbd6d627c	-0.05795525
216	0xbd3b4f28	-0.045729786
217	0x3e8f8bd2	0.28036362
218	0x3d5d1b68	0.053981215
219	0x3d6cfbd8	0.057857364
220	0xbe190020	-0.14941454
221	0x3e843a2a	0.25825626
222	0x3d231ff0	0.03982538
223	0x3d8a1c50	0.067436814
224	0xbdea1c5a	-0.11431189
225	0x3e085d24	0.1331678
226	0xbd4ab218	-0.04948625
227	0x3df61a34	0.120167166
228	0x3e95c1ce	0.29249424
229	0xbdc3f4ea	-0.09568198
230	0x3e72115c	0.23639435
231	0x3e38f814	0.18063384
232	0x3d37f050	0.044906914
233	0x3d4016b0	0.046896636
234	0xbdacf842	-0.08445789
235	0xbe1960d1	-0.14978339
236	0xbe8b6e86	-0.2723276
237	0x3e59f61c	0.2128529
238	0x3e752fa8	0.2394396
239	0xbe3b058e	-0.18263838
240	0x3e814388	0.25246835
241	0xbe888220	-0.26661777
242	0xbe343170	-0.17596984
243	0xbe91902e	-0.28430313
244	0xbe93de69	-0.28880623
245	0xbdbdf680	-0.09275532
246	0x3d751b98	0.05984077
247	0xbe013d38	-0.1262101
248	0xbd1cd110	-0.038285315
249	0x3dc4e90c	0.09614763
250	0xbe669930	-0.22519374
251	0xbdc028ee	-0.09382807
252	0xbe307f63	-0.17236094
253	0x3e29fe82	0.16600993
254	0xbe0b4798	-0.1360153
255	0x3df31598	0.11869353

fc1.bias f4 [64]
0	0x3e7ec9ec	0.24881715
1	0x3e4c50bc	0.19952673
2	0xbe44b332	-0.19208983
3	0x3e699fc4	0.22814852
4	0xbe6f6c10	-0.23381066
5	0x3e96c838	0.2944963
6	0x3dd1d2a0	0.10245252
7	0xbde7263e	-0.11286591
8	0x3e2f7cd2	0.17137459
9	0xbe81a8fb	-0.25324234
10	0xbdbe4a44	-0.09291509
11	0xbe936529	-0.28788117
12	0xbe8bdb61	-0.2731581
13	0xbe37c68f	-0.17946838
14	0x3e3e9ba2	0.18614057
15	0x3e0cec00	0.13761902
16	0xbe49c674	-0.1970461
17	0x3e952f58	0.29137683
18	0x3dc1fe54	0.09472337
19	0xbd0be2c8	-0.034151822
20	0x3d3c6f90	0.04600483
21	0xbdcfd746	-0.10148482
22	0xbddccfba	-0.10781808
23	0x3e4b52dc	0.19855827
24	0xbdd4ed8e	-0.103968725
25	0x3e81abd4	0.25326407
26	0xbd9388ee	-0.07203852
27	0x3d67d858	0.056602806
28	0x3c572580	0.013131499
29	0xbc55a820	-0.013040572
30	0x3dde59d8	0.1085698
31	0x3dc0d9b8	0.094165266
32	0xbe742a2d	-0.23844214
33	0x3e89afd8	0.2689197
34	0xbe41ba59	-0.18918742
35	0xbe5e74c9	-0.21724238
36	0xbe96ff89	-0.29491833
37	0x3e1833da	0.1486353
38	0x3e98f8ea	0.29877406
39	0x3e474f92	0.19463947
40	0x3e4edac4	0.2020064
41	0x3d734ca0	0.059399247
42	0x3e79a690	0.24379945
43	0xbda31d9c	-0.07964632
44	0xbbc4ca40	-0.0060055554
45	0x3dc05aa4	0.09392288
46	0x3e7cf81c	0.24704021
47	0xbe4405b4	-0.191428
48	0x3b9759c0	0.0046188533
49	0x3e84874a	0.25884467
50	0xbd68a068	-0.0567936
51	0x3e1bd496	0.15217814
52	0xbe6fc6c1	-0.23415662
53	0x3e9752fa	0.29555494
54	0x3e99a6e2	0.30010134
55	0xbe56a7f4	-0.20962507
56	0x3e444f32	0.19170836
57	0x3d3b26c8	0.04569128
58	0xbd04f698	-0.032461733
59	0xbd98171a	-0.07426281
60	0xbe6536e5	-0.22384222
61	0xbdaaf3c0	-0.08347273
62	0x3e835b2c	0.25655496
63	0x3df00a94	0.117207676

fc2.weight f4 [64, 64]
0	0x3db7a098	0.08966178
1	0x3da5bb70	0.080923915
2	0xbdecfba0	-0.11571431
3	0x3d9a885e	0.07545541
4	0x3d6200e0	0.055176616
5	0x3cad3030	0.021141142
6	0x3db5e8c0	0.08882284
7	0xbbe179e0	-0.0068809837
8	0xb9393400	-0.00017662346
9	0xbc92e528	-0.017931536
10	0x3df6221e	0.12018226
11	0x3dbf9ef8	0.09356493
12	0x3de66818	0.11250323
13	0x3dbd2a6a	0.092366055
14	0x3db5c4bc	0.08875415
15	0xbdd35688	-0.10319239
16	0xbc69e230	-0.014275119
17	0x3d07782c	0.03307359
18	0x3d99eec0	0.07516241
19	0x3d856a74	0.06514445
20	0xbc24fbf0	-0.010069832
21	0x3afc4600	0.0019246936
22	0xbca01560	-0.019541442
23	0xbd751b78	-0.05984065
24	0xbda64a24	-0.0811961
25	0x3adef300	0.0017009676
26	0x3dccca04	0.09999469
27	0xbd8a15de	-0.06742452
28	0xbc8dd780	-0.017314672
29	0xbd72be64	-0.059263602
30	0xbd1e8c50	-0.03870803
31	0x3cf002c8	0.029298201
32	0xbde69ae4	-0.11260012
33	0x3dfb01c6	0.12256198
34	0xbc64c1c0	-0.013962209
35	0xbd90d354	-0.07071558
36	0xbd0377a0	-0.032096505
37	0xbd6362c8	-0.055514127
38	0xbdb40e80	-0.08791828
39	0xbdddf318	-0.10837382
40	0xbd6e0650	-0.05811149
41	0xbca0f438	-0.019647703
42	0xbdbd8cb4	-0.092553526
43	0xbda7bca2	-0.08190276
44	0x3ddeba84	0.10875419
45	0xbd2d0e34	-0.042249873
46	0xbd75c8cc	-0.060005948
47	0x3d24f604	0.04027368
48	0xbcddede0	-0.027090967
49	0xbd78e57c	-0.06076573
50	0x3d7a19f8	0.061059922
51	0xbd46f0c4	-0.048569456
52	0xbde1aab2	-0.11018886
53	0xbd5ef5cc	-0.05443363
54	0x3c8bb798	0.017055318
55	0x3c2e6e20	0.010646373
56	0x3d1f3888	0.03887227
57	0xbd6bb384	-0.057544246
58	0x3de2a5fe	0.11066817
59	0x3db0b280	0.08627796
60	0xbd43d078	-0.047806233
61	0xbdae095e	-0.084978804
62	0x3d8dc3dc	0.06922123
63	0xbc993ce0	-0.018705785
64	0xbdeced10	-0.115686536
65	0x3d1777d4	0.03697951
66	0x3c930f38	0.017951593
67	0x3df36636	0.118847296
68	0xbd050fb4	-0.03248568
69	0xbdf4d9fe	-0.11955641
70	0xbdafaaa8	-0.08577472
71	0x3ddf2738	0.10896152
72	0x3d3905a8	0.04517141
73	0x3d0baee0	0.03410232
74	0x3cf5a090	0.029983789
75	0x3da0d984	0.07853988
76	0xbcc9b0f8	-0.024620518
77	0xbc64e040	-0.013969481
78	0x3d898988	0.06715685
79	0xbba69de0	-0.005084738
80	0x39824400	0.00024846196
81	0xbd740d30	-0.05958289
82	0xbcf5f3e8	-0.03002353
83	0x3deec150	0.11657965
84	0x3cfb9198	0.030709073
85	0x3c51b450	0.0127993375
86	0x3d98e91c	0.07466337
87	0xbd924140	-0.07141352
88	0xbde3e1ac	-0.11127028
89	0x3d81c1ec	0.06335816
90	0x3ccbdea0	0.02488643
91	0x3de938c8	0.11387783
92	0x3decf5a4	0.1157029
93	0xbd9a6aa6	-0.07539873
94	0x3ddc3366	0.10751991
95	0x3d17f0fc	0.037095055
96	0xbdd09a5a	-0.1018569
97	0xbc78f750	-0.015195683
98	0x3dd6b9b6	0.1048464
99	0xbd887526	-0.06662969
100	0xbde196b6	-0.11015074
101	0xbd84b3b2	-0.06479587
102	0x3d3fcb00	0.046824455
103	0xbc5298b0	-0.012853786
104	0xbd083144	-0.03325011
105	0x3d801f4a	0.06255968
106	0x3de08502	0.10962869
107	0xbb91ad20	-0.004445687
108	0x3d7ebdb8	0.06219265
109	0x3d7bd1d0	0.06147939
110	0xbcc2e198	-0.023789212
111	0xbdec95f8	-0.11552042
112	0x3da414c4	0.08011773
113	0x3c8e76c8	0.017390624
114	0xbc451cc0	-0.01203078
115	0x3d940560	0.07227588
116	0xbd217930	-0.039422214
117	0xbd67e2e8	-0.05661288
118	0x3ab09980	0.0013473481
119	0xbdb559c6	-0.088550135
120	0x3cc88db0	0.024481624
121	0xbd5aa2a8	-0.053377777
122	0x3dbb8ed6	0.09158103
123	0x3d6f82c0	0.058474302
124	0x3de8f1ec	0.11374268
125	0x3dc28596	0.09498136
126	0xbddbc8d6	-0.10731666
127	0x3dd42c46	0.10360007
128	0xbc36daa0	-0.011160523
129	0xbd46c630	-0.04852885
130	0x3dc4a972	0.09602632
131	0xbda0911c	-0.078401774
132	0xbd8ceaea	-0.06880744
133	0x3df63e92	0.12023653
134	0x3cb1a9c8	0.021687403
135	0xbd7b0e1c	-0.061292753
136	0xbc28e0d0	-0.010307506
137	0xbda2fd2a	-0.079584435
138	0x3dfc4c42	0.123192325
139	0x3d9e640c	0.07733926
140	0xbaeeaf80	-0.0018210262
141	0x3ddbb6e2	0.107282415
142	0x3dcdba76	0.1004533
143	0xba071b00	-0.00051538646
144	0x3c403ab0	0.011732742
145	0xbdcd3b1c	-0.1002104
146	0x3cec1ba8	0.028821781
147	0x3c5c2a60	0.013437837
148	0x3d521814	0.051292494
149	0xbc344800	-0.011003494
150	0xbdae2dd8	-0.08504838
151	0x3d4b3d7c	0.049619183
152	0x3d189624	0.03725256
153	0xbddbd410	-0.10733807
154	0x3d917db2	0.071040526
155	0x3b2e0780	0.0026554763
156	0xbd5a8274	-0.053347066
157	0xbd791aa4	-0.060816422
158	0x3be1eaa0	0.0068944246
159	0xbd328f64	-0.04359378
160	0xbddf9b22	-0.10918261
161	0xbd8439ae	-0.06456314
162	0xbd9c3858	-0.07627934
163	0x3b94d660	0.004542157
164	0xbc27d3f0	-0.010243401
165	0x3ddb4f4a	0.107084826
166	0xbdd1f1ce	-0.10251199
167	0xbdd9d100	-0.10635567
168	0xbdcb346c	-0.09922108
169	0xbd44df68	-0.04806462
170	0xbdb64c4c	-0.08901271
171	0x3c6ccc00	0.014452934
172	0xbd781ae8	-0.060572535
173	0xbd796148	-0.06088379
174	0x3de18ca8	0.11013156
175	0xbd52b450	-0.05144149
176	0x3de9b574	0.114115626
177	0x3d308cd0	0.04310304
178	0x3ddd98b0	0.108201385
179	0x3dedbbc2	0.116080776
180	0xbb1fab00	-0.0024363399
181	0x3d5fb57c	0.054616436
182	0x3d24cb34	0.040232852
183	0xbdb1e8d0	-0.086869836
184	0x3bf6cac0	0.007531494
185	0xbd9d39c2	-0.07677032
186	0xbcabc390	-0.020967275
187	0x3dca4596	0.09876554
188	0x3d7f2924	0.062295094
189	0x3d6b550c	0.057454154
190	0x3dbb5a50	0.09148085
191	0x3cd9e158	0.02659671
192	0x3dcf6410	0.10126507
193	0x3dc9a3e4	0.09845713
194	0xbd188914	-0.037240103
195	0x3d8ddfb4	0.069274336
196	0xbdb1c8fc	-0.08680913
197	0x3d96d262	0.07364346
198	0x3d7c1ed8	0.061552852
199	0x3d90ccbe	0.070703015
200	0x3daa241e	0.0830767
201	0x3cabf9f8	0.020993218
202	0x3de96f08	0.11398131
203	0x3d6cce0c	0.05781369
204	0xbdb5ec32	-0.08882941
205	0x3d1f2e40	0.038862467
206	0x3d47c834	0.048774913
207	0x3d8b5d88	0.06804949
208	0xbd4cdcf4	-0.050015405
209	0x3ccabc08	0.024747863
210	0x3da8e3f8	0.082466066
211	0xbd72a858	-0.059242576
212	0xbd2e88a8	-0.042610794
213	0x3df5894e	0.119890794
214	0xbdcdad8e	-0.100428686
215	0x3dccba06	0.09996419
216	0xbdedbf14	-0.11608711
217	0xbddc5098	-0.107575595
218	0x3d607180	0.054795742
219	0xbcc89d10	-0.024488956
220	0x3d30bbc4	0.043147817
221	0x3dfcd682	0.123456016
222	0x3b8d51a0	0.004312709
223	0x3d0d75a4	0.03453602
224	0xbd8c4b18	-0.068502605
225	0x3d254a38	0.040353984
226	0xbdd906da	-0.1059701
227	0xbdbf0a54	-0.09328142
228	0xbdea74ea	-0.11448081
229	0x3c4f8e70	0.012668237
230	0x3d4c7f2c	0.049925968
231	0xbd8fff5e	-0.07031129
232	0xbdfaf9cc	-0.12254676
233	0x3d192ff4	0.037399247
234	0xbd5e4da8	-0.054273278
235	0x3d2d07e4	0.042243853
236	0x3d84eff8	0.06491083
237	0x3de9b2a0	0.11411023
238	0x3ba5c760	0.0050591677
239	0xbac7af80	-0.0015234798
240	0x3caf60e8	0.021408513
241	0xbd75e274	-0.060030416
242	0xbd2c7830	-0.042106807
243	0x3dfa41c6	0.122195765
244	0xbcc5ba80	-0.024136782
245	0xbdd73cfc	-0.10509679
246	0xbd165668	-0.036703497
247	0x3a252200	0.0006299317
248	0x3dc77b94	0.097403675
249	0x3dcdd50a	0.100503996
250	0x3dee3672	0.11631478
251	0xbd40d080	-0.04707384
252	0x3deaa6d0	0.11457598
253	0x3d0af9bc	0.03392957
254	0x3db03f66	0.08605842
255	0x3dfd0084	0.12353614

fc2.bias f4 [64]
0	0xbdd8b3f6	-0.105812
1	0x3dd595e0	0.10428977
2	0xbc6479d0	-0.013945058
3	0xbd2ed998	-0.042687982
4	0x3db94078	0.090454996
5	0x3c7d94c0	0.015477359
6	0xbd0d2d0c	-0.03446679
7	0xbbab80e0	-0.005233869
8	0x3d575388	0.052569896
9	0x3df8774e	0.121321306
10	0x3d9021dc	0.07037708
11	0xbc6578e0	-0.01400587
12	0x3d164b8c	0.03669314
13	0x3d949e30	0.07256734
14	0xbc8c0af0	-0.01709506
15	0xbd9d8ade	-0.076925024
16	0xbccd28c8	-0.02504386
17	0x3d513734	0.051078036
18	0x3d355b04	0.044276252
19	0x3c54e960	0.012995094
20	0xbd8c784a	-0.06858881
21	0xbddea90a	-0.108720854
22	0xbd6cbcb4	-0.05779715
23	0xbd2195a8	-0.039449364
24	0x3d91f7e8	0.071273625
25	0xbd8a9210	-0.067661405
26	0x3cf4bf20	0.029876292
27	0xbd913d3e	-0.07091759
28	0xbdf3ac24	-0.118980676
29	0xbdf28aae	-0.11842857
30	0x3be4b140	0.0069791377
31	0x3d6c53d0	0.057697117
32	0x3dc03de0	0.09386802
33	0x3de195ca	0.11014898
34	0xbc8e6670	-0.01738283
35	0x3d872716	0.06599252
36	0xbc3a0740	-0.011354268
37	0xbdb73b6c	-0.08946881
38	0x3da1f4a8	0.079079926
39	0xbd302f5c	-0.043013915
40	0xbd992c52	-0.074791566
41	0x3cc490a0	0.023994744
42	0xbd842212	-0.06451811
43	0xbda0b9ce	-0.078479394
44	0x3cb71be8	0.022352174
45	0xbca6cab0	-0.02036032
46	0x3d032f24	0.03202738
47	0x3d88e186	0.0668364
48	0x3dcb4e20	0.099270105
49	0xbd348400	-0.044071198
50	0x3df4d5a6	0.11954813
51	0x3d8f9c72	0.070122615
52	0xbd386ab0	-0.04502362
53	0x3c66d2c0	0.014088333
54	0x3d3b33c4	0.045703664
55	0xbbb2f460	-0.0054612607
56	0x3d908462	0.070565
57	0x3d7b9ad4	0.061426952
58	0x3d5e5270	0.054277837
59	0x3da415ba	0.080119565
60	0xbd38f43c	-0.045154795
61	0x3cc3c048	0.023895398
62	0x3cb05b88	0.02152802
63	0xbd789124	-0.060685292

fc3.weight f4 [1, 64]
0	0xbd9ae512	-0.07563223
1	0x3b8692e0	0.0041068643
2	0xbc96b640	-0.01839745
3	0x3d268654	0.04065545
4	0x3adf0300	0.0017014444
5	0x3b73eb80	0.0037219226
6	0xbdf6dfee	-0.1205443
7	0xbd80467e	-0.06263445
8	0x3dd3561c	0.103191584
9	0xbd8649f2	-0.06557073
10	0x3dafab2e	0.08577572
11	0x3d6d5eac	0.057951614
12	0x3dd08460	0.101814985
13	0x3db347b4	0.08753911
14	0x3d75fbd8	0.06005463
15	0x3c81dc88	0.015852228
16	0xbda0d710	-0.0785352
17	0xbdd1259e	-0.10212253
18	0xbdfac73e	-0.12245034
19	0xbde8c6ec	-0.11366066
20	0xbde938ae	-0.11387764
21	0xbc350cc0	-0.011050403
22	0x3da84c66	0.08217697
23	0xbdddaab8	-0.10823578
24	0xbccba5e0	-0.024859369
25	0xbdbe6960	-0.092974424
26	0xbbd2e000	-0.0064353943
27	0xbccbed98	-0.024893567
28	0x3d868148	0.06567627
29	0x3d422054	0.04739411
30	0xbd3f9204	-0.04677011
31	0xbd8afa80	-0.0678606
32	0xbc9f4b28	-0.019445017
33	0x3d71b2fc	0.059008583
34	0xbdf8d70c	-0.12150392
35	0x3d03547c	0.032062992
36	0xbb4adac0	-0.003095314
37	0x3d577d14	0.05260952
38	0xbd54a4fc	-0.051915154
39	0xbd5068b4	-0.050881103
40	0x3da3da24	0.080005914
41	0x3df855ac	0.121257156
42	0xbd5dea20	-0.054178357
43	0x3da7fd50	0.082026124
44	0x3dacdd24	0.08440617
45	0x3d20abd4	0.039226368
46	0xbdc77f54	-0.09741083
47	0xbdc97b7a	-0.098380044
48	0xbd97bb18	-0.07408732
49	0x3d926312	0.071478024
50	0xbccf2490	-0.025285989
51	0xbdedf0b8	-0.11618179
52	0x3d8c73aa	0.06857999
53	0x3dbfd826	0.09367399
54	0xbd16a8f8	-0.036782235
55	0xbce82ef0	-0.028342694
56	0xbda8420c	-0.082157224
57	0xbdd177b8	-0.10227913
58	0x3db3c024	0.08776882
59	0x3d6a9cd0	0.057278454
60	0xbda88e1e	-0.08230232
61	0xbddbad90	-0.10726464
62	0x3db1236e	0.08649336
63	0x3de9a686	0.11408715
