data/models/rl_aca_20250316_215600.pt (torch, 23198 bytes, 5 tensors)

fc1.weight f4 [64, 11]
000000 e0 02 f0 3d 5f d6 17 be 7c 01 7a 3e 5b a8 26 be
       0.11719298 -0.1482787 0.24414629 -0.1627516
000010 48 01 b3 3d 2c 07 e1 3d 6c 25 ab 3d d4 95 c6 bd
       0.08740479 0.10987696 0.08356747 -0.09696546
000020 40 9b 99 bc be 5b fd bd e8 63 81 3e 16 5b c4 bd
       -0.018750787 -0.12371014 0.25271535 -0.09587686
000030 41 b8 99 be 35 d8 37 be 67 67 89 be 9c 4a e6 3d
       -0.30023387 -0.1795357 -0.26836702 0.11244699
000040 88 f2 60 3e 39 cf 0a be e0 ca 33 be 00 7c c8 3c
       0.21967518 -0.13555612 -0.1755786 0.02447319
000050 98 c6 9d 3d a6 4e 4d be e8 49 ac bd 84 26 ec 3d
       0.077038944 -0.20049533 -0.08412534 0.11530784
000060 00 e0 c9 b8 50 1a 63 3e 40 74 8d bd f0 95 0b 3e
       -9.62615e-05 0.22178006 -0.069069386 0.13631415
000070 7d 0a 9a be a0 ac a5 bc 60 78 14 3c 68 fd c7 3d
       -0.30086127 -0.020223916 0.009061903 0.0976513
000080 a2 43 64 be ee 92 2b 3e 30 40 71 bd 60 79 43 3e
       -0.22291425 0.16755268 -0.058899105 0.1908927
000090 d8 c7 05 3d f3 1a 82 be 90 5a 2f 3d 58 f6 57 3e
       0.03266129 -0.25411186 0.042810977 0.21090066
0000a0 12 4e 04 3e 5e 2c 5a be 47 43 15 be c0 ea 1f 3e
       0.12920406 -0.21305987 -0.14576446 0.15616894
0000b0 88 c2 36 3d e0 e9 83 bc 34 ae a3 bd f9 2a 0a be
       0.044619113 -0.016102731 -0.07992211 -0.13492955
0000c0 e0 ba 8c 3d bc cf 83 3e 20 3a 3d bd 80 dc 24 bd
       0.06871581 0.25744426 -0.04619801 -0.040249348
0000d0 3c 74 29 3e 20 1f 57 3d a9 ad 89 be 08 e4 40 bd
       0.16548246 0.052519917 -0.26890305 -0.047092468
0000e0 b4 d8 6f 3e 30 b7 18 3e 8c 72 90 3e 20 06 8f bc
       0.2342251 0.1491363 0.28212392 -0.017458975
0000f0 ec 66 78 3e 51 0c 3f be 20 a0 43 3d 22 fa 13 3e
       0.24258012 -0.18657042 0.04776013 0.14450887
000100 20 b9 27 bd c9 21 7f be 4d 7d 15 be f0 58 f2 bc
       -0.040948033 -0.24915232 -0.1459858 -0.029583424
000110 8f 71 07 be 4e e9 a6 bd b0 60 3d be f2 1a 7f be
       -0.13226913 -0.08149968 -0.18493915 -0.24912623
000120 5c fa cd 3d e4 fb 8b 3d 5a 08 71 be c4 f9 8d be
       0.10057518 0.06835154 -0.23538342 -0.2772962
000130 ea 48 80 bd 52 1d 99 be 6a bf 22 be d0 e9 e8 3c
       -0.06263907 -0.29905182 -0.15893331 0.028431803
000140 ac 57 8c be 44 35 bb bd c6 5d 6b be 40 55 5e be
       -0.27410638 -0.09141019 -0.2298499 -0.21712208
000150 fc 43 e7 3d 70 0e 71 3e da 08 92 3e 04 a4 07 3e
       0.11292264 0.23540664 0.28522378 0.13246161
000160 76 5e 52 be dc 91 4b 3e ae 61 21 3e 00 ac b1 3a
       -0.20543846 0.1987986 0.15759918 0.0013555288
000170 42 52 8e 3e 28 18 99 3d b0 df c8 bc a0 84 45 3d
       0.27797133 0.074753106 -0.024520725 0.048222184
000180 18 ac 5b bd 68 0b 91 bd 7c 9e 28 be 90 d0 89 3d
       -0.05363092 -0.07082254 -0.16466707 0.06729233
000190 b0 2d 37 bd c8 a9 98 be 74 a5 79 3e 80 02 3d 3d
       -0.044721305 -0.29817033 0.24379522 0.046144962
0001a0 b6 c6 91 be 88 07 71 3d d0 9b df 3d 46 bf 8c be
       -0.28471917 0.058845073 0.10918391 -0.2748968
0001b0 6c 91 9f 3d 50 1a 40 be 04 a1 b8 3d cd e5 6a be
       0.07791409 -0.18760037 0.09015086 -0.22939225
0001c0 40 3f 43 3e 08 59 27 bd 5a 12 98 bd e4 de 11 3e
       0.19067097 -0.04085639 -0.07425375 0.14245182
0001d0 32 48 28 3e c0 7d db 3c fc 1a 6a be f8 72 2f 3e
       0.1643379 0.02679336 -0.22861856 0.17133701
0001e0 9c 97 69 bd 82 b9 a3 bd 74 e5 96 3d 10 58 75 be
       -0.05702935 -0.07994367 0.073679835 -0.23959374
0001f0 ae e8 3c be dd 72 68 be b8 c1 0f 3d 16 2b 88 bd
       -0.18448135 -0.22700067 0.035096854 -0.06648843
000200 8e 44 08 3e e0 42 0e bd e8 38 89 be 0a 9f 40 3e
       0.13307402 -0.034731746 -0.2680123 0.18810669
000210 5e bb 67 be ca 6c da bd b4 e8 da 3d 40 ed ab 3d
       -0.22630069 -0.10665281 0.10688916 0.08394861
000220 58 52 8b 3e be 17 97 be 40 5b bb 3c 7c 59 3a be
       0.2721126 -0.295103 0.02287066 -0.18198198
000230 26 e2 a0 bd 30 47 e3 3c 7c 34 4d be c1 4e 66 be
       -0.078556344 0.027743906 -0.20039552 -0.2249098
000240 3c 11 78 be d0 c7 8f be 4e 98 3b 3e 06 a4 87 3e
       -0.24225324 -0.28082132 0.18319818 0.26492327
000250 84 49 7e 3e 4e 59 42 3e 68 dc 72 3d 1c 03 da bd
       0.24832731 0.1897938 0.059292227 -0.10645124
000260 13 29 4e be 97 53 98 be c4 45 63 3e a2 f8 17 3e
       -0.20132856 -0.29751274 0.22194582 0.1484094
000270 80 35 e7 3d 41 5a 09 be 24 c6 85 be db f4 52 be
       0.11289501 -0.13413335 -0.26127732 -0.20601217
000280 64 b7 79 3e 98 0e 5a 3e 10 04 97 3d 7c bb fc 3d
       0.24386364 0.2129463 0.07373822 0.12340447
000290 f4 dd 0f 3e cc d1 8e 3e b0 4b 58 3e c2 3e 39 3e
       0.14049512 0.27894437 0.21122622 0.18090346
0002a0 30 b5 ac 3d 50 c1 4f 3e a2 d8 37 be 88 e4 1b 3e
       0.08432996 0.20288587 -0.17953733 0.15223897
0002b0 f8 d4 6c be 80 09 73 be 53 8e 4e be ec 8e 6d 3e
       -0.23128116 -0.23734093 -0.2017148 0.23199052
0002c0 20 c0 35 3e 80 12 59 3c c0 b1 56 bc af 09 89 be
       0.17749071 0.01324904 -0.013103902 -0.267652
0002d0 a8 6b e2 bd f8 dc 7e 3e d6 2d 45 be 44 47 79 3e
       -0.1105569 0.2488898 -0.19255766 0.24343592
0002e0 4c d1 af 3d 00 13 49 bb d4 03 25 3e 3c 73 6c 3e
       0.08584842 -0.003068149 0.16114742 0.23090833
0002f0 78 ec 6b 3d dc 27 1e 3e a0 7f 50 3e 7d f6 93 be
       0.05759856 0.15444893 0.20361185 -0.28898993
000300 94 b9 e6 3d e0 7a c3 3d 84 10 80 bd 10 73 9b 3d
       0.11265865 0.09544921 -0.0625315 0.07590306
000310 88 7e f5 3d 98 9c 82 3d 00 4b fe 3b 2e ef 20 be
       0.119870245 0.06377524 0.0077604055 -0.1571624
000320 ce 22 04 be 32 6c 26 3e a0 1b 4e bd 14 ba 6e be
       -0.12903902 0.1625221 -0.050319314 -0.2331317
000330 a4 b1 b0 3d c8 20 52 3e 34 7a a6 3d 28 44 3b 3d
       0.08627632 0.20520318 0.08128777 0.045719296
000340 14 9d 00 be 20 29 dd bd 6f e2 1d be d8 0b 57 3e
       -0.1255992 -0.107988596 -0.15418409 0.21000612
000350 08 13 51 be c3 4c 51 be 8c 09 4c 3e 51 c7 39 be
       -0.20417416 -0.20439439 0.19925517 -0.1814244
000360 94 fd 56 be 9e 50 8a 3e 20 0b ff bc 1e 87 ad bd
       -0.2099517 0.2701463 -0.031133235 -0.08473037
000370 50 69 d7 bc c2 6c 2e 3e 6e 2c e0 bd 4e 29 2c 3e
       -0.026295334 0.17033675 -0.10945974 0.16812631
000380 2c dc 80 3d 6a 4e 8f 3e 5a fe 92 bd 8c 52 3d 3e
       0.062919945 0.27989513 -0.0717742 0.1848852
000390 2e f6 98 3e ba 86 96 3e d0 91 6d 3e 0a 3a db bd
       0.2987532 0.29399663 0.23200154 -0.107044294
0003a0 ed 6c 7f be b8 b3 6e bd d5 ae 3b be 9e 49 80 3e
       -0.24943896 -0.058276862 -0.18328412 0.25056165
0003b0 90 94 45 be c0 4d a8 3d 48 7f 04 be c8 b9 90 be
       -0.19294953 0.08217955 -0.12939179 -0.2826674
0003c0 e2 f7 c0 bd 00 8a cb 3b 90 8d ea bc ac 04 ee 3d
       -0.0942228 0.0062115192 -0.028631955 0.11621985
0003d0 0c 3f 5b 3e a2 c7 95 bd b4 49 94 3d 10 80 8f 3e
       0.21410769 -0.073134676 0.0724062 0.2802739
0003e0 b8 76 13 3d cb 10 58 be 48 1f 3f be fc 5e c0 3d
       0.03600189 -0.21100156 -0.18664277 0.09393117
0003f0 d8 e1 4c bd 4e 7e 49 3e 98 40 ee 3d 80 54 a5 3c
       -0.05002007 0.19677088 0.11633414 0.020181894

fc1.bias f4 [64]
000000 fc d9 70 3e 33 c1 90 be e0 5b 05 3c 7a 8a a7 bd
       0.23520654 -0.282724 0.0081395805 -0.08180709
000010 f2 f1 35 3e 2c 17 93 bd d0 4e 96 bc 48 b7 c0 bd
       0.17768076 -0.07182154 -0.018348128 -0.09409958
000020 c6 6c 8c 3e 45 5f 82 be 52 21 89 3e 5e e5 b0 bd
       0.27426738 -0.2546331 0.26783234 -0.08637498
000030 7c 3a 87 3e d8 e0 35 3e 20 2f 46 bd 80 6f 34 bb
       0.26411808 0.17761552 -0.048384786 -0.002753228
000040 40 df 7e 3e 44 18 bd 3d 04 24 36 3e ba 05 db bd
       0.2488985 0.09233144 0.17787176 -0.10694452
000050 ac ba 7c be ab 8f 7c be 00 da 1b ba ee e6 8a 3e
       -0.24680585 -0.2466418 -0.00059452653 0.2712931
000060 b8 2c 97 3e 92 04 2c 3e 40 a8 85 bc 96 2b 28 3e
       0.29526305 0.16798618 -0.01631558 0.16422877
000070 1c e3 53 be 50 78 52 bd 62 a8 47 3e 80 5f 63 bb
       -0.20692104 -0.05138427 0.19497827 -0.0034694374
000080 cc 54 3b 3e 98 37 0a bd d0 77 03 3d 18 49 98 3d
       0.18294066 -0.033744425 0.032096684 0.074358165
000090 06 a4 97 3e 38 33 6c 3e 10 d3 e0 3d 14 af f2 3d
       0.29617327 0.23066413 0.10977757 0.118498
0000a0 a3 0e 0c be e0 73 41 bd f0 3b 5b 3e aa d9 39 3e
       -0.13677458 -0.047229648 0.21409583 0.18149439
0000b0 00 19 d9 3c a8 af 70 bd f4 38 3d be c9 54 8c be
       0.026501179 -0.05876127 -0.18478757 -0.27408436
0000c0 0c 13 57 3e 6c 59 0c be 78 83 66 3e 20 be 66 3e
       0.2100336 -0.13705987 0.22511089 0.22533464
0000d0 92 dd 97 bd 44 5d 67 3e 02 cd 10 3e fe 94 71 be
       -0.07415308 0.22594172 0.14140704 -0.23591992
0000e0 94 55 82 be fe 6a 8a 3e 64 7a f4 3d d4 0a b3 bd
       -0.25455916 0.27034754 0.11937407 -0.087423
0000f0 a6 7b 25 3e 14 b0 88 3e b0 b3 1f 3e a0 5b 32 3d
       0.1616045 0.26696837 0.15595889 0.04354441

fc2.weight f4 [64, 64]
000000 d0 10 3b bd 20 6f e4 bd 02 ee 9e bd 20 6d 8d 3b
       -0.04567033 -0.11154008 -0.0776024 0.004315987
000010 38 f4 cf bd e6 0a cb bd d8 44 cf 3d 30 e2 be bd
       -0.10154003 -0.09914188 0.10120553 -0.093204856
000020 a2 ae ed 3d ee 05 c9 bd 3c c4 a1 bd 2c 40 0e bd
       0.11605574 -0.09815584 -0.07898757 -0.034729168
000030 74 fb 35 bd 80 cf fb 3b 8c 69 09 3d 22 3b e3 bd
       -0.044429258 0.007684648 0.033547923 -0.11095263
000040 98 79 8a 3c 70 3b 67 3d aa 68 aa bd a0 2d b9 bc
       0.016903684 0.05645317 -0.08320744 -0.022604764
000050 08 b2 e0 bc 82 25 ab 3d 04 62 37 3d 14 40 9d 3d
       -0.027428642 0.083567634 0.04477121 0.076782376
000060 d0 6f 1d 3d b6 cf d4 bd e0 ce c2 3c 00 c4 5b 39
       0.03843671 -0.1039118 0.023780286 0.00020958483
000070 de e2 ad bd 80 a8 a7 3c 3c dd 7d bd 18 f9 cf 3d
       -0.08490537 0.02046609 -0.061978564 0.10154933
000080 68 14 fa 3c b0 40 81 3c 10 43 cf 3c 28 ed d2 3d
       0.030527309 0.015777916 0.025300533 0.1029914
000090 e4 74 c4 bd f8 79 06 bd 20 5f a0 bd c0 f7 eb bd
       -0.095926076 -0.032831162 -0.07830644 -0.11521864
0000a0 ee e2 9d 3d ee da b9 3d 74 92 9f 3d a0 53 db bd
       0.07709299 0.09074961 0.077916056 -0.107093096
0000b0 88 78 05 3d 4c 0c 6d 3d fe 00 9b 3d e8 a3 3d bd
       0.03258565 0.057873055 0.075685486 -0.04629889
0000c0 a0 48 49 bc d0 06 ef 3c 14 8d f8 3d c8 ed 62 bd
       -0.012285382 0.029178053 0.121362835 -0.055402547
0000d0 42 5b fc bd d8 a3 ac 3d 4c 99 37 bd 6a ab 96 3d
       -0.123220935 0.08429688 -0.04482393 0.073569134
0000e0 ba 01 cb 3d 20 cf bf bb 34 be 79 bd ca 16 f0 bd
       0.09912439 -0.0058535486 -0.060972407 -0.11723097
0000f0 3c 92 28 bd 28 12 8a bc c0 35 21 3c 04 e6 d6 3d
       -0.041155085 -0.01685436 0.009839475 0.10493091
000100 c0 56 ad 3d c0 95 f8 3b e8 a5 31 3d c4 86 ba bd
       0.08463812 0.007586211 0.04337111 -0.09107736
000110 be 72 97 3d c0 c6 0f 3d 72 59 ae 3d 5c 1d 1e 3d
       0.07394932 0.035101652 0.08513154 0.038602218
000120 9c 90 89 bd 68 ee d2 bc 30 f1 5f bc 92 a9 88 bd
       -0.06717035 -0.025748447 -0.013668343 -0.06672968
000130 c4 b5 49 3d 7e d5 f4 bd c0 8f 32 bc 00 3c d0 bd
       0.04924561 -0.11954783 -0.0108985305 -0.10167694
000140 fc f1 36 3d f6 e2 d5 3d 34 98 a8 3d 44 cb 70 bd
       0.044664368 0.1044368 0.082321554 -0.0587876
000150 4c 24 c8 bd 0c 28 36 bd 2c 38 12 bd c0 b8 07 3c
       -0.09772548 -0.044471785 -0.0356981 0.008283794
000160 ec 42 0d 3d 74 69 42 bd 72 7e 95 3d 38 07 d9 3d
       0.03448765 -0.04746385 0.07299508 0.1059708
000170 d8 ae 04 3d d0 07 c3 bd 94 11 d9 3d 28 7a fc 3c
       0.032393306 -0.095229745 0.10599056 0.030819967
000180 fe e3 8a bd 70 48 18 bc 40 73 ff bd 52 f8 82 bd
       -0.06781767 -0.009294614 -0.12473154 -0.063950196
000190 98 70 12 3d b0 91 07 bd d8 ee 89 bc 80 ac 3e bc
       0.03575191 -0.033097923 -0.016837522 -0.011637807
0001a0 18 8b c9 bc 8e 01 d3 bd 12 5f cb 3d da 9e 8b bd
       -0.024602458 -0.10303031 0.099302426 -0.06817408
0001b0 5a 23 b8 3d 28 66 bd 3d 0e 9a f6 3d d4 cc 30 bd
       0.08991118 0.092480004 0.12041102 -0.04316409
0001c0 18 12 46 bd a0 90 f8 bb cc be 09 3d c0 54 eb 3c
       -0.0483571 -0.0075856 0.033629224 0.028726935
0001d0 b8 69 b3 3c dc 7c 99 3d c8 4a d5 3d 20 36 1b 3c
       0.021900997 0.07494518 0.10414654 0.009473354
0001e0 80 6c 8a 3a 6e 01 f2 3d 8e 05 ab 3d a6 44 e4 bd
       0.00105609 0.11816679 0.08350669 -0.11145906
0001f0 80 58 cc 3c e4 41 7d 3d 80 80 d9 3a f8 22 1a bd
       0.024944544 0.061830416 0.0016594082 -0.037631005
000200 70 cf e6 bc f8 d4 b4 bd aa f2 f9 3d b8 bd ad bd
       -0.028175086 -0.08829683 0.122044876 -0.084834516
000210 00 fe e5 bd 1e 51 f1 3d 08 0c df bd 50 e9 5c bd
       -0.11230087 0.1178305 -0.10890967 -0.05393344
000220 b4 3e a8 bd a4 26 0b bd d0 cd 89 bd da 00 be bd
       -0.08215085 -0.033972397 -0.06728709 -0.09277506
000230 74 77 7c 3d c0 be be 3b 38 97 8f 3d c0 27 de 3b
       0.061637357 0.005821079 0.070112646 0.006779641
000240 00 00 92 bd fa ad f1 3d ec 4f 46 bd 2c fb 5c 3d
       -0.07128906 0.118007615 -0.048416063 0.053950474
000250 34 19 76 bd d0 7c de bc 02 e5 c5 bd e8 35 50 3d
       -0.06008263 -0.027159125 -0.096628204 0.05083266
000260 00 52 be bd 0e 62 a2 3d c8 b2 ed bc b8 c7 ff bd
       -0.09292984 0.07928859 -0.029015914 -0.12489265
000270 12 3b 99 3d 10 e9 a8 bc c0 1e 83 3d 20 0f 6f 3c
       0.0748197 -0.020618945 0.064023495 0.014591008
000280 c8 1f 8d 3c d8 86 f8 bc 08 3c e9 bc 92 16 b7 bd
       0.017227069 -0.030337736 -0.028471008 -0.08939852
000290 a0 8e ee 3d 94 38 4b bd b8 9b 01 bd 2c 35 47 3d
       0.11648297 -0.049614504 -0.031642646 0.048634693
0002a0 e8 6c a6 3d 20 c7 59 3d e2 ff d1 bd 46 50 b6 3d
       0.08126241 0.053168416 -0.10253884 0.0890203
0002b0 b6 ea bb bd 68 3f f8 3d 40 85 8e bb e0 80 c5 3c
       -0.09175627 0.12121469 -0.0043493807 0.024109304
0002c0 00 1b 30 bc 86 c4 c2 bd c0 3f 40 3b 40 93 2e bc
       -0.010748625 -0.0951014 0.0029334873 -0.010655224
0002d0 10 4d 2c bd 90 e7 84 bc bc 07 1c bd 80 2b e8 3a
       -0.04206568 -0.016223699 -0.038093314 0.0017713159
0002e0 b2 83 b9 bd 60 85 16 3d 00 a3 20 bc 20 45 ff bd
       -0.09058322 0.03674829 -0.009804487 -0.124643564
0002f0 24 30 14 bd a0 12 02 bd d8 3c 8f bd 00 db 06 3a
       -0.036178723 -0.031756043 -0.06994027 0.0005144328
000300 3c 73 e0 3d 80 d0 36 bb cc 0f 14 bd 08 8b ab 3d
       0.10959479 -0.0027895272 -0.036147878 0.083761275
000310 ea 68 c4 3d e2 94 82 3d 68 e6 01 bd 00 eb 7a ba
       0.09590323 0.063760534 -0.031713873 -0.0009571761
000320 70 9a 37 bc fe 52 a6 bd 14 26 4a bd f8 69 f5 bc
       -0.011206254 -0.08121298 -0.04935272 -0.029957756
000330 40 70 7b bc 54 96 55 3d 80 92 ca bc 90 d4 55 bd
       -0.015346587 0.052145317 -0.02472806 -0.05220467
000340 80 45 37 3c d8 01 fd bc 54 c1 e5 3d 9c 34 26 3d
       0.011186004 -0.030884668 0.11218515 0.040577516
000350 b0 c7 90 bd 74 5d aa 3d 66 bc f0 bd 58 30 db bd
       -0.07069337 0.08318606 -0.11754684 -0.1070258
000360 b4 e4 76 bd c0 6e c3 bd b4 7e 78 3d 90 3e 34 bc
       -0.060276702 -0.09542608 0.06066771 -0.011001244
000370 a0 dc 9e 3d 8e 39 80 bd 6c 2e 16 bd 0c 06 1c bd
       0.07756925 -0.06260978 -0.036665365 -0.038091704
000380 40 a4 73 3b 9c c9 c0 bd 4a 75 9e 3d 18 1a 8b bc
       0.0037176758 -0.09413454 0.07737215 -0.016980216
000390 94 dc 1a 3d b0 1d b6 3d d0 4c 3b 3c fc 52 70 3d
       0.037808016 0.08892381 0.011431888 0.05867289
0003a0 8c fc a1 3d 68 a7 58 3d a4 1c 8d bd 30 34 51 3d
       0.079094976 0.052894026 -0.068902284 0.05107516
0003b0 04 5a 6a 3d bc e7 98 3d 0e 0a 9a 3d 5e 00 ec 3d
       0.05721475 0.07466075 0.07521449 0.115235075
0003c0 2c d3 83 3d 10 7f 87 bc 80 59 f1 3b 7a 2d f7 3d
       0.06436762 -0.01654008 0.0073654056 0.12069221
0003d0 62 96 8f bd c2 58 bd 3d 90 ba e2 bd 3c 1a 11 3d
       -0.07011105 0.09245445 -0.1107074 0.03542541
0003e0 46 6d 88 bd 30 14 fb bd ea 6f b1 3d 56 d6 d8 bd
       -0.06661467 -0.1225971 0.08663924 -0.10587756
0003f0 08 ab 72 bd 80 6e e3 3b 64 45 b8 3d 18 63 cb 3c
       -0.05924514 0.006940663 0.0899761 0.024827525

fc2.bias f4 [64]
000000 3e 0b bb 3d ea 2f f4 3d 30 94 5b 3c fa da b9 3d
       0.09133004 0.119232014 0.01340203 0.090749696
000010 34 3a 9b bd 20 5a f7 3b 08 54 95 3d c6 12 e8 3d
       -0.07579461 0.0075485855 0.07291418 0.11331706
000020 b4 a5 e1 3d a0 e5 93 bd c6 5b 92 3d 98 0d e8 bd
       0.110179335 -0.07221532 0.07146411 -0.11330718
000030 30 2e 13 3c e8 fc b3 bd 7a b9 c4 3d 58 08 05 3d
       0.00898318 -0.087884724 0.09605689 0.03247866
000040 60 a8 c3 3c 00 ed 44 ba b0 f8 4f bc fc a7 02 bd
       0.023883998 -0.00075121224 -0.012693569 -0.031898484
000050 5e 03 84 bd 58 44 a6 3c d8 09 f8 3d b4 be 3c 3d
       -0.06445955 0.02029626 0.121112525 0.046080306
000060 72 ce f5 3d 10 49 d4 bc 86 d1 d9 3d e8 09 0b bd
       0.12002267 -0.025913745 0.106356665 -0.033944994
000070 aa 59 82 3d e8 5c e3 bd 86 c8 cd 3d bc 6d ad bd
       0.06364758 -0.11101705 0.100480124 -0.08468196
000080 60 96 87 3b 6e 6e a7 bd 4a 7f b3 bd 3c bd 4e 3d
       0.004137799 -0.0817536 -0.08764513 0.050473437
000090 e8 12 51 bd 90 5a b6 3d 38 8b c2 3c 92 25 bd 3d
       -0.05104342 0.08903992 0.023748025 0.092356816
0000a0 ca 1e ba 3d e0 29 49 3d 1e 16 e4 bd e8 d7 5e 3d
       0.09087904 0.0491122 -0.11137031 0.054405123
0000b0 00 b6 e8 3b 78 89 8f 3d a8 77 bc bd 98 ae 8d 3c
       0.007101774 0.07008642 -0.0920251 0.017295167
0000c0 c8 ed e8 3c cc 7a 7c bd e0 6b 86 bd c0 a9 91 bd
       0.028433695 -0.061640546 -0.06563544 -0.07112455
0000d0 f0 73 05 3c 88 51 e0 bd 36 23 f0 3d a2 fd e5 3d
       0.008145317 -0.10953051 0.11725466 0.11230017
0000e0 8c 7e 77 3d 32 69 83 bd d8 54 1b bd a2 ec d5 bd
       0.06042342 -0.06416549 -0.03792271 -0.10445525
0000f0 7e 56 aa 3d 5c ea 52 bd 9a 4e b9 bd b0 67 4e 3d
       0.08317278 -0.051493034 -0.09048195 0.050391853

fc3.weight f4 [1, 64]
000000 c6 23 f4 bd c0 bf ca 3c 04 16 40 bd e0 69 a6 3c
       -0.11920886 0.024749637 -0.046895996 0.020314157
000010 c0 5c 81 bb 78 1f e8 bc aa 29 d2 bd 40 ce 87 bc
       -0.0039478242 -0.028335318 -0.10261853 -0.01657784
000020 7c 91 27 bd 40 3f 87 3b a4 29 7f bd 52 1f d1 3d
       -0.04091023 0.004127413 -0.06229557 0.10211052
000030 54 8e b0 3d c0 7f 5a bd 46 6a ee 3d 10 78 e8 3d
       0.08620897 -0.05334449 0.11641364 0.11351025
000040 76 31 e5 3d 60 81 8e bc 20 56 fe bd 08 d5 a4 bd
       0.111910746 -0.017395675 -0.12418771 -0.08048445
000050 40 2b ee bd 54 a1 d8 3d a0 0c ad 3d 60 fe f2 3c
       -0.11629343 0.10577646 0.08449674 0.029662311
000060 10 89 31 3c 78 8c e6 3c 2c 92 82 3d c0 e5 c7 bd
       0.010835901 0.028143153 0.06375536 -0.09760618
000070 e8 ce 07 bd 1c 8f 92 bd 00 7f cf 3a a8 61 fa bc
       -0.033156306 -0.07156202 0.0015830696 -0.030564144
000080 e0 64 af 3c ac de c2 3d 48 ca b2 bc 08 15 e9 bd
       0.021410406 0.095151275 -0.02182497 -0.113809645
000090 98 2e 3b bd 0a 04 97 bd a8 0a 57 3d ee 80 85 3d
       -0.045698732 -0.07373817 0.052500397 0.06518732
0000a0 7c 7f 9a bd 7c 1a 61 3d a0 56 ba bd 82 72 f7 bd
       -0.07543847 0.054956898 -0.09098554 -0.120823875
0000b0 50 50 ae 3c 62 d3 ab bd 40 c6 ae bd 76 c7 87 bd
       0.02127853 -0.083899274 -0.08533907 -0.06629841
0000c0 e0 f8 e1 bc d0 a6 e4 bd dc a6 7a bd c8 53 9a bd
       -0.027584493 -0.111646295 -0.061194286 -0.07535511
0000d0 8c e2 d3 3d f2 fc 86 bd 00 60 47 3a da a1 d8 3d
       0.10345945 -0.06591214 0.00076055527 0.10577746
0000e0 18 1b 2c bd b6 3b a6 3d e8 7e a5 bc 04 df 00 3d
       -0.042018026 0.08116858 -0.020202115 0.031462684
0000f0 f4 72 1d bd dc 9e 0d 3d 8c 5c 7a 3d d8 d7 87 3c
       -0.038439706 0.03457533 0.061123416 0.016582415
