data/models/rl_aca_20250316_214007.pt (torch, 23198 bytes, 5 tensors)

fc1.weight f4 [64, 11]
-0.1183393 0.24015099 0.07455233 0.15811244 0.09489134 0.06563556 0.05068466 0.02318874
0.15655816 0.299168 -0.27404508 -0.06765506 -0.22431627 -0.046387374 0.27988786 0.06946972
-0.074704766 0.1920051 -0.07244216 0.17425272 0.17397255 0.21967721 -0.07213417 -0.07030338
-0.17856681 -0.2599715 -0.2814054 0.118804425 0.08748454 -0.099295974 0.26804906 0.05115795
-0.16923657 0.0760161 -0.10623217 0.17107329 0.009311706 -0.11160229 0.062365204 0.2803524
-0.14893962 -0.17601429 0.052038163 -0.1764822 0.03901708 -0.2279954 0.12355739 0.18341935
0.16975084 0.2763518 -0.18375903 -0.22588485 -0.14736931 0.047055244 -0.26274705 0.10897905
-0.022819936 0.09200716 -0.2829666 0.196168 -0.15351954 -0.2269027 -0.1111121 -0.15786739
0.17107794 -0.27556172 0.1642245 -0.15964869 0.10370219 0.07832864 0.18048263 -0.19478521
-0.14706323 0.11169231 0.18606499 0.17950132 -0.23886612 -0.020644277 -0.07369122 0.11626589
-0.09562698 0.077237844 -0.2602666 0.06753683 -0.08057009 0.13894802 0.113258034 0.20590329
-0.024732172 0.19440988 0.20094335 0.13046193 -0.08241245 -0.27839482 -0.26610383 -0.26964775
0.012560576 -0.0728361 -0.14975578 -0.21441984 -0.14002042 0.21248561 -0.2536888 -0.19375297
0.24958426 -0.114089906 -0.29464483 0.011399448 -0.094939396 -0.19972327 -0.16632912 -0.18672256
0.05699554 0.24998957 -0.008351177 -0.2357043 0.13281202 -0.10671726 0.031485707 0.049304962
-0.05007854 0.21945834 -0.105356306 0.15353641 -0.021238804 0.22727138 0.10734871 0.23768526
0.111340314 -0.18442175 0.20765913 -0.06685087 -0.18054278 0.0846324 -0.22756375 0.22229314
-0.018685311 -0.24618712 0.19064006 -0.19920051 0.04657367 -0.27975214 0.16144517 0.0967567
-0.2387853 -0.16528784 0.21990281 0.25908262 -0.22724405 0.17595434 -0.04964605 -0.13618943
0.28335857 -0.2388323 -0.19675621 -0.082247004 0.18033645 0.2879622 -0.09643422 -0.25300235
-0.15721649 0.21689439 -0.017395943 0.22671062 -0.07046476 0.19356385 -0.21781898 0.024234146
-0.007950366 0.003878951 0.16670606 0.007361084 0.008556068 0.1489448 0.117626876 0.20182997
-0.06470476 -0.29266343 -0.28259075 -0.28740984 -0.04664105 0.28136635 -0.24976838 0.021252722
0.060157627 -0.1674074 0.13334396 0.08204538 -0.1694629 -0.25490418 0.15927857 -0.2380285
-0.11724904 0.22063756 -0.15194085 0.2895388 0.048709035 -0.0261257 -0.22895035 -0.023121864
0.28187722 -0.29734477 0.007454425 -0.13253033 0.24919182 -0.18953316 0.1223259 0.2388435
-0.28469616 -0.26530546 -0.15614572 -0.14125577 0.022611827 -0.07559045 0.07362473 -0.26041633
-0.21549198 0.22827268 -0.28420153 0.074718505 0.24610794 -0.11855945 0.23100263 0.2563513
-0.26207864 0.21852148 -0.2057809 0.23227966 -0.16406208 0.2827717 -0.07212083 0.1479842
0.3012671 0.21904165 0.20697558 -0.05902128 -0.12071663 -0.2146492 -0.012007862 -0.14881752
-0.20853576 0.25099808 -0.14968109 -0.02471605 0.12358093 -0.14056596 -0.11984341 0.03685555
0.26196945 -0.05738975 -0.228719 0.03559065 -0.051958993 0.09606266 0.2681573 0.21461761
00000000: e05b f2bd 24ea 753e e4ae 983d 3ae8 213e
00000010: 6456 c23d f06b 863d b89a 4f3d 50f6 bd3c
00000020: c850 203e 8c2c 993e a34f 8cbe bc8e 8abd
00000030: 2ab3 65be b000 3ebd 764d 8f3e 2446 8e3d
00000040: d0fe 98bd fc9c 443e 8e5c 94bd 4e6f 323e
00000050: dc25 323e 10f3 603e 14bb 93bd 38fb 8fbd
00000060: 38da 36be fc1a 85be 5e14 90be bc4f f33d
00000070: 182b b33d b05b cbbd ba3d 893e 008b 513d
00000080: 5a4c 2dbe 54ae 9b3d 4090 d9bd d62d 2f3e
00000090: 2090 183c be8f e4bd a872 7f3d 5a8a 8f3e
000000a0: a183 18be 173d 34be f825 553d c0b7 34be
000000b0: 60d0 1f3d a077 69be a80b fd3d 48d2 3b3e
000000c0: 2ad3 2d3e fc7d 8d3e 542b 3cbe 5c4e 67be
000000d0: fbe7 16be 00bd 403d c886 86be 6830 df3d
000000e0: e0f0 babc 406e bc3d 00e1 90be 44e0 483e
000000f0: 3a34 1dbe 2e59 68be be8e e3bd fda7 21be
00000100: 0e2f 2f3e 6d16 8dbe 782a 283e f27a 23be
00000110: d061 d43d c46a a03d 70d0 383e c675 47be
00000120: be97 16be f0be e43d d287 3e3e 32cf 373e
00000130: 5299 74be 301e a9bc 6ceb 96bd d01c ee3d
00000140: 14d8 c3bd e02e 9e3d aa41 85be c050 8a3d
00000150: ee01 a5bd 6448 0e3e d4f3 e73d 50d8 523e
00000160: 209b cabc 6213 473e 18c4 4d3e d097 053e
00000170: dcc7 a8bd c489 8ebe c33e 88be 450f 8abe
00000180: e0ca 4d3c 182b 95bd 9459 19be e090 5bbe
00000190: 8361 0fbe d495 593e 80e3 81be 2e67 46be
000001a0: 0493 7f3e f8a7 e9bd b0db 96be c0c4 3a3c
000001b0: 966f c2bd 4284 4cbe 2e52 2abe 3334 3fbe
000001c0: 2874 693d 44fd 7f3e 60d3 08bc 785c 71be
000001d0: e0ff 073e 948e dabd 28f7 003d 00f4 493d
000001e0: 281f 4dbd b0b9 603e 0cc5 d7bd a638 1d3e
000001f0: 00fd adbc d4b9 683e a4d9 db3d c463 733e
00000200: 6406 e43d 0ed9 3cbe 98a4 543e 1ce9 88bd
00000210: 35e0 38be c053 ad3d 7906 69be d0a0 633e
00000220: f011 99bc 7a18 7cbe 2637 433e 38fb 4bbe
00000230: 08c4 3e3d ac3b 8fbe e251 253e 6028 c63d
00000240: 2284 74be 3741 29be 342e 613e 7aa6 843e
00000250: aab2 68be 602d 343e a859 4bbd 3e75 0bbe
00000260: 6014 913e 7490 74be 767a 49be 1e71 a8bd
00000270: 1eaa 383e c86f 933e 4e7f c5bd 8689 81be
00000280: 5cfd 20be 9019 5e3e f081 8ebc d426 683e
00000290: d44f 90bd 9a35 463e f00b 5fbe b086 c63c
000002a0: 4042 02bc 0036 7e3b feb4 2a3e 4035 f13b
000002b0: c02e 0c3c fc84 183e 5ce6 f03d 84ac 4e3e
000002c0: ee83 84bd fbd7 95be bcaf 90be 6227 93be
000002d0: b00a 3fbd 400f 903e 48c3 7fbe 301a ae3c
000002e0: d867 763d d86c 2bbe 528b 083e 6807 a83d
000002f0: af87 2dbe cd82 82be ec19 233e bebd 73be
00000300: 4420 f0bd d0ee 613e 6296 1bbe 6e3e 943e
00000310: 2083 473d 9005 d6bc f671 6abe 106a bdbc
00000320: 3652 903e 933d 98be 4044 f43b 08b6 07be
00000330: 242c 7f3e fb14 42be 0086 fa3d 6493 743e
00000340: b2c3 91be 1ed6 87be aae4 1fbe 5aa5 10be
00000350: 703c b93c 2acf 9abd 90c8 963d 4a55 85be
00000360: eea9 5cbe 50c0 693e dd82 91be 0406 993d
00000370: b803 7c3e 4ccf f2bd f48b 6c3e 7a40 833e
00000380: 2c2f 86be 18c4 5f3e 3ab8 52be b8da 6d3e
00000390: e4ff 27be 74c7 903e 16b4 93bd 2c89 173e
000003a0: ae3f 9a3e 744c 603e 68f1 533e 4cc0 71bd
000003b0: 483a f7bd 00cd 5bbe a0bc 44bc 9f63 18be
000003c0: 668a 55be d282 803e 0046 19be 5079 cabc
000003d0: 0018 fd3d 86f0 0fbe 7670 f5bd d8f5 163d
000003e0: dc20 863e 8411 6bbd 5035 6abe 80c7 113d
000003f0: f4d2 54bd 80bc c43d ea4b 893e b8c4 5b3e

fc1.bias f4 [64]
-0.15807176 -0.063807905 0.27947772 0.05993244 0.19922078 -0.16163065 0.13413644 -0.24607344
-0.008277863 0.25734776 -0.22557826 0.10295895 0.18855584 0.13484097 0.19062194 -0.21620715
-0.097641155 -0.24428675 -0.084286615 0.12266052 0.24465102 -0.13034841 -0.09705122 -0.2616487
0.295061 -0.08131762 -0.19848673 -0.10903256 0.28410077 0.19394195 -0.12747377 0.18373215
-0.0038442314 0.17677769 0.21277529 -0.14523624 0.0048969686 0.263686 -0.072387055 -0.01569146
0.22664785 -0.039827675 0.14332512 0.010232091 0.15987563 -0.05912468 0.2754079 -0.22015998
-0.2626748 -0.12283875 -0.009528428 -0.27138242 0.09279299 -0.1308844 0.11853278 0.015465438
-0.07394788 -0.2618265 -0.14264964 0.28861016 0.2840178 -0.2042908 0.074068785 -0.22789848
00000000: 90dd 21be b8ad 82bd b417 8f3e b87b 753d
00000010: 8800 4c3e 8182 25be 105b 093e adfa 7bbe
00000020: e09f 07bc 16c3 833e fdfd 66be 24dc d23d
00000030: c814 413e c013 0a3e 6632 433e 6865 5dbe
00000040: 16f8 c7bd 4e26 7abe 769e acbd 7035 fb3d
00000050: cc85 7a3e 0e7a 05be cac2 c6bd d2f6 85be
00000060: 3c12 973e da89 a6bd 1b40 4bbe 764c dfbd
00000070: a875 913e b898 463e 7c88 02be 4824 3c3e
00000080: 80ef 7bbb 3605 353e c4e1 593e cfb8 14be
00000090: c076 a03b da01 873e aa3f 94bd 608b 80bc
000000a0: 6016 683e 5822 23bd d2c3 123e 80a4 273c
000000b0: 70b6 233e b82c 72bd 4402 8d3e 9e71 61be
000000c0: 507d 86be e292 fbbd 201d 1cbc a3f2 8abe
000000d0: 400a be3d 8f06 06be 50c1 f23d c062 7d3c
000000e0: fc71 97bd 1f0e 86be bf12 12be b6c4 933e
000000f0: c86a 913e 9c31 51be 60b1 973d 385e 69be

fc2.weight f4 [64, 64]
0.099563226 0.109552175 -0.009242564 -0.06461656 -0.11121769 0.1116323 -0.010153756 -0.110396266
-0.097806364 -0.03797625 0.093142465 -0.042391896 -0.075263724 -0.027586058 -0.1120394 0.07122353
0.074306324 0.02843894 -0.08942686 -0.08603491 0.10805559 0.09632844 -0.0022989959 -0.10419814
0.11902028 -0.035537332 0.0037325174 0.011477038 -0.045173705 0.11649011 -0.080979794 -0.052089512
-0.07104352 -0.06385736 -0.107946485 0.06294635 0.06547357 -0.08414698 -0.09350905 -0.0663351
0.10422149 0.039916843 -0.1056405 -0.07512176 -0.020830274 0.009906873 0.033281416 0.12001635
0.04769814 0.112722114 -0.033778444 -0.021978304 -0.07052067 0.09481558 -0.03184676 -0.110153034
0.03361389 -0.09414679 -0.006487146 -0.009717897 -0.09129661 0.08791232 -0.101944625 -0.013454348
-0.08115564 0.060688913 -0.0405778 -0.016131386 0.013014525 -0.06334467 0.052959785 0.059805855
0.02776283 -0.11563951 -0.055327997 0.11368565 0.12389456 0.074220136 0.06131296 -0.08103481
-0.07639027 0.072619185 -0.08610897 0.03893435 0.044056848 0.046150506 -0.09160024 0.09203456
-0.03505437 0.08964957 -0.002600953 -0.075733006 0.09129915 0.075430855 0.04755692 -0.08625212
-0.08454068 -0.12074277 0.10576959 0.035845563 -0.117917776 -0.09128481 0.087788746 0.05370225
-0.018437311 0.06850658 -0.03990209 -0.110991016 -0.04922968 -0.07594328 -0.03565584 0.06255786
-0.09036143 0.02607362 0.093440324 0.06725982 -0.027748585 0.006480694 0.06583108 0.014203176
0.02426368 -0.061489716 0.12222047 0.084723815 -0.06149757 -0.030361712 -0.11016294 0.073333666
-0.102852285 0.05795616 0.054882944 0.07246348 -0.0083114505 -0.07054737 -0.012197971 0.089614436
-0.035259515 0.12387781 -0.0335256 0.053217694 0.05318688 -0.0062217563 0.07200353 0.031031772
0.04537876 0.11343239 0.024352252 0.0045130104 -0.031393364 -0.02038443 0.05152996 0.025167242
0.10823496 0.096438125 0.12234832 0.06695628 0.074038014 -0.008124739 0.031844378 -0.08988801
0.061346143 -0.019484118 0.0065363497 0.090608895 0.08125532 -0.04544227 -0.05655922 0.037613437
0.024489596 0.096612915 -0.0005362779 -0.023934096 -0.023311675 -0.12127423 0.038815334 -0.011236221
0.044726074 0.12160088 -0.066639945 -0.111329466 -0.034187436 -0.105295986 -0.10438576 -0.104329064
-0.10652749 -0.11811064 0.01903744 -0.014879778 -0.06428836 0.09764288 -0.030895486 -0.026332885
-0.053370804 0.070521146 -0.030837536 -0.106273845 0.1113268 -0.07025798 0.06673363 -0.0880733
0.044018745 0.0033120364 -0.05567698 0.027693704 -0.03341809 -0.112429276 -0.08319087 0.010710403
0.051985845 -0.070526585 -0.041776493 0.029977545 -0.080859825 0.11991155 -0.08200994 -0.09834632
0.037298962 -0.12107554 0.08083752 0.04114826 -0.10485783 0.07470423 -0.014471516 0.0072983652
-0.075570166 -0.0070334375 -0.11650665 -0.11634849 0.030023739 0.010133296 -0.08969568 0.009499848
0.11777583 0.08814818 -0.09949911 -0.03103292 0.034596324 0.08501628 -0.04894641 -0.040231362
-0.095753744 0.09325063 0.08745743 -0.0034608692 -0.05004309 0.085919335 -0.033045307 0.059469327
-0.106238514 -0.02563323 0.022591144 0.07854052 -0.0052239597 -0.065635085 -0.09854154 0.018290937
00000000: cee7 cb3d e45c e03d 206e 17bc b055 84bd
00000010: 1ac6 e3bd 7a9f e43d f05b 26bc 7017 e2bd
00000020: b44e c8bd fc8c 1bbd 7ac1 be3d 20a3 2dbd
00000030: de23 9abd 28fc e1bc ea74 e5bd a4dd 913d
00000040: ea2d 983d c8f8 e83c 6e25 b7bd 1233 b0bd
00000050: 404c dd3d d847 c53d c0aa 16bb d665 d5bd
00000060: e8c0 f33d 988f 11bd 409d 743b 300a 3c3c
00000070: 1008 39bd 5e92 ee3d bcd8 a5bd d05b 55bd
00000080: 447f 91bd a6c7 82bd 0c13 ddbd 04ea 803d
00000090: 0217 863d 4055 acbd ac81 bfbd b2da 87bd
000000a0: 1472 d53d d87f 233d 0c5a d8bd 70d9 99bd
000000b0: 40a4 aabc 7050 223c 1852 083d 22cb f53d
000000c0: 205f 433d dada e63d 445b 0abd d80b b4bc
000000d0: 246d 90bd ac2e c23d c071 02bd ea97 e1bd
000000e0: b8ae 093d 08d0 c0bd 2092 d4bb d037 1fbc
000000f0: b8f9 babd 600b b43d 58c8 d0bd a06f 5cbc
00000100: ee34 a6bd f094 783d e834 26bd f825 84bc
00000110: e03a 553c daba 81bd 5cec 583d fcf6 743d
00000120: e06e e33c 68d4 ecbd 9c9f 62bd 06d4 e83d
00000130: 6ebc fd3d ba00 983d 4c23 7b3d 94f5 a5bd
00000140: 8072 9cbd 5eb9 943d e659 b0bd a079 1f3d
00000150: f474 343d 5008 3d3d e898 bbbd 9e7c bc3d
00000160: 2c95 0fbd 329a b73d c074 2abb e819 9bbd
00000170: 0cfb ba3d 7e7b 9a3d 0ccb 423d f4a4 b0bd
00000180: aa23 adbd fc47 f7bd ba9d d83d ccd2 123d
00000190: e07e f1bd 88f3 babd 96ca b33d e4f6 5b3d
000001a0: d809 97bc 2e4d 8c3d 6070 23bd 424f e3bd
000001b0: 10a5 49bd 2688 9bbd dc0b 12bd 561e 803d
000001c0: 6a0f b9bd 5898 d53c a45d bf3d 84bf 893d
000001d0: 0051 e3bc 005c d43b 72d2 863d 70b4 683c
000001e0: a0c4 c63c a4dc 7bbd ba4e fa3d ae83 ad3d
000001f0: e0e4 7bbd 20b9 f8bc 1c9d e1bd f62f 963d
00000200: 38a4 d2bd 7063 6d3d f0cc 603d bc67 943d
00000210: c02c 08bc 247b 90bd 00da 47bc c687 b73d
00000220: 486c 10bd a6b3 fd3d 2452 09bd ccfa 593d
00000230: 7cda 593d e0df cbbb 9676 933d 5836 fe3c
00000240: 14df 393d 3e4f e83d 607e c73c e0e1 933b
00000250: 5496 00bd 40fd a6bc 1411 533d 882b ce3c
00000260: 4aaa dd3d 5a81 c53d c291 fa3d 6020 893d
00000270: 3ea1 973d a01d 05bc 406f 023d 3417 b8bd
00000280: 1846 7b3d 289d 9fbc e02e d63b 2891 b93d
00000290: 3069 a63d ac21 3abd a4aa 67bd 8c10 1a3d
000002a0: 689e c83c fedc c53d 0095 0cba 7011 c4bc
000002b0: 20f8 bebc a05e f8bd d4fc 1e3d 2018 38bc
000002c0: b032 373d e209 f93d 867a 88bd b400 e4bd
000002d0: 2008 0cbd 6ca5 d7bd 34c8 d5bd 7aaa d5bd
000002e0: 162b dabd fee3 f1bd 68f4 9b3c 50ca 73bc
000002f0: 9ea9 83bd fef8 c73d 8818 fdbc 10b8 d7bc
00000300: 589b 5abd 646d 903d 009f fcbc 1aa6 d9bd
00000310: 4eff e33d 6ae3 8fbd a4ab 883d c65f b4bd
00000320: 004d 343d c00e 593b 8c0d 64bd e8dd e23c
00000330: 68e1 08bd 5241 e6bd fa5f aabd b07a 2f3c
00000340: 1cef 543d 3e70 90bd d41d 2bbd 7893 f53c
00000350: d699 a5bd 3094 f53d d4f4 a7bd cc69 c9bd
00000360: ccc6 183d 74f6 f7bd 248e a53d 148b 283d
00000370: b4bf d6bd 88fe 983d f019 6dbc 2027 ef3b
00000380: 88c4 9abd c078 e6bb 0a9b eebd 1e48 eebd
00000390: 58f4 f53c 2006 263c 5eb2 b7bd 40a5 1b3c
000003a0: 7434 f13d 0887 b43d 30c6 cbbd c038 febc
000003b0: e0b4 0d3d 041d ae3d 087c 48bd a4c9 24bd
000003c0: 8a1a c4bd 30fa be3d e21c b33d c0cf 62bb
000003d0: fcf9 4cbd 7af6 af3d 845a 07bd 1c96 733d
000003e0: 9493 d9bd c8fc d1bc 1011 b93c dad9 a03d
000003f0: c02d abbb b06b 86bd 26d0 c9bd e0d6 953c

fc2.bias f4 [64]
0.020602584 -0.044090927 0.049048617 0.03870991 -0.077454284 -0.11818229 0.014655948 -0.04450892
-0.10427472 0.0745251 -0.101046726 -0.04811248 0.020023644 0.09568408 0.08713478 0.04223162
-0.08923124 0.020712167 0.07147865 -0.07592663 -0.01653345 0.038154766 0.0752871 -0.042773172
0.021379992 -0.017884523 0.11383174 0.060057312 0.06560744 0.09135026 -0.07984625 0.058534637
0.030149192 -0.0873386 0.024412602 0.07047129 -0.04270777 -0.06152028 -0.05941163 -0.06600119
0.114966005 0.07428308 -0.017780885 -0.030324087 -0.0048570037 -0.082142755 -0.06837425 -0.023351058
0.10228209 -0.070504904 -0.09921487 0.06801587 0.010792777 0.023790002 0.11692464 -0.021255553
0.10354686 0.113137886 0.046332926 0.07516259 -0.07064204 -0.0019050092 -0.004485056 -0.014607698
00000000: c0c6 a83c b098 34bd 34e7 483d 488e 1e3d
00000010: 5aa0 9ebd 8e09 f2bd 801f 703c fc4e 36bd
00000020: fc8d d5bd 9ea0 983d 96f1 cebd 9811 45bd
00000030: a008 a43c 04f6 c33d b873 b23d 10fb 2c3d
00000040: debe b6bd 90ac a93c 6663 923d 6c7f 9bbd
00000050: 2871 87bc 2c48 1c3d 2030 9a3d ec32 2fbd
00000060: 1825 af3c 9082 92bc 9e20 e93d a8fe 753d
00000070: 325d 863d d815 bb3d 6e86 a3bd 04c2 6f3d
00000080: 70fb f63c 94de b2bd f0fc c73c 4053 903d
00000090: 58ee 2ebd b0fc 7bbd 9c59 73bd a22b 87bd
000000a0: 4c73 eb3d ba21 983d 38a9 91bc 386a f8bc
000000b0: 8027 9fbb 763a a8bd cc07 8cbd b84a bfbc
000000c0: 4679 d13d e064 90bd 2a31 cbbd e84b 8b3d
000000d0: 30d4 303c 40e3 c23c 3076 ef3d 2020 aebc
000000e0: 6010 d43d d6b4 e73d 98c7 3d3d d8ee 993d
000000f0: c6ac 90bd 80b1 f9ba 60f7 92bb 2055 6fbc

fc3.weight f4 [1, 64]
0.08652772 0.03613773 0.04544823 -0.102797166 0.10845119 0.06353782 0.11617789 0.022494942
0.05477652 -0.020862997 0.007099122 0.07786986 0.10249904 0.0023970455 0.045688972 0.065641865
0.047202304 -0.02525197 0.08022341 0.03266214 0.03997691 -0.12288648 0.043333665 0.053473487
0.06338398 -0.08502293 -0.031734034 0.0013574213 -0.035419434 0.10022743 0.08757278 0.012297571
0.011198521 -0.00960812 -0.015735447 -0.108103365 0.03741643 -0.070386484 -0.06548788 -0.06594181
0.046660006 0.027865678 -0.10282335 0.04969111 -0.0190368 7.587671e-05 0.033044636 0.045100763
-0.024670988 -0.11257839 0.09026879 -0.09301244 -0.09805223 0.09370981 -0.046979755 -0.027764931
0.04896222 0.041712567 0.11567263 0.03664486 0.024404347 -0.0068162084 0.032597035 0.07449572
00000000: 7235 b13d 2805 143d ec27 3a3d 5287 d2bd
00000010: a81b de3d 1e20 823d acee ed3d 5047 b83c
00000020: 585d 603d e0e8 aabc c09f e83b 3c7a 9f3d
00000030: 04eb d13d c017 1d3b 5c24 3b3d 3e6f 863d
00000040: 3457 413d 38dd cebc 2c4c a43d bcc8 053d
00000050: d4be 233d e8ab fbbd a47e 313d 0407 5b3d
00000060: 76cf 813d 8020 aebd 8cfb 01bd 80eb b13a
00000070: f813 11bd 0a44 cd3d 5c59 b33d c07b 493c
00000080: 007a 373c 606b 1dbc a0e7 80bc 4c65 ddbd
00000090: f841 193d ca26 90bd 821e 86bd 800c 87bd
000000a0: 901e 3f3d 9046 e43c 0c95 d2bd e888 4b3d
000000b0: 10f3 9bbc 0020 9f38 d059 073d 94bb 383d
000000c0: d01a cabc 808f e6bd d8de b83d 4e7d bebd
000000d0: 9ccf c8bd eeea bf3d d86d 40bd 4873 e3bc
000000e0: 9c8c 483d ccda 2a3d c6e5 ec3d ec18 163d
000000f0: a0eb c73c 805a dfbb 7884 053d 3691 983d
