data/models/rl_aca_20250316_214243.pt (torch, 23198 bytes, 5 tensors)

fc1.weight f4 [64, 11]
-0.28620654 0.051769763 -0.26283377 -0.011398017 0.2703399 0.13568088 0.1533081 0.18665889
-0.100745365 0.06662223 -0.06736173 -0.18284896 0.22469282 0.26858902 0.14498162 0.2605266
-0.07620017 -0.26064807 -0.22719131 -0.16862479 0.17574286 0.1239495 -0.23298934 0.104555935
-0.27913713 -0.12930028 -0.2672828 -0.2027331 -0.24933584 -0.1488033 0.037936956 -0.14141373
-0.15889809 -0.27947465 -0.26875025 -0.054178536 -0.045966774 -0.23281923 -0.03291002 -0.08618024
-0.29852176 -0.10967004 -0.05235429 -0.033969253 -0.20948146 -0.059365645 0.120324045 -0.14077479
-0.16476494 -0.1397837 -0.046910077 -0.20792186 0.1921151 0.15044135 -0.24730326 0.21864122
0.17625087 -0.024593413 0.039161056 -0.10030244 0.23789966 0.27811617 0.16840515 -0.19930479
0.0950495 0.05323547 -0.23631044 0.27082366 -0.0065757036 -0.0878163 0.10683787 -0.007002324
0.28281724 0.24651164 -0.18665144 0.18722352 0.19656429 -0.0095537305 0.17344904 0.09506336
0.26170444 0.18464735 -0.098693535 -0.1615553 0.018130392 -0.2944532 0.18986174 -0.11527847
0.052820712 -0.22147523 0.27385402 0.046466827 0.035793424 0.012710005 -0.08507751 -0.25434923
0.2666934 -0.29401577 0.20008886 -0.19219667 0.1608041 -0.008173317 -0.27053234 0.2991011
0.016931474 0.17148232 -0.21370184 -0.27239636 0.02948159 0.0998373 0.22591215 -0.04017228
0.2223956 0.016418457 0.09236035 -0.12826276 0.124057144 -0.15885614 -0.24270324 0.10076648
0.1357835 0.21658176 0.28171462 -0.11930339 -0.21547179 -0.0041090846 0.16139975 -0.2926997
-0.28344566 -0.2717528 -0.105004355 0.24909812 0.022208154 0.19277927 0.18744731 -0.22149521
0.22529066 0.108334005 -2.2470951e-05 -0.10076733 -0.06346013 0.015578687 -0.16481702 -0.06280474
-0.013178378 0.16379502 0.064468354 0.25624555 -0.1816903 -0.15817441 0.21785325 0.29928672
0.22973645 -0.26394242 -0.29741463 -0.10848454 -0.14804015 0.073272705 -0.11622369 -0.2668738
0.15064108 0.09687778 0.21490741 -0.09127343 0.0565733 0.14015183 0.19837418 0.20586556
0.09512034 -0.29269958 0.12830749 0.022315502 0.2515177 0.22570097 -0.1848523 0.042628616
0.08523008 -0.0052657723 0.17731184 -0.07518019 0.055878967 0.024866045 -0.2265465 0.067154765
0.21684861 -0.026618809 -0.06698875 0.11474702 0.18624017 0.1437982 -0.08162713 0.03336534
-0.22639003 0.11629158 -0.11495879 -0.19164273 0.10788441 0.2287746 -0.21624935 -0.035253078
0.17880204 -0.18239395 -0.25870577 0.2757755 0.23040307 -0.057859063 0.117767334 -0.2827104
0.23196208 0.24163753 0.29651958 0.15869102 0.28781754 0.255755 0.2769755 0.15247455
0.19822928 -0.07707043 0.09753093 -0.29167017 -0.22026162 -0.26098308 0.06894061 0.14572924
-0.06698918 0.05858639 0.020175934 -0.0002618432 -0.07580717 0.27357662 -0.27930403 -0.19947365
0.18852013 -0.20095241 0.26452732 0.18842974 -0.23049083 -0.00039753318 -0.28274554 0.25393313
0.023852438 0.09251556 0.16393587 0.22827148 0.13419893 -0.07891542 0.05057192 -0.16171572
0.22552264 0.04769501 0.18407908 0.22297668 0.29421973 0.0026106834 0.07129997 0.2555951
00000000: aa89 92be 880c 543d 2692 86be c0be 3abc
00000010: fe69 8a3e eeef 0a3e ccfc 1c3e 8223 3f3e
00000020: 9653 cebd 3c71 883d f2f4 89bd c23c 3bbe
00000030: e015 663e 8084 893e 1076 143e be63 853e
00000040: d60e 9cbd aa73 85be d7a4 68be faab 2cbe
00000050: f0f5 333e 3cd9 fd3d c294 6ebe 6c21 d63d
00000060: 10eb 8ebe 4b67 04be 4bd9 88be 4499 4fbe
00000070: e551 7fbe e45f 18be c863 1b3d c3ce 10be
00000080: 2eb6 22be 4d17 8fbe a299 89be 50ea 5dbd
00000090: a847 3cbd 2a68 6ebe a8cc 06bd 447f b0bd
000000a0: d8d7 98be b09a e0bd 7471 56bd 5823 0bbd
000000b0: 4f82 56be 6429 73bd 746c f63d 4427 10be
000000c0: 24b8 28be 7523 0fbe c824 40bd 78e9 54be
000000d0: d2b9 443e 4c0d 1a3e 113d 7dbe 7ce3 5f3e
000000e0: 1c7b 343e 2078 c9bc 5867 203d 5e6b cdbd
000000f0: f89b 733e 3e65 8e3e 6672 2c3e 8e16 4cbe
00000100: 50a9 c23d 700d 5a3d 5dfb 71be 66a9 8a3e
00000110: 0079 d7bb 08d9 b3bd d0cd da3d c073 e5bb
00000120: 6ccd 903e 8c6d 7c3e 8e21 3fbe 86b7 3f3e
00000130: 2648 493e 4087 1cbc a09c 313e 94b0 c23d
00000140: 20fe 853e 3214 3d3e d61f cabd c16e 25be
00000150: 3086 943c 92c2 96be 1e6b 423e 1e17 ecbd
00000160: 885a 583d 67ca 62be 9836 8c3e 0054 3e3d
00000170: 209c 123d a03d 503c 1e3d aebd 103a 82be
00000180: 0a8c 883e 3c89 96be 18e4 4c3e 34cf 44be
00000190: d4a9 243e 60e9 05bc 3783 8abe c823 993e
000001a0: e0b3 8a3c 1099 2f3e a8d4 5abe 8977 8bbe
000001b0: 6083 f13c 8077 cc3d 8455 673e b08b 24bd
000001c0: acbb 633e 0080 863c 6c27 bd3d 5057 03be
000001d0: ac11 fe3d 2fab 22be 3387 78be a85e ce3d
000001e0: d40a 0b3e 9cc7 5d3e e63c 903e 5655 f4bd
000001f0: a3a4 5cbe 80a5 86bb fa45 253e bcdc 95be
00000200: ca1f 91be 2f23 8bbe 860c d7bd 9413 7f3e
00000210: e0ed b53c ee67 453e 30f2 3f3e a4cf 62be
00000220: 98b2 663e 38de dd3d 0080 bcb7 1a5f cebd
00000230: 62f7 81bd c03d 7f3c cbc5 28be c69f 80bd
00000240: 20ea 57bc e2b9 273e fc07 843d 9e32 833e
00000250: 060d 3abe 79f8 21be ec14 5f3e 1c3c 993e
00000260: 0840 6b3e 7623 87be bb46 98be 242d debd
00000270: d697 17be 0010 963d b006 eebd afa3 88be
00000280: a841 1a3e dc67 c63d b010 5c3e 90ed babd
00000290: 68b9 673d f683 0f3e 9a22 4b3e 6cce 523e
000002a0: 74ce c23d b8dc 95be 0a63 033e 00cf b63c
000002b0: eec6 803e 281e 673e ec49 3dbe 589b 2e3d
000002c0: 1c8d ae3d 808c acbb 3c91 353e 12f8 99bd
000002d0: 58e1 643d e0b3 cb3c cefb 67be 7088 893d
000002e0: 900d 5e3e b00f dabc 6631 89bd 7c00 eb3d
000002f0: beb5 3e3e d63f 133e 202c a7bd 18aa 083d
00000300: cad2 67be 482a ee3d 846f ebbd fe3d 44be
00000310: 80f2 dc3d e443 6a3e 7870 5dbe 8865 10bd
00000320: e217 373e 7bc5 3abe 1575 84be 7232 8d3e
00000330: c8ee 6b3e a0fd 6cbd 0030 f13d 6bbf 90be
00000340: 7887 6d3e d46f 773e 6ad1 973e e67f 223e
00000350: d25c 933e 52f2 823e bccf 8d3e 4a22 1c3e
00000360: 9efc 4a3e 1ad7 9dbd 4cbe c73d cb55 95be
00000370: 438c 61be 939f 85be bc30 8d3d 0c3a 153e
00000380: a031 89bd 48f8 6f3d 0048 a53c 0048 89b9
00000390: ca40 9bbd 3c12 8c3e f000 8fbe d242 4cbe
000003a0: 6c0b 413e 78c6 4dbe 2070 873e baf3 403e
000003b0: ca05 6cbe 006c d0b9 06c4 90be 8603 823e
000003c0: 3066 c33c cc78 bd3d cede 273e 00c0 693e
000003d0: 726b 093e 689e a1bd 8024 4f3d ce98 25be
000003e0: 68ef 663e d85b 433d 3a7f 3c3e 0054 643e
000003f0: f8a3 963e 0018 2b3b b805 923d 5cdd 823e

fc1.bias f4 [64]
0.1338264 -0.029858917 -0.2353969 -0.24572907 -0.12640922 0.047249675 0.09812936 -0.2988429
0.24643862 -0.08478561 0.24579567 0.27637243 -0.014197469 0.015975416 0.24334216 0.22992593
-0.14694989 0.1949828 -0.20898117 0.022326767 -0.2458499 -0.106911376 0.1272986 0.1563805
-0.015757024 0.14678803 0.23829246 0.048098654 0.03707561 0.14955303 -0.2330039 -0.2090421
-0.12048973 -0.22196305 0.12951109 0.05602932 -0.11457622 -0.23777169 -0.0052173436 0.2551191
0.18792251 -0.12227024 -0.039531022 0.16601625 0.14885476 0.29938853 0.17682466 0.042778432
-0.18979084 0.09428492 -0.2535423 -0.23146026 -0.24905124 0.16811225 -0.28624967 -0.22513703
0.041877717 -0.19474107 0.058692783 -0.27518943 0.01024583 0.0068644285 0.052421242 0.25853908
00000000: ca09 093e b09a f4bc e30b 71be 67a0 7bbe
00000010: 6b71 01be e088 413d 0cf8 c83d f001 99be
00000020: 685a 7c3e 14a4 adbd dcb1 7b3e b080 8d3e
00000030: 809c 68bc e0de 823c b02e 793e b471 6b3e
00000040: 087a 16be 92a9 473e 29ff 55be a0e6 b63c
00000050: 14c0 7bbe 5af4 dabd 905a 023e 3622 203e
00000060: e014 81bc 9a4f 163e f002 743e 1803 453d
00000070: 98dc 173d 6e24 193e 9398 6ebe 220f 56be
00000080: 52c3 f6bd 484a 63be 8e9e 043e 007f 653d
00000090: f0a6 eabd 6c7a 73be 40f6 aabb f89e 823e
000000a0: c26e 403e d268 fabd 48eb 21bd 2a00 2a3e
000000b0: 626d 183e 7449 993e 8611 353e 7038 2f3d
000000c0: 8858 42be 7418 c13d 4cd0 81be eb03 6dbe
000000d0: 4a07 7fbe 9e25 2c3e 518f 92be 528a 66be
000000e0: f887 2b3d 346a 47be d867 703d a1e5 8cbe
000000f0: 20de 273c 00ef e03b a8b7 563d 3c5f 843e

fc2.weight f4 [64, 64]
-0.08528927 -0.024128884 -0.12059003 -0.03942485 -0.085842535 0.068899974 0.014738604 0.103554845
0.028228983 0.022034198 0.10181713 0.020933196 0.11859104 -0.038909465 0.050567314 -0.04395528
0.101282805 -0.10765532 0.10147624 0.10555212 -0.008619428 0.10236998 -0.041894585 0.06818049
-0.09683426 -0.06345312 -0.02884987 -0.022555918 0.009535804 -0.0019361526 0.116570115 0.09149152
-0.086704195 -0.05384825 0.10525766 -0.107259884 -0.123708606 0.029768512 -0.037641972 -0.117053
-0.016610876 0.097108796 -0.00045478344 0.059519336 0.034619883 -0.040911913 0.08508347 0.06317115
0.045935184 -0.07880449 -0.09167479 -0.0040574223 0.07975763 -0.09770374 -0.040326253 0.026525378
0.03176652 -0.12144886 -0.012617245 -0.11549482 -0.1170367 0.11363229 -0.02210918 0.11882776
0.07346386 -0.11754131 -0.116309926 0.04031381 -0.01079084 0.078626454 0.02267684 -0.023349091
0.08239578 0.11535926 0.042974725 -0.090240866 -0.00995031 -0.006036103 -0.0016628653 0.030193314
-0.10850455 0.12051955 0.033352613 -0.11159088 0.066557646 -0.028038874 -0.09086746 -0.079748064
0.024787486 -0.108333945 -0.10356058 -0.007844046 -0.022265166 0.064948454 -0.11080873 -0.052455798
-0.116866216 -0.05192165 0.08706552 -0.11109392 0.003971413 -0.056151137 -0.05132398 0.08588587
-0.037344217 -0.10149664 0.09520435 -0.042060718 0.08229385 -0.0023085475 -0.12016013 0.0258127
0.03214796 -0.07155019 0.10541494 0.060864583 -0.07457705 0.08989787 -0.052199602 -0.02437225
0.08002782 -0.047213092 -0.09830698 -0.08961505 0.09054673 -0.008755028 0.1110563 -0.050829634
0.086778894 -0.018478781 0.10207428 -0.0022053123 0.111442074 0.062069282 -0.014336944 0.09379153
-0.10184735 0.045442313 0.07278687 0.01015757 0.007959753 -0.023033082 0.027277395 -0.08445747
0.1102356 -0.12040727 -0.039598107 -0.025115192 -0.10966788 0.07305448 0.10698576 -0.11579682
-0.037966654 0.03617896 -0.034576535 -0.079977766 -0.053803146 0.096156865 0.022442877 0.051824003
-0.08492862 -0.09245834 0.07817936 -0.038613558 -0.07475357 -0.023836419 0.073594645 0.02662374
-0.009595111 -0.034914702 0.11844501 -0.10445988 0.039196134 -0.04738754 -0.09656356 0.057393312
-0.10164139 0.08006388 -0.06742233 -0.008040816 -0.07766849 0.072492585 -0.08342515 -0.021127775
-0.01803632 -0.08951126 -0.0038086027 -0.009288207 -0.06349413 0.090127826 0.08354181 -0.053423584
0.05197148 -0.09793201 0.024189547 -0.11897804 -0.034326985 0.06637044 -0.10311194 0.12447229
0.11466621 -0.102982074 -0.121197656 -0.040170133 -0.09806226 0.0994817 0.04769458 -0.020209178
-0.07142775 0.10689527 0.078248814 0.09634383 0.10633294 -0.08607139 -0.004921511 0.052611366
-0.011551872 0.114253715 0.08410147 0.120358765 -0.045985535 0.010787219 0.021694541 -0.04107602
0.019384384 0.11571233 -0.009166077 0.060562328 -0.09736104 0.020971924 -0.10323109 0.035621196
-0.002444908 0.10443263 0.06724332 0.1148705 0.12341693 0.097474575 0.04135157 0.0849005
-0.0042155236 0.07938297 0.019311622 -0.012299165 0.0011058152 0.00420852 -0.006442979 0.0785739
-0.04236409 -0.1108395 0.024058267 0.023197412 -0.056483835 0.040486485 0.019101903 -0.026709333
00000000: 24ac aebd f0a9 c5bc e8f7 f6bd f47b 21bd
00000010: 36ce afbd 6e1b 8d3d 307a 713c 9014 d43d
00000020: 7840 e73c 1081 b43c 8085 d03d 187c ab3c
00000030: dcdf f23d 885f 1fbd ac1f 4f3d 740a 34bd
00000040: 5c6d cf3d 647a dcbd c6d2 cf3d b62b d83d
00000050: 8038 0dbc 5aa7 d13d a899 2bbd 36a2 8b3d
00000060: 0a51 c6bd b6f3 81bd 9056 ecbc 30c7 b8bc
00000070: 103c 1c3c 80c6 fdba 50bc ee3d e85f bb3d
00000080: f891 b1bd fc8f 5cbd 5491 d73d 12ab dbbd
00000090: f05a fdbd 18dd f33c 782e 1abd 7cb9 efbd
000000a0: 8813 88bc fae0 c63d 0070 eeb9 8cca 733d
000000b0: 94cd 0d3d 4093 27bd 3e40 ae3d e05f 813d
000000c0: 8826 3c3d 4064 a1bd febf bbbd 20f4 84bb
000000d0: f857 a33d e618 c8bd 242d 25bd c04b d93c
000000e0: 9c1d 023d 2eba f8bd 90b8 4ebc 8c88 ecbd
000000f0: f0b0 efbd 0cb8 e83d 501e b5bc f85b f33d
00000100: 3874 963d 80b9 f0bd e633 eebd 1820 253d
00000110: 10cc 30bc e806 a13d c8c4 b93c 9846 bfbc
00000120: 1ebf a83d 7a41 ec3d 4406 303d 34d0 b8bd
00000130: a006 23bc 80ca c5bb 80f4 d9ba f857 f73c
00000140: a237 debd f4d2 f63d c09c 083d c289 e4bd
00000150: 604f 883d c8b1 e5bc b818 babd f452 a3bd
00000160: 200f cb3c 30de ddbd 9217 d4bd 5084 00bc
00000170: 7065 b6bc b203 853d b0ef e2bd e4db 56bd
00000180: 8e57 efbd ccab 54bd 684f b23d 3685 e3bd
00000190: a022 823b bcfe 65bd 1839 52bd eee4 af3d
000001a0: 40f6 18bd 78dd cfbd 80fa c23d dc47 2cbd
000001b0: ae89 a83d 004b 17bb 8416 f6bd 2875 d33c
000001c0: 94ad 033d e888 92bd cae3 d73d 244d 793d
000001d0: dabb 98bd 601c b83d 40cf 55bd 50a8 c7bc
000001e0: a0e5 a33d 8462 41bd 2c55 c9bd 1888 b7bd
000001f0: 9070 b93d 4071 0fbc 7c71 e33d bc32 50bd
00000200: 22b9 b13d d060 97bc 520c d13d 0087 10bb
00000210: be3b e43d 5c3c 7e3d 80e5 6abc c615 c03d
00000220: 5895 d0bd b821 3a3d 4811 953d f06b 263c
00000230: a069 023c e0af bcbc d874 df3c 0af8 acbd
00000240: 34c3 e13d 1698 f6bd a031 22bd 60be cdbc
00000250: 8e99 e0bd 969d 953d 5a1b db3d e226 edbd
00000260: ec82 1bbd 6430 143d 20a0 0dbd 62cb a3bd
00000270: b060 5cbd e4ed c43d 20da b73c 6845 543d
00000280: 0eef adbd cc5a bdbd 801c a03d 4029 1ebd
00000290: 6618 99bd 9844 c3bc cab8 963d 081a da3c
000002a0: d034 1dbc b802 0fbd 4c93 f23d 10ef d5bd
000002b0: 208c 203d 7019 42bd 1ec3 c5bd 4015 6b3d
000002c0: 5c29 d0bd 88f8 a33d b814 8abd a0bd 03bc
000002d0: a810 9fbd fe76 943d ceda aabd 2814 adbc
000002e0: e8c0 93bc ae51 b7bd c099 79bb 902d 18bc
000002f0: 3609 82bd f094 b83d f817 ab3d b0d2 5abd
00000300: 0ce0 543d 9490 c8bd 2829 c63c c2aa f3bd
00000310: 749a 0cbd 3aed 873d 5a2c d3bd 54eb fe3d
00000320: 1ed6 ea3d 44e8 d2bd 7a36 f8bd 7089 24bd
00000330: ded4 c8bd 10bd cb3d 645b 433d b88d a5bc
00000340: b648 92bd e8eb da3d ea40 a03d ea4f c53d
00000350: 16c5 d93d 3246 b0bd a044 a1bb 047f 573d
00000360: 1044 3dbc dafd e93d 643d ac3d a87e f63d
00000370: 545b 3cbd e0bc 303c c0b8 b13c 543f 28bd
00000380: 00cc 9e3c 96fa ec3d 502d 16bc 3410 783d
00000390: 3a65 c7bd 50cd ab3c d26a d3bd 88e7 113d
000003a0: c03a 20bb c6e0 d53d deb6 893d 3a41 eb3d
000003b0: 04c2 fc3d c0a0 c73d 4460 293d 50e0 ad3d
000003c0: 6022 8abb 8a93 a23d 6833 9e3c 7082 49bc
000003d0: 00f1 903a a0e7 893b a01f d3bb 5aeb a03d
000003e0: f885 2dbd d2ff e2bd d815 c53c 8008 be3c
000003f0: 985b 67bd 28d5 253d 987b 9c3c 88cd dabc

fc2.bias f4 [64]
-0.02131258 -0.049063757 -0.08133346 -0.08121824 -0.07081689 -0.0050426573 0.053451166 -0.01171203
-0.12149231 0.084666416 0.06399457 -0.003371343 0.12004198 0.079756916 0.026144594 0.03495899
0.11083686 0.03516063 0.017237678 0.013939068 -0.083619 0.08441493 0.06535709 0.03763488
-0.06765106 0.07487063 0.053581268 -0.012452692 -0.0142119825 -0.019525394 0.10853979 0.039631933
-0.100811556 0.09017396 0.062621236 -0.0026658624 -0.05382894 0.11779684 -0.08473806 -0.11131972
0.018218592 0.11762591 0.112406105 0.05029963 -0.08070889 0.079108894 -0.11168657 0.10383859
0.040275365 0.064904466 -0.013508156 0.02118583 -0.03204237 0.023943394 0.074985415 -0.08976287
0.09998399 0.08843556 0.056457147 0.02095984 0.08046295 0.06414591 -0.068783134 -0.10453686
00000000: b897 aebc 14f7 48bd 2892 a6bd c055 a6bd
00000010: 7208 91bd e03c a5bb 9cef 5a3d d0e3 3fbc
00000020: f6d0 f8bd 9665 ad3d 960f 833d c0f1 5cbb
00000030: 92d8 f53d 9857 a33d 302d d63c 2831 0f3d
00000040: 70fe e23d 9804 103d 0836 8d3c b060 643c
00000050: 7040 abbd bce1 ac3d f0d9 853d 0827 1a3d
00000060: a48c 8abd c655 993d 0878 5b3d 6006 4cbc
00000070: 60d9 68bc b8f3 9fbc 1c4a de3d 1855 223d
00000080: 4a76 cebd 20ad b83d 903f 803d c0b5 2ebb
00000090: bc7b 5cbd 783f f13d 268b adbd 98fb e3bd
000000a0: 283f 953c dae5 f03d 2c35 e63d fc06 4e3d
000000b0: b44a a5bd d803 a23d eebb e4bd 54a9 d43d
000000c0: c8f7 243d a2ec 843d 5051 5dbc e88d ad3c
000000d0: dc3e 03bd f024 c43c f491 993d 98d5 b7bd
000000e0: 68c4 cc3d b41d b53d 9c3f 673d f8b3 ab3c
000000f0: c2c9 a43d ee5e 833d 2cde 8cbd 6c17 d6bd

fc3.weight f4 [1, 64]
-0.11382213 -0.069255695 -0.025639832 -0.0669629 0.025211662 0.078630686 0.105488464 0.0071884096
-0.042744353 0.04158576 0.02690047 0.11947107 0.019167528 0.055556893 -0.052882522 -0.04151398
-0.028891668 0.018663928 -0.064786404 -0.12361263 -0.013180152 -0.107076764 0.014483899 -0.06822783
0.11668272 -0.03491439 0.0035051554 0.040794834 -0.010248184 -0.11577316 0.06691125 0.039188996
0.04041697 0.01995638 -0.03997512 0.023214713 -0.09551866 0.07671587 -0.039830208 -0.01086022
0.01728113 0.036109716 0.05836016 -0.090181395 0.040135384 0.10965048 -0.10377967 0.08579239
-0.114177376 -0.053760782 -0.01618044 -0.042528346 -0.085001856 -0.041383773 0.076143816 -0.10193238
-0.050338387 0.040840834 -0.109016374 -0.0664936 0.028985545 -0.07439752 0.03102313 0.09028566
00000000: 941b e9bd eed5 8dbd a00a d2bc d823 89bd
00000010: b088 ce3c 2009 a13d 560a d83d c08c eb3b
00000020: b414 2fbd d455 2a3d 605e dc3c 40ad f43d
00000030: 3805 9d3c a08f 633d 589b 58bd 900a 2abd
00000040: 38ae ecbc 18e5 983c bcae 84bd 9e28 fdbd
00000050: 90f1 57bc 104b dbbd e04d 6d3c 08bb 8bbd
00000060: 5af7 ee3d 6402 0fbd c0b6 653b 7c18 273d
00000070: 00e8 27bc 7a1a edbd c408 893d a484 203d
00000080: 448c 253d 907b a33c f4bc 23bd c82c be3c
00000090: 4a9f c3bd 361d 9d3d 0025 23bd 10ef 31bc
000000a0: 2891 8d3c c8e7 133d 100b 6f3d 06b1 b8bd
000000b0: 0065 243d 6e90 e03d 708a d4bd ecb3 af3d
000000c0: d4d5 e9bd 4434 5cbd d88c 84bc 3432 2ebd
000000d0: 7415 aebd 0882 29bd 4af1 9b3d ecc1 d0bd
000000e0: a02f 4ebd b848 273d fa43 dfbd cc2d 88bd
000000f0: 1873 ed3c ba5d 98bd 3824 fe3c b0e7 b83d
