data/models/rl_aca_20250316_215405.pt (torch, 23198 bytes, 5 tensors)

fc1.weight f4 [64, 11]
0	0x3e893732	0.26799923
1	0xbd844e46	-0.06460242
2	0xbe0754f2	-0.13215998
3	0x3d103f40	0.03521657
4	0xbe3568ac	-0.1771571
5	0xbd1a9340	-0.037738085
6	0x3d5c8ea0	0.053846955
7	0xbe612856	-0.21988043
8	0xbe875071	-0.2642856
9	0x3e7f9d18	0.2496227
10	0xbe8c773e	-0.27434725
11	0xbe1cf86f	-0.15329145
12	0xbde045ca	-0.10950811
13	0x3e6210d8	0.22076738
14	0xbcf964f0	-0.030443639
15	0xbe4a1c37	-0.19737326
16	0x3e8495d4	0.2589556
17	0x3d108e58	0.035292
18	0xbe39f224	-0.18158776
19	0xbd1468b8	-0.03623268
20	0xbcdccee0	-0.026954114
21	0xbd3837e8	-0.04497519
22	0x3e8809ba	0.2656992
23	0x3e05a8c0	0.13052654
24	0xbbfffb00	-0.007811904
25	0x3e13d788	0.14437687
26	0xbbce0800	-0.006287575
27	0x3d004848	0.031318933
28	0xbca7ff90	-0.020507604
29	0xbd5bd378	-0.05366847
30	0x3e0007fe	0.12503049
31	0xbdf2d454	-0.118569046
32	0xbe0d1914	-0.13779098
33	0x3c96afc0	0.018394351
34	0xbe7ec2e4	-0.24879032
35	0xbe850973	-0.25983772
36	0xbe86feaa	-0.26366168
37	0xbe8b454f	-0.27201316
38	0xbe7f19b8	-0.24912155
39	0xbdd3bdca	-0.10338934
40	0x3ceab610	0.028651267
41	0xbe9a16ac	-0.30095422
42	0x3dbc7e50	0.0920378
43	0xbe1a4efd	-0.15069194
44	0xbdf0203a	-0.11724897
45	0x3de5efd0	0.11227381
46	0x3e8d045e	0.27542394
47	0xbd01ca78	-0.03168723
48	0xbe88bd9d	-0.26707163
49	0xbda79004	-0.08181766
50	0xbdd31456	-0.10306613
51	0x3dfa6c58	0.12227696
52	0xbddd4096	-0.108033344
53	0xbe3b0cf6	-0.18266663
54	0xbe3d32ae	-0.18476364
55	0xbd835c04	-0.06414035
56	0xbc955ef0	-0.018233746
57	0xbe303704	-0.17208487
58	0x3df65c74	0.12029353
59	0x3e6919f8	0.22763813
60	0xbde9228c	-0.113835424
61	0x3e81325a	0.25233728
62	0x3e2141da	0.15747777
63	0x3e55b4d4	0.20869762
64	0xbcd146a0	-0.025546372
65	0x3e919f42	0.28441817
66	0xbdfda4ba	-0.12384935
67	0x3e4a7ff2	0.1977537
68	0xbaaaba00	-0.0013025403
69	0xbe7df775	-0.24801429
70	0x3e219166	0.15778121
71	0xbd5eeef0	-0.054427087
72	0x3cbf1560	0.023325622
73	0xbe7decd9	-0.24797381
74	0xbe88c09d	-0.26709452
75	0x3e7630cc	0.24042052
76	0x3d99aad0	0.07503283
77	0xbdd956b8	-0.106122434
78	0xbe1bc127	-0.152104
79	0xbdcd0edc	-0.100126
80	0xbe396c1a	-0.18107644
81	0x3cac8ff0	0.021064728
82	0xbe29afc7	-0.1657096
83	0x3e09b6de	0.13448665
84	0xbd74454c	-0.0596364
85	0xbe0d0b57	-0.13773857
86	0xbc2d16e0	-0.010564536
87	0xbe434490	-0.19069123
88	0xbe0af5a8	-0.13570273
89	0xbe6df572	-0.23238161
90	0x3deedd54	0.11663309
91	0xbe708b5c	-0.23490661
92	0xbda0d0ec	-0.07852349
93	0xbe359ea7	-0.17736302
94	0xbe650274	-0.22364217
95	0x3d15d830	0.036583126
96	0x3af85300	0.0018945634
97	0xbe8ed08d	-0.27893487
98	0x3d912970	0.07087982
99	0xbdb5d2e8	-0.08878118
100	0x3e9335a6	0.28751868
101	0xbe972f07	-0.29528067
102	0xbd7baac0	-0.061442137
103	0xbe863a52	-0.2621637
104	0x3d942dcc	0.072352976
105	0xbcff1380	-0.031137228
106	0x3e8f16f6	0.27947205
107	0xbdf2973c	-0.11845252
108	0xbd00b9c8	-0.031427175
109	0x3e3fff40	0.18749714
110	0x3e85a58e	0.2610287
111	0xbe1dc7d1	-0.15408255
112	0x3e653b90	0.22386003
113	0x3e63fa68	0.22263491
114	0x3e5811d8	0.21100557
115	0xbe417748	-0.18893158
116	0x3e92e860	0.28692913
117	0x3dcfbbdc	0.10143253
118	0x3e010624	0.12599999
119	0xbe45e170	-0.19324279
120	0xbe8f3069	-0.27966622
121	0x3d9c2124	0.076235086
122	0x3e06646a	0.13124242
123	0x3e274344	0.16334254
124	0xbdecbee0	-0.11559844
125	0x3d609b98	0.054835886
126	0x3d567e80	0.052366734
127	0x3e596e1c	0.2123341
128	0x3ddbdf44	0.10735944
129	0x3dd51258	0.104038894
130	0x3de53850	0.111923814
131	0xbe900795	-0.28130785
132	0x3dc79d38	0.09746784
133	0xbe971c77	-0.29513904
134	0x3dc2d824	0.09513882
135	0x3e78a4dc	0.24281639
136	0x3e61a458	0.22035348
137	0xbdbd37de	-0.092391714
138	0xbde924a0	-0.11383939
139	0xbd99d436	-0.07511179
140	0x3e7bfb8c	0.24607676
141	0xbe8205b2	-0.2539497
142	0x3dcc3b58	0.099722564
143	0x3ce85180	0.028359175
144	0x3e878d04	0.26474774
145	0x3e998fde	0.29992574
146	0xbd80f2a2	-0.062962785
147	0xbcdda8c0	-0.027058005
148	0x3e420ce8	0.18950236
149	0x3bf33fc0	0.007423371
150	0x3e2f01e2	0.17090562
151	0xbe847051	-0.2586694
152	0x3e3f3cd2	0.18675545
153	0x3e570aec	0.2100026
154	0x3d8acfa8	0.067778885
155	0xbe826bb8	-0.25472808
156	0x3de1b900	0.11021614
157	0x3e11bf74	0.1423319
158	0x3dd4a9a0	0.10383916
159	0xbdde8780	-0.10865688
160	0xbdbfe804	-0.09370425
161	0x3e18e288	0.14930165
162	0xbe46e6e6	-0.19424018
163	0xbca91cd0	-0.020643622
164	0xbe8f02f2	-0.27931935
165	0x3d1d3cd8	0.038388103
166	0x3dff92a0	0.124791384
167	0x3e260e9c	0.1621651
168	0x3c40cf20	0.011768132
169	0xbe828904	-0.2549516
170	0xbe08b246	-0.13349256
171	0xbba12900	-0.0049182177
172	0x3e810e42	0.2520619
173	0x3dda9844	0.106735736
174	0xbe13e8d5	-0.14444287
175	0x3dcb1a00	0.099170685
176	0x3e51391c	0.20431942
177	0x3e52dde8	0.20592463
178	0xbd959868	-0.0730446
179	0xbe55f990	-0.20895982
180	0xbe8c618a	-0.27418166
181	0x3e1f18c0	0.15536785
182	0x3e002706	0.12514886
183	0x3d379710	0.0448218
184	0xbe1173b6	-0.14204296
185	0x3e18db6e	0.14927456
186	0xbe99c3af	-0.30032107
187	0x3e6ee82c	0.23330754
188	0xbdd4d552	-0.1039225
189	0x3e046b96	0.12931666
190	0x3d39c7d8	0.0453566
191	0xbd5e98dc	-0.054344997
192	0x3d05bdb8	0.032651633
193	0xbde00292	-0.1093799
194	0xbce26980	-0.027638197
195	0x3daab438	0.08335155
196	0xbe51f896	-0.20504984
197	0xbca64520	-0.020296633
198	0x3e1d2b4a	0.15348545
199	0x3c96e8f0	0.01842162
200	0x3e7da430	0.24769664
201	0x3e6369b0	0.22208285
202	0xbd43ee50	-0.047834694
203	0x3e379920	0.17929506
204	0x3e51cf48	0.20489228
205	0xbe870031	-0.26367334
206	0xbdce3c1c	-0.10070059
207	0xbe0d605b	-0.13806288
208	0xbc981b90	-0.01856783
209	0x3e998368	0.29983068
210	0xbdb1fa96	-0.086903736
211	0x3da2aee4	0.07943514
212	0xbe8347a3	-0.25640592
213	0xbe00984f	-0.12558101
214	0xbd0680f8	-0.032837838
215	0xbd8e29c6	-0.069415614
216	0x3d83941c	0.06424734
217	0xbe3748be	-0.17898843
218	0xbd60ec68	-0.054912955
219	0x3e347e1e	0.17626235
220	0x3e202cca	0.15642086
221	0xbd8c195c	-0.068407744
222	0xbe6c42ca	-0.23072353
223	0xbdd096b8	-0.10184997
224	0xbd224410	-0.03961569
225	0x3e74f46c	0.23921365
226	0xbd3b35b8	-0.045705527
227	0xbe8650f0	-0.26233625
228	0x3e45f254	0.19330722
229	0x3d8733ec	0.066017
230	0x3da88e14	0.08230224
231	0x3dad520c	0.08462915
232	0x3dfd5ce8	0.12371236
233	0xbe22482a	-0.15847841
234	0xbe8543b6	-0.26028222
235	0x3deff7bc	0.117171735
236	0x3da9664c	0.08271465
237	0xbe373102	-0.17889789
238	0x3e968c6e	0.29404014
239	0x3c2a0b40	0.010378659
240	0x3e0d5798	0.13802946
241	0x3e25b974	0.16184026
242	0xbe5b14f2	-0.21394709
243	0x3e29528e	0.16535398
244	0xbe3ba47f	-0.18324469
245	0xbdbf242e	-0.093330726
246	0xbd87b3ee	-0.06626116
247	0x3e6b4330	0.22974849
248	0x3e089e14	0.13341552
249	0x3e4c5b48	0.19956696
250	0x3e8ffa1a	0.281205
251	0x3dc0c238	0.09412044
252	0x3e24a536	0.16078648
253	0xbe81b4fa	-0.25333387
254	0xbe7affd2	-0.2451165
255	0xbda1e04e	-0.07904111

fc1.bias f4 [64]
0	0xbdc2dbca	-0.09514578
1	0x3db396d4	0.087690026
2	0xbe4caef6	-0.19988617
3	0xbe354aa2	-0.17704251
4	0x3cc01b10	0.023450404
5	0xbe8ad7cd	-0.27117768
6	0xbe241ddb	-0.16027014
7	0xbe7defe6	-0.24798545
8	0xbe97d1fb	-0.2965239
9	0x3e49834a	0.19678989
10	0xbdc004bc	-0.09375903
11	0x3e8bd062	0.2730742
12	0xbe47e376	-0.19520363
13	0xbe5c3828	-0.21505797
14	0xbbc38980	-0.005967319
15	0x3d1a9b58	0.037745804
16	0xbd80d6f8	-0.06291002
17	0xbe8e89d0	-0.27839518
18	0xbc9dddb0	-0.019270748
19	0xbdf9274c	-0.121656984
20	0x3d23d108	0.03999427
21	0x3e87fb5e	0.26558965
22	0xbd27b0b0	-0.040939987
23	0x3e06f026	0.13177547
24	0x3d8876a0	0.06663251
25	0xbe903168	-0.28162694
26	0x3d7f0a78	0.062265843
27	0xbe5d1e23	-0.21593527
28	0xbe8066d4	-0.25078452
29	0xbe0d05e3	-0.13771777
30	0x3e7d95a0	0.24764109
31	0x3e1782ca	0.14795986
32	0xbe82b2c8	-0.25527024
33	0x3e003704	0.12520987
34	0x3e88f4a4	0.26749146
35	0x3dd1aba4	0.10237816
36	0xbd1ebb80	-0.038753033
37	0x3e17a0ac	0.14807385
38	0xbaa86500	-0.0012847483
39	0x3e46e0da	0.19421712
40	0xbd762c48	-0.060100824
41	0x3e47d902	0.19516376
42	0x3e5aa6e8	0.21352732
43	0x3de91ff0	0.11383045
44	0xbe4462c6	-0.19178304
45	0xbe3654da	-0.17805806
46	0x3dca688c	0.09883222
47	0x3d934900	0.07191658
48	0x3e79b088	0.24383748
49	0x3dd1c264	0.10242155
50	0xbd12bcc8	-0.035824567
51	0xbe500541	-0.20314504
52	0x3dd63180	0.1045866
53	0x3e715194	0.23566276
54	0xbe580108	-0.21094143
55	0xbe69da27	-0.22837125
56	0xbd659410	-0.056049407
57	0x3c47dd40	0.012198746
58	0xbd8df932	-0.06932296
59	0xbe6f3e80	-0.23363686
60	0x3e03ca76	0.12870201
61	0x3e5d0ea0	0.2158761
62	0x3e83d9f6	0.25752228
63	0xbd8408be	-0.0644698

fc2.weight f4 [64, 64]
0	0xbda3bf8c	-0.07995519
1	0xbdb317f4	-0.08744803
2	0xbdee659e	-0.11640476
3	0x3d88a2a0	0.06671643
4	0x3d58c5d4	0.05292304
5	0xbd580130	-0.052735507
6	0xbc3fedf0	-0.011714444
7	0x3d05ba1c	0.03264819
8	0xbdac912a	-0.08426125
9	0xbddccf90	-0.10781777
10	0xbdb10e5c	-0.08645317
11	0x3dd26448	0.102730334
12	0xbdf88ae0	-0.12135863
13	0xbcd31700	-0.025767803
14	0x3cc418e8	0.023937657
15	0x3d703bd4	0.058650807
16	0x3ddcc954	0.10780588
17	0xbc18e530	-0.009331986
18	0x3ccb59c0	0.02482307
19	0x3d46e148	0.04855469
20	0x3c7331e0	0.014843434
21	0x3c9e8978	0.01935266
22	0xbc50cbc0	-0.01274389
23	0x3d250c8c	0.04029517
24	0xbd902da6	-0.07039957
25	0x3d9d1e20	0.076717615
26	0x3c270ac0	0.010195434
27	0x3c8098b8	0.015697822
28	0xbd23a650	-0.03995353
29	0xbcea6810	-0.028614074
30	0xbd998900	-0.07496834
31	0x3c671b10	0.014105573
32	0x3d9e6b7a	0.07735343
33	0x3ddf26ec	0.10896096
34	0xbda391f2	-0.07986821
35	0xbde19de2	-0.11016442
36	0x3d79af84	0.0609584
37	0xba8a4a80	-0.0010550767
38	0x3d106934	0.03525658
39	0xbc68f9d0	-0.014219716
40	0xbdddc276	-0.10828106
41	0xbdd3d008	-0.10342413
42	0x3dbf79c4	0.09349397
43	0x3c5a3960	0.013319343
44	0xbc507bd0	-0.012724832
45	0xbdea62f0	-0.11444652
46	0x3dc09e80	0.094052315
47	0x3db75c1a	0.08953114
48	0xbd80a9a2	-0.06282355
49	0x3d330ac8	0.043711454
50	0x3d1d9434	0.038471416
51	0xbd1ba414	-0.037998274
52	0x3d28bd78	0.041196316
53	0x3c0fda20	0.008780032
54	0x3c051ab0	0.008124039
55	0xbd13f520	-0.03612244
56	0xbc94a690	-0.01814583
57	0xbc4e5750	-0.012594059
58	0x3c39f640	0.0113502145
59	0xbd4dd404	-0.050251022
60	0x3d69cd4c	0.057080552
61	0xbd7c18a4	-0.061546937
62	0xbd526f9c	-0.05137597
63	0x3dee71b6	0.116427824
64	0xbddb454a	-0.10706575
65	0xbdab0ce6	-0.083520696
66	0xbc6bed20	-0.014399797
67	0xbc405090	-0.011737958
68	0xbd186d38	-0.037213534
69	0x3db5d846	0.088791415
70	0xbcb56500	-0.022142887
71	0xbdfe9094	-0.1242992
72	0xbcf86368	-0.030320838
73	0x3db055dc	0.086101264
74	0x3df95306	0.121740386
75	0xbbaa4e80	-0.005197346
76	0xbdcc8af6	-0.09987442
77	0x3d29568c	0.041342303
78	0xbc8f97a0	-0.017528355
79	0xbbc360c0	-0.0059624612
80	0x3d91e102	0.07122995
81	0xb92bbc00	-0.00016377866
82	0xbce48bf8	-0.027898774
83	0x3c8848d0	0.016636282
84	0xbbfa69a0	-0.007641986
85	0xbd8f5f14	-0.070005566
86	0x3de0615a	0.10956068
87	0x3dc3a974	0.09553805
88	0xbded7a24	-0.11595562
89	0x3d010338	0.03149721
90	0x3d872c9c	0.066003054
91	0x3d470184	0.04858543
92	0xbdb953b2	-0.09049167
93	0xbddb6b02	-0.107137695
94	0x3da0c886	0.07850747
95	0x3d015090	0.03157097
96	0x3dddcabc	0.10829684
97	0x3dcdbe70	0.10046089
98	0xbd27aa80	-0.040934086
99	0xbda0c54e	-0.07850133
100	0x3d4118b8	0.047142714
101	0x3cfde3e0	0.030992448
102	0x3d5ad2a8	0.053423554
103	0x3db8aa30	0.09016836
104	0xbd8355f8	-0.064128816
105	0xbd7cc160	-0.061707854
106	0xbd0e7cf0	-0.03478712
107	0x3df42746	0.11921553
108	0xbdfb8918	-0.12282008
109	0xbba7cdc0	-0.005120963
110	0x3dbeac58	0.09310216
111	0xbc860b10	-0.016362697
112	0x3de50064	0.11181715
113	0x3daf877e	0.08570765
114	0xbc678520	-0.014130861
115	0xbd3b3f08	-0.04571441
116	0xbc458390	-0.012055293
117	0xbd196400	-0.037448883
118	0x3d5b62d0	0.05356103
119	0xbdd85218	-0.10562533
120	0x3dc15120	0.094393015
121	0x3d51a068	0.051178366
122	0xbda394ee	-0.079873905
123	0x3d85ec90	0.06539261
124	0x3c1706d0	0.009217933
125	0x3def8440	0.116951466
126	0x3d8a698e	0.06758414
127	0x3d928380	0.07153988
128	0xbc440a80	-0.011965394
129	0xbdc2e878	-0.09516996
130	0xbce06c90	-0.027395517
131	0x3cface98	0.03061609
132	0x3ca81168	0.020516112
133	0xbda75362	-0.08170201
134	0xbd250efc	-0.040297493
135	0xbdf73568	-0.12070733
136	0xbdfaaf54	-0.122404724
137	0x3dd2d738	0.10294956
138	0xbd2126b0	-0.039343536
139	0xbd97adec	-0.0740622
140	0x3df5f4d8	0.12009591
141	0x3dde711e	0.10861419
142	0x3d16eb9c	0.03684579
143	0x3b92a720	0.0044754893
144	0xbc6ea0e0	-0.014564723
145	0x3da13846	0.078720614
146	0x3db73f56	0.08947627
147	0xbd892926	-0.066973016
148	0x3cfefd68	0.031126693
149	0x3cd1b0f0	0.025597066
150	0xbd63c674	-0.05560918
151	0x3d714f38	0.05891344
152	0xbd20f608	-0.039297134
153	0xbddf3094	-0.108979374
154	0xbcb87da0	-0.02252084
155	0x3da16b84	0.07881835
156	0x3dedbc54	0.11608186
157	0x3d4e3af4	0.05034919
158	0xbdfbd850	-0.12297118
159	0x3df51c28	0.11968261
160	0x3dc756a6	0.09733324
161	0xbdeab3b6	-0.114600584
162	0x3d44dd4c	0.048062608
163	0xbde1c0da	-0.11023112
164	0x3d45621c	0.048189268
165	0x3d9d6b20	0.07686448
166	0x3d2e7be8	0.042598635
167	0x3dd4fe76	0.10400097
168	0x3c10ceb0	0.008838341
169	0xbdcfab64	-0.10140112
170	0x3d952e98	0.07284278
171	0x3d337fbc	0.04382299
172	0xbdefd460	-0.11710429
173	0x3ca9c420	0.020723403
174	0x3d6aafa4	0.05729641
175	0x3d0b9124	0.034073964
176	0xbd0c603c	-0.034271464
177	0x3d8263ac	0.06366667
178	0x3c6291d0	0.01382871
179	0xbcc9de18	-0.024642035
180	0xbcbe63c0	-0.023240924
181	0xbcd51ab0	-0.026013702
182	0xbd83b59a	-0.06431122
183	0x3d996054	0.07489076
184	0xbc8cd978	-0.01719354
185	0xbdd6299e	-0.104571566
186	0x3df66028	0.12030059
187	0xbdfdeb4e	-0.123983964
188	0x3c9f50a0	0.019447625
189	0x3cae0dc8	0.021246806
190	0xbd93823e	-0.07202576
191	0x3c8eb518	0.017420337
192	0x3d111bd8	0.035426944
193	0xbda7f386	-0.08200745
194	0x3df98a76	0.121846125
195	0xbb7bc280	-0.0038415492
196	0xbdd4158e	-0.10355674
197	0x3d2e4654	0.04254754
198	0xbdb6ab78	-0.08919424
199	0xbdc8a41e	-0.09796928
200	0xbddf9e86	-0.10918908
201	0xbdd735ae	-0.105082855
202	0x3d85616e	0.06512724
203	0x3ca75f90	0.02043131
204	0xbd2df8e4	-0.04247369
205	0x3c5bd9c0	0.013418615
206	0x3dc60ed6	0.096707985
207	0x3c7dc1a0	0.015488058
208	0x3d3e6300	0.046481133
209	0xbd3ebe9c	-0.046568498
210	0x3d25823c	0.040407404
211	0xbdc9bed0	-0.09850848
212	0x3d0adfb8	0.03390476
213	0xbd43a60c	-0.047765777
214	0xbdfae78e	-0.12251197
215	0x3dcb2e18	0.09920901
216	0x3d91f728	0.071272194
217	0x3dc021fa	0.093814805
218	0x3dae096c	0.08497891
219	0x3d60f44c	0.05492048
220	0x3d18ab3c	0.037272677
221	0x3dbf51c6	0.09341769
222	0xbdc1c8bc	-0.09462115
223	0x3cc907e8	0.024539903
224	0x3dad2bb6	0.08455603
225	0x3cb8f910	0.0225797
226	0x3d9779da	0.07396288
227	0x3d76ed74	0.060285047
228	0xbd896a2e	-0.06709705
229	0xbdb98ee8	-0.0906046
230	0x3da080a0	0.07837033
231	0x3c99b888	0.01876475
232	0x3d974552	0.07386269
233	0x3c63bb20	0.013899595
234	0xbdaedbaa	-0.08537991
235	0x3dc29f3c	0.09503028
236	0xbd1be6d8	-0.038061947
237	0x3d79d094	0.06098993
238	0xbdb255a8	-0.08707744
239	0x3dd2c95c	0.102923125
240	0xbd54757c	-0.051869854
241	0x3cfaecc8	0.030630484
242	0x3dd9034e	0.105963334
243	0xbdd042e6	-0.1016901
244	0xbdc0dd3e	-0.094171986
245	0xbb86d920	-0.004115239
246	0xbd993774	-0.0748128
247	0xbc2ca3e0	-0.010537118
248	0xbdf2d146	-0.11856322
249	0xbdb30e26	-0.08742933
250	0xbd84c2cc	-0.06482467
251	0x3da84c7a	0.08217712
252	0x3b7d34c0	0.0038636178
253	0xbc7936e0	-0.015210837
254	0x3d5b5784	0.05355026
255	0xbdadeff8	-0.08493036

fc2.bias f4 [64]
0	0xbd339bc8	-0.043849736
1	0xbd7800fc	-0.060547814
2	0x3d036a34	0.032083705
3	0xbd403c00	-0.04693222
4	0x3d91f9a0	0.0712769
5	0x3d2416a4	0.040060654
6	0xbdbf6308	-0.093450606
7	0xbdafd1aa	-0.08584912
8	0xbd6db304	-0.05803205
9	0xbdfa87ce	-0.12232934
10	0x3d1cdba8	0.038295418
11	0xbb38aa00	-0.00281775
12	0xbd39bb5c	-0.045344695
13	0x3da200ea	0.079103306
14	0xbd919efe	-0.071104035
15	0xbd919778	-0.071089685
16	0xbda29954	-0.07939401
17	0x3dfbf4a4	0.12302521
18	0x3ddd2d8e	0.107997045
19	0xbd7ed834	-0.062217906
20	0x3dfa30c0	0.122163296
21	0xbce56338	-0.028001413
22	0xbcc51890	-0.024059564
23	0xbd456eac	-0.048201248
24	0x3db1b866	0.08677749
25	0x3de0de62	0.10979916
26	0xbd350264	-0.044191733
27	0xbd211da0	-0.039334893
28	0xbd8d2736	-0.068922445
29	0x3d12e814	0.03586586
30	0x3d739f5c	0.05947815
31	0xbd2c56cc	-0.042074963
32	0xbdc77d1e	-0.09740661
33	0x3d148f38	0.036269397
34	0xbc8feba0	-0.01756841
35	0x3dcd640c	0.10028848
36	0x3def2910	0.11677754
37	0xbd9bbfac	-0.07604918
38	0x3de477b2	0.111556426
39	0x3cf54c48	0.0299436
40	0xbde22d9c	-0.110438555
41	0x3c740100	0.014892817
42	0xbdaf91fa	-0.08572765
43	0x3daab7ee	0.08335863
44	0x3daf7e00	0.085689545
45	0x3daecd4c	0.08535251
46	0xbbcbbd00	-0.006217599
47	0x3debb37c	0.11508843
48	0x3c03dcb0	0.0080482215
49	0xbde4ab48	-0.11165482
50	0xbb205200	-0.0024462938
51	0x3cba0a58	0.02271001
52	0xbdc70f2e	-0.09719692
53	0xbde12940	-0.10994196
54	0xbd0b4b0c	-0.034007117
55	0x3deee67c	0.11665055
56	0x3c138fd0	0.009006456
57	0xbdd3388e	-0.10313521
58	0xbd4ae2dc	-0.049532756
59	0x3ca56d38	0.020193681
60	0xbd6ea18c	-0.05825953
61	0x3dbc883e	0.09205674
62	0xbdd9d23c	-0.10635802
63	0xbdb031e2	-0.086032644

fc3.weight f4 [1, 64]
0	0x3dcfd6ce	0.101483926
1	0x3d79f760	0.06102693
2	0xbcdb6708	-0.026782528
3	0xbc525e20	-0.012839824
4	0xbdd9fbac	-0.10643706
5	0x3c027e70	0.007964715
6	0xbd3f2ee0	-0.046675563
7	0x3da3bf3a	0.07995458
8	0x3c3bb0e0	0.0114557445
9	0xbd6a0d88	-0.05714181
10	0x3d8e30c6	0.069428965
11	0x3dd1f02a	0.10250886
12	0x3d908f56	0.07058589
13	0x3de2adfa	0.1106834
14	0x3d511a08	0.051050216
15	0xbcbdb9f8	-0.023159966
16	0xbddc31f6	-0.10751717
17	0xbd88569c	-0.066571444
18	0xbdba7dca	-0.091060236
19	0x3df5a12c	0.11993632
20	0x3dc558a8	0.096360505
21	0x3d861dd0	0.06548655
22	0x3d495108	0.049149543
23	0x3d5b6e0c	0.053571746
24	0x3da98e22	0.08279063
25	0x3c686720	0.014184743
26	0xbd83bb36	-0.06432192
27	0xbd5427b0	-0.05179566
28	0xbdc2ad7e	-0.09505747
29	0xbd0dcaa8	-0.034617096
30	0x3c643e90	0.013930932
31	0x3df6edaa	0.120570496
32	0x3da29864	0.079392225
33	0xbdab24e4	-0.08356646
34	0xbd8560be	-0.06512593
35	0x3da2ef42	0.07955791
36	0xbd94d016	-0.07266252
37	0x3dba42e6	0.09094791
38	0xbdcc06ba	-0.099622205
39	0x3d86a69e	0.065747485
40	0x3d839550	0.064249635
41	0xbdc4b7f8	-0.09605402
42	0x3d9e0446	0.07715659
43	0x3d87ba54	0.06627336
44	0xbdd205d8	-0.10255021
45	0xbd6360c4	-0.055512205
46	0x3db10e66	0.086453244
47	0x3d780c8c	0.06055884
48	0xbc8765e8	-0.016528085
49	0x3b4e4600	0.0031474829
50	0x3bea1ae0	0.007144317
51	0x3c604ad0	0.013689712
52	0x3cf891f8	0.03034304
53	0xbdcbf6c4	-0.09959176
54	0xbd849cb2	-0.064752
55	0xbd331f4c	-0.04373102
56	0xbd88356a	-0.06650813
57	0x3d9c82b2	0.07642116
58	0xbcc47a88	-0.023984209
59	0x3c8e9e70	0.017409533
60	0x3d777c1c	0.060421094
61	0xbc19dfc0	-0.009391725
62	0x3cf53298	0.029931352
63	0x3b7b95c0	0.0038388819
