data/models/rl_aca_20250316_220416.pt (torch, 23198 bytes, 5 tensors)

fc1.weight f4 [64, 11]
000000 a8 e5 10 bd f4 d3 e9 bd 80 8a 42 3b 5c 9c b0 bd
       -0.035375267 -0.1141738 0.0029684603 -0.08623573
000010 be 29 2e 3e 6a 70 0c 3e 2b a8 13 be 56 df 60 be
       0.17008111 0.13714758 -0.1441962 -0.21960196
000020 49 29 6d be f8 bf 6e 3d ce 53 0f 3e 12 88 11 be
       -0.2316028 0.058288544 0.13996813 -0.14212063
000030 54 38 61 be 60 84 90 3c f6 63 c4 bd 20 c1 e9 3c
       -0.21994144 0.017641246 -0.095893785 0.028534472
000040 f6 d4 60 be 00 ce 16 3d e0 5a ae bd 43 8d 28 be
       -0.21956238 0.03681755 -0.08513427 -0.16460137
000050 5c da 57 3e f8 e8 64 3e 50 42 0c 3d ff fe 90 be
       0.21079391 0.22354496 0.034242928 -0.28319547
000060 c9 c4 44 be a1 6b 82 be 54 98 6a 3e 2b d9 0c be
       -0.19215693 -0.2547274 0.22909671 -0.13754718
000070 b2 57 2b 3e b6 d5 98 be a7 85 21 be 9a ca fc bd
       0.16732672 -0.29850549 -0.1577364 -0.12343331
000080 9c 68 8d be 7a bc 70 be 98 84 4d 3e 74 c4 22 be
       -0.27618873 -0.23509398 0.20070112 -0.15895253
000090 28 73 7b 3d 38 3e 51 3e d0 15 de 3d 20 4d 50 bc
       0.06138912 0.20433891 0.10844004 -0.0127137005
0000a0 68 a0 36 3e 4a 5a 18 3e 38 8a a8 3d 10 f4 ee 3c
       0.17834628 0.14878193 0.08229488 0.029169112
0000b0 70 27 68 be 9e f8 95 3e 3a b3 81 3e 32 22 73 be
       -0.22671294 0.29291242 0.25332052 -0.23743513
0000c0 40 fc 59 3e 52 0b 47 3e 4c a6 07 be 00 c8 3d be
       0.21287632 0.19437912 -0.13247031 -0.18533325
0000d0 a8 c1 68 3e 2e 67 68 be c6 c9 41 3e e8 e5 89 be
       0.22730124 -0.2269561 0.18924627 -0.26933217
0000e0 2a 6b 1b be 02 d1 8a 3e c4 5f 6c 3e c4 18 a4 bd
       -0.15177599 0.27112585 0.23083407 -0.08012536
0000f0 7a 89 09 be 28 40 82 3e 00 cc 67 3a f4 14 ea 3d
       -0.1343135 0.25439572 0.0008842349 0.11429778
000100 be 13 48 3e d2 f4 03 3e c4 80 83 3d 80 3e f0 3b
       0.19538781 0.1288636 0.064210445 0.0073316693
000110 90 9c 28 bd 36 08 8d 3e 60 c1 5f bc 70 fd 1b 3e
       -0.041164935 0.27545327 -0.013656944 0.15233397
000120 b0 c7 37 bd 48 7d ca 3d 42 e3 2e 3e 58 1a 1b 3d
       -0.04486817 0.09887177 0.1707888 0.03786692
000130 80 17 0b be c4 9c f9 3d 90 c4 dd bc b8 c3 b4 bd
       -0.13583183 0.12188104 -0.027071267 -0.08826393
000140 9c ce 85 3d a6 af 1d be b7 cb 20 be 6a 5d 8e 3e
       0.06533548 -0.15399036 -0.15702711 0.27805644
000150 b4 d4 90 be 95 a0 91 be ae eb 73 be 1d b8 8a be
       -0.2828728 -0.28442827 -0.23820373 -0.27093592
000160 c0 b7 f7 3d 30 93 75 3e 78 eb 91 3e de 4c ca bd
       0.120955944 0.23981929 0.2849996 -0.098779425
000170 24 4d 68 3e 4b d0 2f be ea 81 39 be fa fb 89 3e
       0.22685677 -0.17169301 -0.18115965 0.26950055
000180 b0 ea 60 bd 50 06 0a 3e a4 0a ff 3d 8c 46 85 be
       -0.054911315 0.1347897 0.124532014 -0.26030385
000190 24 2d 56 be f5 55 9a be 68 99 be 3d c8 7f 95 3e
       -0.20915657 -0.30143705 0.09306604 0.29199052
0001a0 6f 94 04 be 18 c6 c1 3d c8 50 5a be ac 1b e8 bd
       -0.12947248 0.094616115 -0.21319878 -0.11333403
0001b0 c8 de 1a be 2a c2 18 be 23 1e 29 be 02 71 11 3e
       -0.15124047 -0.14917818 -0.16515402 0.14203265
0001c0 6c a9 99 be 20 a2 6d 3d ee ee 45 3e c8 72 05 bd
       -0.3001207 0.058015943 0.19329426 -0.032580167
0001d0 e8 6f 30 be 90 99 1e bd 6a e6 45 be 68 10 14 3e
       -0.17230189 -0.038720667 -0.19326177 0.14459383
0001e0 10 b1 81 3e 20 b8 32 3e 92 eb 5f be b2 81 27 3e
       0.253304 0.1745305 -0.21867207 0.16358069
0001f0 54 63 a5 3d 44 86 8d 3e 5c a7 56 be ec e9 e8 3d
       0.08075586 0.276415 -0.2096228 0.11372742
000200 9a 8b 0c 3e 40 d8 be 3b 0c 41 c4 bd f1 e4 0a be
       0.13725129 0.005824119 -0.09582719 -0.13563897
000210 ea 3f 79 be 98 63 41 bd e0 ef 65 3c 00 59 91 bb
       -0.24340788 -0.04721412 0.014034241 -0.0044356585
000220 00 5f e0 bb 16 8c 86 be 08 81 29 3d d2 f1 8f 3e
       -0.0068472624 -0.26278752 0.04138282 0.28114182
000230 0f 07 81 be 94 81 b1 3d 08 26 73 3e 4c 9d 90 3d
       -0.25200698 0.08667293 0.23744977 0.07061252
000240 2c 90 43 3e 4c 6e 74 3e c7 e9 40 be a0 71 4c bd
       0.19097966 0.238702 -0.18839179 -0.04991305
000250 9a 1c 3c be a4 12 5e 3e 8a 3c 78 be 2b 23 07 be
       -0.18370286 0.21686798 -0.24241844 -0.1319701
000260 26 d9 91 bd 38 9d 84 bd bc b1 12 3e 64 d9 7a 3e
       -0.07121496 -0.064752996 0.14325613 0.2449699
000270 50 e6 21 3e fe 39 b8 bd 74 62 50 3e 6e d6 72 be
       0.15810513 -0.08995436 0.20350057 -0.23714611
000280 d2 8f 99 3e 08 3f 70 3d 2d eb 13 be f0 72 05 3d
       0.2999254 0.05865386 -0.14445181 0.032580316
000290 9a d9 24 3e 7c 64 fe 3d 2e ec 98 3e e0 18 7a bc
       0.16098633 0.124215096 0.2986769 -0.01526472
0002a0 8c df b9 3d 8f ca 4d be 58 0c 7b 3d 5b 53 12 be
       0.09075841 -0.20096801 0.06129107 -0.1428961
0002b0 8c e7 b8 bd e4 ed 99 bd 90 b4 3a 3d 48 e8 8c be
       -0.09028539 -0.07516077 0.045582354 -0.27520967
0002c0 6a de 8e be 3b 97 83 be e0 75 09 3d d0 36 1b 3d
       -0.27904063 -0.25701317 0.03355968 0.03789407
0002d0 78 30 39 bd bc 75 1f 3e 54 7c d5 3d 13 a7 91 be
       -0.04521224 0.15572256 0.10424104 -0.2844778
0002e0 40 e0 c5 bc ea 51 83 be f1 fc 82 be 68 38 6d 3d
       -0.024154782 -0.25648433 -0.25583604 0.05791512
0002f0 ac bb 44 be d5 37 85 be 20 06 3f bc 20 d5 bb bd
       -0.19212216 -0.2601916 -0.011659175 -0.0917151
000300 ca 81 77 be e6 c7 22 3e 5c 69 1d 3e 08 6b 16 3e
       -0.24170604 0.15896568 0.15372223 0.14689267
000310 c0 3a 25 3d b4 d7 92 3e f4 cb 53 3e 82 69 30 3e
       0.04033923 0.28680193 0.2068327 0.17227748
000320 5c 6e f3 3d b0 d3 aa bc d2 91 81 be ac 7a 6b be
       0.11886284 -0.020852894 -0.25306565 -0.22996014
000330 04 72 d4 3d 2a 0b c2 bd 3b d6 33 be 48 59 90 3d
       0.10373309 -0.094747856 -0.17562191 0.07048279
000340 d4 48 79 be 21 51 08 be 74 e0 70 bd 95 5e 1f be
       -0.24344188 -0.13312198 -0.058807805 -0.15563424
000350 f8 d1 08 3d 03 79 23 be 90 53 35 3e 6e 47 15 3e
       0.033403367 -0.15964131 0.17707658 0.1457803
000360 40 5b 2a 3d a4 bd 91 3e c8 11 79 3e b0 63 78 3d
       0.04159093 0.28464997 0.2432319 0.060641944
000370 74 eb f3 bd 8a 9e 3c 3e bc fc 21 3e e4 5b 87 3d
       -0.119101435 0.18419853 0.15819067 0.066093236
000380 7e 6a 98 3e a7 8c 17 be 06 7d 39 3e 40 6e c2 bd
       0.29768747 -0.14799748 0.18114099 -0.09493685
000390 73 fd 8a be 84 41 97 be 6c e8 7d 3e ae b8 54 be
       -0.2714649 -0.29542172 0.24795693 -0.20773575
0003a0 88 21 72 3e cc 8d 49 3e 93 48 82 be 9e 81 45 be
       0.23645604 0.19682997 -0.25445995 -0.19287726
0003b0 d0 17 35 bd 50 e2 3b be fa a8 92 be e4 ec a0 bd
       -0.044212162 -0.1834805 -0.28644544 -0.07857683
0003c0 b6 bf 87 bd c0 d7 f5 3c b0 6f ba bc 32 e9 33 3e
       -0.06628363 0.030010104 -0.022758335 0.17569426
0003d0 e0 06 bb 3c 87 c5 6e be 2c 1c 60 3e e0 17 b8 3d
       0.022830427 -0.23317538 0.21885747 0.08988929
0003e0 00 11 66 3e 40 53 f0 bc a0 7f 79 3e f2 41 02 3e
       0.22467422 -0.029336572 0.24365091 0.12720469
0003f0 e6 5a 02 3e b6 a9 a2 bd da 8a 28 3e 0e 74 8c 3e
       0.12729988 -0.07942526 0.16459218 0.27432293

fc1.bias f4 [64]
000000 b0 c3 1e bd f0 ee 55 bd 98 30 17 3d a8 b8 58 3e
       -0.03876084 -0.05222982 0.036911577 0.21164191
000010 32 df 9b bd 06 82 2f be 48 95 5b 3d af 71 85 be
       -0.076109305 -0.17139444 0.053609163 -0.26063296
000020 00 39 2f 3e 10 de cb 3c 38 ec 0a bd e0 38 b3 3d
       0.17111588 0.024886161 -0.033916682 0.087510824
000030 aa c4 87 be 3e 69 3d 3e 47 a6 7e be 73 1b 5c be
       -0.2651723 0.18497178 -0.24868117 -0.21494846
000040 30 f4 fa bd 1c 3a 12 3e 1c 28 64 3e c4 67 6b 3e
       -0.12253606 0.1427998 0.22280926 0.22988802
000050 8c 54 6d 3e 2c 23 83 3e bc 69 72 3e 70 ea 2a bd
       0.23176783 0.25612772 0.23673147 -0.041727483
000060 d2 8c 71 be d6 7e 8e be 8e ee ee bd d8 cb 11 be
       -0.23588875 -0.27831143 -0.116665944 -0.14237916
000070 58 c2 6a 3e c6 b6 85 3e d6 ee b4 bd 64 92 5e be
       0.22925699 0.26116008 -0.08834617 -0.21735531
000080 84 36 ab bd b4 10 7b be 89 18 60 be 60 f4 0e 3c
       -0.083600074 -0.2451809 -0.2188436 0.008725256
000090 74 ca 39 3e 02 83 16 3e b0 be 93 be 12 22 33 3e
       0.18143636 0.14698413 -0.2885642 0.17493466
0000a0 50 ae f5 bc e0 d0 2c bc 8c ca 51 3e fc db cc 3d
       -0.029990345 -0.010547847 0.20487422 0.10002896
0000b0 50 c7 a6 3d 3c 2b 89 3e f0 2f 2b 3e 7a ce 33 3e
       0.081434846 0.26790798 0.16717505 0.17559233
0000c0 66 3c 35 be a4 55 bd 3d 00 ab ea bc 4e 9d 00 3e
       -0.17698821 0.0924485 -0.028645992 0.12560007
0000d0 42 76 95 3e da 8a b9 bd c8 02 60 be 00 9e 51 be
       0.29191786 -0.09059687 -0.21876061 -0.20470428
0000e0 c3 4a 2a be d8 a0 89 3e 96 ef a9 bd 7a 0a 1e 3e
       -0.16630082 0.26880527 -0.082976505 0.15433684
0000f0 e8 78 74 3d 53 c6 1f be a0 4c 64 bd f6 a4 16 be
       0.059685618 -0.15602998 -0.055737138 -0.14711365

fc2.weight f4 [64, 64]
000000 90 2d b7 bd 04 6e a7 3d a0 10 87 bd f0 95 8c bd
       -0.08944237 0.08175281 -0.06594968 -0.06864536
000010 78 e8 a2 3d 80 18 35 bd 9e 50 8b bd 94 e2 60 3d
       0.07954496 -0.04421282 -0.06802486 0.05490358
000020 a0 ec 3d bd e2 c8 83 3d 4c dd e4 3d b0 ce 62 3c
       -0.04636824 0.064348 0.111750215 0.013843223
000030 58 58 f2 3c 9e 21 e7 3d 38 65 7e 3d 9c 7e 33 3d
       0.029583141 0.11285709 0.06210825 0.043821916
000040 c2 29 e6 bd a4 4f e8 3d 50 cf db 3d 44 1a e3 bd
       -0.112384334 0.11343315 0.10732901 -0.11088994
000050 78 b2 72 3d 4e 38 9d bd 12 d9 8d bd 40 0e 46 bc
       0.059252232 -0.07676755 -0.069261685 -0.012088358
000060 ba 9a e5 bd 38 dd b9 3d f0 39 f3 bd e8 78 c3 3c
       -0.112111524 0.09075397 -0.11876285 0.023861364
000070 50 b4 4d 3c c8 2c e4 bd 10 15 20 bd fe 50 e4 bd
       0.012555197 -0.11141354 -0.039082587 -0.111482605
000080 58 c5 e7 bd d0 a4 42 bd 80 71 3e 3d c8 87 90 bd
       -0.11316937 -0.04752046 0.04649496 -0.07057148
000090 d8 01 4e bd 00 63 2e bc 34 68 f4 bd e2 76 fe bd
       -0.050294727 -0.010643721 -0.11933938 -0.12425019
0000a0 76 e5 ea 3d f0 1f 21 bd 0c 42 c0 3d 84 a4 98 3d
       0.114695475 -0.0393371 0.093875974 0.07453254
0000b0 90 ca 30 3d e4 4b 85 bd 8a 64 cc bd 38 3a a2 3d
       0.04316193 -0.065086156 -0.09980114 0.079212606
0000c0 60 4a 13 3c b0 16 a3 3c 00 3b d8 bc b0 1d bb bc
       0.0089899 0.01990828 -0.02639532 -0.022841305
0000d0 30 c4 5f 3c dc a1 b2 bd 26 10 d1 3d a0 fd c0 3b
       0.013657615 -0.087222785 0.10208158 0.0058896095
0000e0 20 3b 34 bd 1e 83 db bd 24 fe 7d bd 20 9d 94 bd
       -0.0440017 -0.10718368 -0.062009946 -0.07256532
0000f0 b2 ad 9c bd 0c 37 57 bd 30 af bd 3c d0 89 76 bd
       -0.07650317 -0.05254273 0.023154825 -0.060190022
000100 76 0d ad 3d 46 a2 84 3d 5a 9f b7 bd 24 75 0c bd
       0.08449833 0.06476264 -0.08965941 -0.0342914
000110 ac d8 5e 3d f4 8f ad 3d e4 d1 af bd a8 4e ca bc
       0.054405853 0.084747225 -0.08584955 -0.02469571
000120 44 d8 13 bd c0 41 35 bb 20 a9 81 bb cc 4c 89 3d
       -0.03609492 -0.0027657598 -0.003956929 0.06704101
000130 58 76 59 bd f4 de 38 3d 84 2e 7c 3d 68 bb a3 3c
       -0.053091377 0.0451345 0.0615678 0.019986823
000140 da d5 b9 bd 46 61 9e bd 50 f1 65 bd ac cd d8 3d
       -0.09073992 -0.07733397 -0.056138337 0.10586104
000150 c0 14 b6 3c 9c d9 b4 bd 98 08 4c bd 18 a4 8b bd
       0.022226691 -0.08830568 -0.049812883 -0.06818408
000160 62 fa 9a 3d 08 41 29 bd ec 38 23 bd 3a 55 fb bd
       0.07567288 -0.041321784 -0.039849207 -0.12272115
000170 f8 72 d5 bd 00 a9 b7 3b 8c 92 f9 3d e4 5e 8a bd
       -0.10422319 0.005604863 0.12186155 -0.0675638
000180 04 38 92 bd 60 3d 42 3c 10 cc d7 3d da 26 ed 3d
       -0.071395904 0.011855453 0.10536969 0.11579676
000190 40 e4 08 bc 42 f6 c1 3d e4 b3 26 bd 94 29 eb 3d
       -0.0083552 0.09470798 -0.0406989 0.1148254
0001a0 60 2c bb bb d8 2f e0 bc e0 1d f7 3c c8 7e e4 3d
       -0.005712077 -0.027366564 0.030165613 0.11156994
0001b0 1a df 8a 3d 1c 94 2b 3d 0e 9c b3 bd 9c 1a 74 3d
       0.067808345 0.041889295 -0.087699994 0.05959569
0001c0 60 3f 2d bc 30 8a af bc 50 d4 05 bc bc 1f 8c 3d
       -0.010574192 -0.021428198 -0.008168295 0.0684199
0001d0 80 85 78 3b 76 bc bf 3d d0 63 3f 3c 5c 9a 1d 3d
       0.003792137 0.09362118 0.011681512 0.038477287
0001e0 9c d4 0c bd 5c 1b 82 bd c4 05 42 3d 60 65 a7 bc
       -0.034382448 -0.06352875 0.04736878 -0.020434082
0001f0 40 30 1a bd 9a a4 ac 3d c0 a4 77 bb 7e d3 b7 bd
       -0.03764367 0.08429833 -0.0037787408 -0.08975886
000200 7c 3b 2f 3d b8 32 f8 bd 10 30 0f 3d c4 ab 65 bd
       0.042781338 -0.12119049 0.034957945 -0.05607201
000210 a8 e0 a4 bc e0 bd c5 bd 5c af e6 3d e0 c5 2b bc
       -0.020126656 -0.096553564 0.11263916 -0.010484189
000220 24 38 7d bd 80 2b f1 3b 6c 38 33 3d ce 17 ca 3d
       -0.061821118 0.007359922 0.04375498 0.09867822
000230 40 9e 7a 3b 48 97 d8 3c 5a 88 db 3d e0 f6 2d bd
       0.0038241297 0.026439324 0.10719366 -0.042471766
000240 56 aa b4 bd 30 68 60 3d f4 41 8b bd 04 7e c5 bd
       -0.088215515 0.05478686 -0.06799689 -0.09643176
000250 38 09 e8 bd a8 12 c7 bc 88 64 e6 3d 86 e4 fb bd
       -0.11329883 -0.024300888 0.112496436 -0.12299447
000260 60 c0 c3 3b 50 6a fa bd c4 ac 54 bd 36 be da 3d
       0.0059738606 -0.12227309 -0.051922575 0.10680811
000270 28 8b cc 3c 4c 4a 32 bd 88 ab b2 bc 6c d5 07 bd
       0.024968699 -0.043527886 -0.021810308 -0.03316252
000280 40 db f0 3c 32 c3 a9 3d 44 ff d1 3d b6 8b b2 3d
       0.029401422 0.08289184 0.10253766 0.08718054
000290 58 ed 31 bd e0 aa 9f 3b c8 c8 f9 3c 80 54 e0 ba
       -0.04343924 0.004872665 0.030491248 -0.0017115027
0002a0 f8 29 c7 3c 40 52 85 bb ae 11 d6 3d a4 6b 34 3d
       0.024312004 -0.004068643 0.10452591 0.044047967
0002b0 c0 21 da bc 16 2c fb 3d f4 e1 f2 bd 70 ba e0 bc
       -0.026627421 0.12264268 -0.118595034 -0.02743265
0002c0 18 d7 b0 bd 80 c3 e6 3b c0 5f 1e bc 70 ff 7d 3d
       -0.08634776 0.0070423484 -0.009666383 0.062011182
0002d0 f6 f7 df bd b2 3f d3 3d 00 5f 66 3a 46 d7 c3 3d
       -0.10935967 0.10314883 0.000878796 0.095625445
0002e0 6c 64 b1 bd 2a 60 cf 3d 22 0f a3 bd ee 70 e4 bd
       -0.08661732 0.10125764 -0.07961871 -0.11154352
0002f0 1c fb 34 3d d6 86 ce bd 22 b4 f9 bd 20 95 00 3d
       0.04418479 -0.10084312 -0.12192561 0.031392217
000300 54 1d f0 3d 80 dd 07 bc 62 9c 90 3d a8 5f b2 bd
       0.11724344 -0.008292556 0.07061078 -0.08709651
000310 c8 de a9 3c 2c e7 bb 3d 7a 2c c8 bd d0 e0 95 3c
       0.020736113 0.09174952 -0.09774108 0.018295676
000320 5c eb 12 3d 80 3f 5d 3c 9e f5 a6 3d 48 cc dd bd
       0.035868987 0.013503909 0.081523165 -0.10829979
000330 e4 86 4d bd 88 2d c1 bd 44 17 12 3d 8c c5 81 3d
       -0.05017747 -0.094325125 0.03566672 0.06336507
000340 20 78 be 3d c8 98 22 3d 44 dc 0c bd 58 0c 8c 3c
       0.09300256 0.039696485 -0.03438975 0.01709573
000350 d2 4d b6 3d 8c c5 cf 3d 60 67 61 bd b4 25 5e bd
       0.08901562 0.10145101 -0.055030227 -0.054235175
000360 ca b9 ef 3d 6c 72 78 bd 8c 48 b0 bd 7c b2 ed bd
       0.11705358 -0.060655996 -0.08607587 -0.11606309
000370 58 97 b3 bd 60 f8 58 3d 58 bc e1 bd 60 2b 08 bc
       -0.08769101 0.052971244 -0.11022252 -0.008311123
000380 0a 73 cd 3d 20 40 a6 bb 3e 78 c0 3d 56 42 b1 bd
       0.100317076 -0.0050735623 0.093979344 -0.08655231
000390 24 a2 9d 3d 38 43 7c bd 40 0c 69 3b 36 06 ac bd
       0.076969415 -0.061587542 0.003556028 -0.08399622
0003a0 64 17 4e 3d 20 9c 53 bc 1c b5 9a bd 20 52 f7 bb
       0.050315276 -0.012915641 -0.07554075 -0.007547632
0003b0 08 7b 46 3d 00 b0 57 bc b6 5a e1 3d 40 e4 91 bd
       0.048457175 -0.01316452 0.1100363 -0.07123613
0003c0 f8 d9 f0 bd fc 7b 73 3d 3c c8 9d bd e8 19 bc 3c
       -0.11760324 0.059444413 -0.07704207 0.022961572
0003d0 60 4d 9c bb 44 00 0c bd 12 4a b7 bd dc 60 35 bd
       -0.004769966 -0.03417994 -0.08949675 -0.044281825
0003e0 32 6e 95 3d 20 15 fa 3d 68 d4 ba bd ec 75 a0 3d
       0.07296409 0.122110605 -0.091225445 0.07834992
0003f0 c0 7e 3c 3c 18 85 f2 bc 2c 8d da bd 90 36 a9 bc
       0.011504829 -0.02960448 -0.10671458 -0.0206559

fc2.bias f4 [64]
000000 b8 8a 6c 3d f8 a4 b0 3c aa ae 9c 3d 80 9c 8e bb
       0.05774948 0.021563038 0.07650502 -0.0043521523
000010 18 c3 80 3c 18 13 e5 bd 06 b6 f2 bd 10 8a 4c bc
       0.015718028 -0.111852825 -0.118511245 -0.012484089
000020 b8 bf 45 bd b8 2c 4e bd f0 4b 54 3c ca fa ca bd
       -0.04827854 -0.050335616 0.012957558 -0.099111155
000030 00 80 34 bb 78 fd a0 3c 30 02 ff 3d f0 4b 29 3d
       -0.0027542114 0.019652113 0.12451589 0.041332185
000040 a4 60 76 bd 22 62 d1 3d 8e 62 a1 3d 2e 06 d9 bd
       -0.060150757 0.102237955 0.07880126 -0.10596882
000050 a6 45 e9 bd 60 4c cf 3c 24 58 07 3d 52 3e ab bd
       -0.113902375 0.025304973 0.03304304 -0.08361496
000060 e8 64 3d bd 08 84 7c bd 08 15 d7 3c c6 f3 e8 3d
       -0.04623881 -0.061649352 0.026255146 0.11374621
000070 ce 25 f7 bd 22 6c ed bd 7c fd c4 3d b0 61 64 3c
       -0.120677575 -0.1159289 0.09618661 0.013939306
000080 64 13 98 bd 8e c9 af 3d fa 1c 9e bd 7a 7a 84 bd
       -0.074255735 0.085833654 -0.077203706 -0.06468673
000090 56 2d bb bd c4 fb eb bd b0 63 0e 3c 34 d4 95 3d
       -0.091395065 -0.1152263 0.00869076 0.07315865
0000a0 a8 1e 1e bd 78 73 60 bd 4e 19 e9 3d ca f8 ba bd
       -0.038603455 -0.05479762 0.113817796 -0.09129484
0000b0 e6 e0 ea 3d 24 f7 e6 bd 2e a1 92 3d ac 91 70 3d
       0.11468677 -0.11277607 0.07159649 0.058732674
0000c0 34 2b d8 3d 86 ab dc 3d a6 e6 94 bd 40 52 95 bb
       0.10555115 0.10774903 -0.07270555 -0.004556924
0000d0 8a f9 90 bd 40 84 dc bd 68 9f 79 bd 7e 8d c9 3d
       -0.07078846 -0.10767412 -0.060943037 0.098414406
0000e0 54 5f 8c bd 10 bb 29 3d 70 c7 51 bd a4 8c 44 3d
       -0.0685412 0.041438162 -0.05121559 0.047985688
0000f0 ee 3b f5 bd f0 e2 18 bc 2c 21 7a bd 5c 73 82 3d
       -0.11974321 -0.00933145 -0.06106679 0.06369659

fc3.weight f4 [1, 64]
000000 88 50 76 3d 14 a2 3f bd 50 b3 7e 3c 9c df 64 3d
       0.060135394 -0.04678543 0.015545681 0.055877313
000010 00 34 3a 39 60 8a a7 bd c0 9e 63 3d e0 53 0b 3d
       0.00017757714 -0.0818069 0.055571318 0.034015536
000020 54 d9 68 bd 72 4e 9d bd a0 ec 80 3b 54 f2 7e 3d
       -0.056847885 -0.07680978 0.003934458 0.06224282
000030 fc aa ed bd c8 bb cd bd 40 19 57 3c c0 32 49 bb
       -0.11604878 -0.10045582 0.013128579 -0.0030700415
000040 80 16 24 bc 92 f7 b1 3d 6c 6e 99 bd 38 2b 77 3d
       -0.01001513 0.086897984 -0.074917644 0.06034395
000050 80 f6 0b 3b dc a8 c4 3d ca d5 f8 3d 7c c8 22 bd
       0.0021356642 0.0960252 0.12150152 -0.039741978
000060 60 c4 f5 bc 78 8c e2 3c 48 35 63 3d fc 3a ff bd
       -0.030000865 0.027654871 0.055470735 -0.12462422
000070 10 6f d7 bd d8 39 3e bd 2e 9e e2 bd 60 29 ff bd
       -0.1051923 -0.046441883 -0.11065327 -0.124590635
000080 08 c2 47 3d a0 ef ea bb 00 52 09 3d 98 cc 0f 3d
       0.048769027 -0.007169679 0.033525467 0.035107225
000090 b8 f5 96 bc 4c cb 27 3d 84 21 c7 3d e6 d1 cb 3d
       -0.018427715 0.040965363 0.097231895 0.09952144
0000a0 a0 1c ce bd 28 fa bb bd d2 86 bf bd 70 9e d4 3c
       -0.100640535 -0.09178573 -0.09351887 0.025954455
0000b0 14 78 f1 bd dc 00 8b bd dc 1b 0a bd 10 3a 3e 3d
       -0.11790481 -0.06787273 -0.033717975 0.04644209
0000c0 08 85 6a 3d 9c 05 7e bd c6 c2 dc bd 20 e8 bb bb
       0.057255775 -0.06201707 -0.107793376 -0.0057344586
0000d0 40 00 9a bb 8c fb c1 3d 00 e0 b0 ba b2 e9 b0 3d
       -0.004699737 0.09471807 -0.0013494492 0.08638324
0000e0 80 9f 64 bd ec 8e ca 3d 34 b6 a0 bd ec 8e 32 3d
       -0.055816174 0.098905414 -0.078472525 0.043593332
0000f0 ea e3 97 3d 68 67 e2 bc 40 58 1c bd 7a 76 dc 3d
       0.07416518 -0.027637199 -0.0381701 0.10764785
