data/models/rl_aca_20250316_220615.pt (torch, 23198 bytes, 5 tensors)

fc1.weight f4 [64, 11]
00000000: 785e fa3d bc4d 8abe 4666 8b3e 55cd 15be
00000010: 5824 6f3d 42f4 1c3e 16b5 00be 4872 0ebd
00000020: 163b 483e e023 1fbd 47ea 0bbe 2043 453d
00000030: f01f 583e 3cb7 b03d 2a37 293e a0f0 6c3e
00000040: c485 c83d 0493 7cbe e838 2e3d 3806 a83d
00000050: 00b2 123b c477 c33d 1a1d 2abe 5273 7dbe
00000060: 2182 51be 2453 613e 1a95 adbd 88ee a43d
00000070: a8db 5a3e 9412 aa3d c059 32be d0da 51bd
00000080: ec46 8d3d 6ebf aebd dc38 643e 0c78 5a3e
00000090: 006c 0c3d 6869 613e 0095 473e 43a5 54be
000000a0: a8ef 6d3d b55c 99be eade 35be c06d 6b3d
000000b0: 36cd 93be 002c 923a f06e 123e 7c85 423e
000000c0: d6cd 64be 6838 de3d 805e 253c ba96 0e3e
000000d0: 242e 9f3d b4bc febd c8b6 5d3d ca6a 60be
000000e0: d09b 0fbd 805b 43be 1cde 523e 3fbc 09be
000000f0: c02a 793e 38a6 1a3d 370e 55be 926e ccbd
00000100: 9e4d 96be 9e6b 83bd 3869 c13d d03c 553e
00000110: 3224 3b3e b284 a0bd 95ff 79be 7378 46be
00000120: 48d0 16be f6b5 84be d8c0 c03d 4a80 493e
00000130: 2069 823e 0cac 6ebe b0d8 36bd 1d69 05be
00000140: e07f 47be 449a a3bd eadd d1bd ad10 7cbe
00000150: 3036 97bc c836 bebd 0e2d 1f3e 0027 073e
00000160: 4f60 23be 9a3c 983e 304d 963e b410 cc3d
00000170: 547f e63d 2280 8d3e beec d2bd 4a4e 473e
00000180: 9cbb 67be 4ee4 29be 18bd 173e 840c 8e3e
00000190: 458c 81be 5db6 86be bcc5 8d3d 502a 17be
000001a0: 0cef 073e aabf 033e 112f 66be 36cc 0d3e
000001b0: 411d 0abe 7218 37be d605 bdbd c0ee 84be
000001c0: 1205 1f3e 5e76 58be 5c0d 6ebd a855 1dbe
000001d0: d0d9 e9bc 526c 853e 20c1 84be 3c3d 81bd
000001e0: c281 823e 8615 3a3e 5102 97be 20fd 7d3e
000001f0: 288f 723e 96a6 27be 22cd 8a3e a222 1bbe
00000200: c091 8bbc a854 68be 680d 93be ac3a d93d
00000210: e5be 7cbe 82e0 50be c0ee 493d e0da 99be
00000220: 3c6d 4d3e ff7f 37be 1279 0d3e 0842 a03d
00000230: ae75 3b3e fcc7 5bbe 861d 8cbd 10cb f5bd
00000240: de23 1a3e 53a2 90be 1c2a 773e 0025 9a3b
00000250: 54e1 2e3e e42c 893e 4ca6 46be 8894 54bd
00000260: 4459 693e 7ea1 213e 9b4d 28be d0e3 503e
00000270: 3d45 3cbe 6807 893d a2fc 1b3e 145e 733e
00000280: 585a 2a3e 125a 323e 74f4 b33d d039 ccbc
00000290: 3690 40be 4acb 85be fc65 cd3d 62f8 b3bd
000002a0: 9b22 4cbe 220e 253e f129 97be a8e4 8f3e
000002b0: 0aa7 133e fc5c b8bd d8ef 95bd 1c1f 973e
000002c0: e0a9 3a3e 80f2 143e 80fd e5bd b0d5 03bd
000002d0: c4a8 03be 90a3 15be 3ee1 243e ec34 2a3e
000002e0: e0f6 a53c 1a7d 66be 2c6c 6e3e e8ee 783e
000002f0: 0031 893c 5423 babd d0bc 793d 505b 7a3e
00000300: b57a 01be 4a43 91be 0caf 14be d061 cebd
00000310: b4e2 5b3e 34d0 13be ec86 023e ccb8 793e
00000320: f88b 4bbd 382d de3d 07a6 5abe 9815 48be
00000330: 027c 2c3e a1f0 90be 680f b43d 8276 073e
00000340: 1406 0bbe a093 963e 88e7 3a3e a05e 80bd
00000350: 0174 80be f885 27bd 2adc 45be e24b 903e
00000360: dc7d 753e 7230 4a3e 0055 593c c044 093e
00000370: a24e 86be 9c7c fa3d f4fd adbd 72f3 943e
00000380: fc18 623e 00f0 ff3d d486 b33d a2ce 90bd
00000390: a222 34be 302e f13d b68d 1dbe f475 253e
000003a0: c0c9 a2bc 307d 7d3e 86b5 253e dc99 7ebd
000003b0: 279d 93be 4840 fa3d 1355 14be 540c a03d
000003c0: 5cae d5bd 98d5 f4bd a02f 08bc dac8 8e3e
000003d0: d262 96be 8d88 23be d02b a53d 4cc2 93bd
000003e0: 729d 83be 8088 803e 7af3 42be 458c 14be
000003f0: 8549 92be 9cc7 3fbe bc14 16be c29f 063e
0.1222505 -0.27012432 0.27226466 -0.14629109 0.05838427 0.15327552 -0.12569079 -0.034776956
0.1955379 -0.038852572 -0.13663588 0.04815972 0.21105933 0.08628699 0.1652495 0.23138666
0.09791139 -0.24665457 0.04253474 0.08204311 0.0022383928 0.09544328 -0.16612664 -0.24751022
-0.20459796 0.22004372 -0.084757045 0.08053309 0.21372855 0.08304325 -0.1741705 -0.051234066
0.06898293 -0.08532606 0.22287315 0.21334857 0.034282684 0.22012866 0.19490433 -0.20766167
0.058089882 -0.29953542 -0.17760816 0.057477713 -0.288675 0.0011152029 0.14300132 0.18996233
-0.22344145 0.108506024 0.010093331 0.13924685 0.077724725 -0.12438336 0.054129392 -0.21915737
-0.035060704 -0.19077873 0.2059254 -0.13450716 0.24332714 0.037756175 -0.20806204 -0.09982027
-0.29356092 -0.06417011 0.09443897 0.2082398 0.18275526 -0.078378096 -0.24413903 -0.19381885
-0.1472789 -0.25920075 0.09411782 0.19677845 0.2547083 -0.23307818 -0.044640243 -0.13028379
-0.19482374 -0.07988408 -0.10247405 -0.24615736 -0.018458456 -0.092877924 0.15544531 0.13198471
-0.15954708 0.29733735 0.29355764 0.09964123 0.11254755 0.2763682 -0.10299061 0.19463459
-0.22630161 -0.16590998 0.14818227 0.27743924 -0.2530233 -0.26311007 0.069224805 -0.14762235
0.13274783 0.12866083 -0.22478892 0.13847432 -0.13487722 -0.17880419 -0.09229629 -0.25963402
0.15529278 -0.21138903 -0.05811821 -0.15364707 -0.028546244 0.26059204 -0.25928593 -0.06310508
0.25489622 0.18172273 -0.29493955 0.24803591 0.23687422 -0.16372141 0.2710963 -0.1514993
-0.017037272 -0.22688544 -0.28721166 0.10606894 -0.24682195 -0.20398143 0.049299955 -0.300498
0.20061201 -0.1791992 0.13815716 0.078250945 0.1830661 -0.21463007 -0.06841569 -0.12001622
0.15052745 -0.28248844 0.24137157 0.004704118 0.17078143 0.2679206 -0.19399375 -0.051899463
0.22787958 0.1578426 -0.16435854 0.20399404 -0.18385787 0.06690866 0.1523309 0.23766357
0.16636026 0.17417172 0.0878686 -0.02492991 -0.18805012 -0.2613166 0.100292176 -0.0878761
-0.19935076 0.16118672 -0.29524186 0.28104138 0.14419189 -0.0900211 -0.07321137 0.29515922
0.18228865 0.14545631 -0.11229992 -0.03218621 -0.12857348 -0.14613175 0.16101548 0.1662175
0.02025932 -0.2250866 0.23283452 0.24309886 0.016746998 -0.090887696 0.06097108 0.24448895
-0.12644465 -0.2837165 -0.145199 -0.1007725 0.21473199 -0.14434892 0.12746781 0.243869
-0.04969403 0.108484685 -0.21352397 -0.19539487 0.1684418 -0.28308585 0.08792001 0.13228801
-0.13576537 0.29409504 0.18252385 -0.06268048 -0.25088504 -0.040899247 -0.19322267 0.28182894
0.23973793 0.19745043 0.0132648945 0.13405132 -0.26231867 0.122307986 -0.08495703 0.29091984
0.22079843 0.12496948 0.08765951 -0.07070662 -0.17591336 0.11776388 -0.1538609 0.16158277
-0.019871593 0.24754786 0.16182527 -0.06215845 -0.28830835 0.12219292 -0.14485578 0.078148514
-0.10433647 -0.11954802 -0.008312136 0.27887613 -0.2937227 -0.15970059 0.08064997 -0.072147936
-0.2570606 0.2510414 -0.19038191 -0.14506634 -0.28571716 -0.18728489 -0.14656347 0.1314688

fc1.bias f4 [64]
00000000: da0c 913e 4aba 183e d971 1cbe 889a 2d3e
00000010: b497 5e3e 4292 45be 905b 833d b6a8 1c3e
00000020: 8abc 213e f7a1 2fbe 0019 2a3d c01c e2bc
00000030: 364f 143e 2005 7dbc c8c3 433d 2266 173e
00000040: 7061 643d 8053 5f3d f261 8fbe 02d2 213e
00000050: 9c69 96be 00fe 093c fc1f 68be cff3 93be
00000060: 3017 c33c 76c8 96bd 1865 713e 3021 fc3d
00000070: 60cb 86bc 846a 0a3e fe8f 83be c033 3cbd
00000080: f0bb ad3c b8a2 5abe b4e8 913e a2be 91be
00000090: c0df babc 44cb 65be c0c5 d9bc f6d0 413e
000000a0: d85c 4cbe 8bac 1abe 704c 333d 705e 19bd
000000b0: 48bd 3bbd 6b24 1dbe fea3 883e dcbd 283e
000000c0: 207d 973c 4c0c 8bbd 9062 11be 70b2 973d
000000d0: 3e0e e3bd 2a0d 99be c298 c2bd e074 de3d
000000e0: 60de d5bc 1ac2 3cbe ec2a 943e 87a3 29be
000000f0: 8805 3f3e 6a7a 873e 7cb8 563e 9342 1bbe
0.28330117 0.14914814 -0.15277804 0.1695348 0.21737558 -0.19294074 0.064139485 0.15298733
0.15794578 -0.17151628 0.041527748 -0.0276016 0.14483342 -0.015443116 0.047794133 0.14785054
0.055756986 0.05452299 -0.28004414 0.15802768 -0.2937745 0.008422375 -0.22668451 -0.2889695
0.023814768 -0.07362454 0.2357372 0.123110175 -0.016454399 0.13517195 -0.25695795 -0.04594779
0.02120778 -0.21351135 0.2849785 -0.28465754 -0.02281177 -0.22440821 -0.026583552 0.18927369
-0.19957292 -0.15104882 0.04377407 -0.03744358 -0.04583481 -0.15345924 0.26687616 0.16478676
0.018492281 -0.06789455 -0.14197755 0.07407081 -0.11086701 -0.29892856 -0.095017925 0.10862136
-0.026107013 -0.18433419 0.28938997 -0.16566287 0.18654454 0.26460582 0.20968813 -0.15162115

fc2.weight f4 [64, 64]
00000000: d0e2 f63d 0211 94bd cc38 ba3d c02f 1bbc
00000010: 50bb 40bc 8cde cdbd 60b4 083d e0e0 87bc
00000020: d837 dc3d a6e4 e7bd f421 38bd 2426 4d3d
00000030: 102a e7bd 2042 18bc a04c ec3c 7c19 0cbd
00000040: 60a6 dabd 98b6 8ebd 48fe 863d 582c ae3d
00000050: 78b2 203d a683 ffbd 5a73 f8bd 00c3 4dba
00000060: 5893 f3bd 2057 bf3c e08e 54bd e884 8e3d
00000070: e0ab 27bd b881 ddbd 587f fd3d 5c73 a5bd
00000080: fe1d df3d 6c97 013d 92aa e5bd e06f 51bc
00000090: 7089 0dbc 74b8 a6bd 5240 e63d cac7 b93d
000000a0: be35 da3d 04a6 d33d cc76 0d3d 9227 d43d
000000b0: 30ee 903c a8b4 73bd b06a c8bc dc36 5abd
000000c0: 20ec 41bc 626c c83d 5001 5c3d d8a2 d5bd
000000d0: 20e9 0a3d 6ee7 973d 7c9f f1bd f8b2 c8bc
000000e0: 9cb5 c9bd e061 683c 58da d53d 7a5d f5bd
000000f0: b085 72bc c8b9 30bd 5855 5cbd 2ec8 8c3d
00000100: a022 983b 2c47 a1bd 60ab e3bd 36cd 953d
00000110: fedd b63d 00d1 cb3c b48f 3a3d 7e2d 9dbd
00000120: 6070 f03d 7c69 f93d 84d8 9c3d 286e 5a3d
00000130: e0ed 0e3d 70c9 18bc 6ce4 5fbd 3890 e23d
00000140: 0698 e63d 70c7 ca3c 18f0 bf3d 5cc3 9d3d
00000150: 009b dbba 4849 8ebd 1631 f8bd 10dd a3bd
00000160: 3041 cdbc 60f9 42bc eacb e2bd 7433 f5bd
00000170: d832 0ebd 50fc 87bd 5233 adbd 3275 aa3d
00000180: 4a82 82bd 542f e43d e0d1 a53d 72ef cabd
00000190: 42fc a3bd eaa7 afbd 1a04 f13d 04d8 b33d
000001a0: 6ce5 29bd c003 bcbb f28d b2bd 5029 77bc
000001b0: d487 8bbd 5088 b6bd d60a f53d 98c1 cc3d
000001c0: 3825 c4bd 8cba f73d ac36 b03d 3856 133d
000001d0: 9ab0 e93d b812 abbc 00f3 7ebd 8a3a a63d
000001e0: e07e 01bd de58 c6bd 62e6 82bd 004f dcbb
000001f0: f8fe b1bd 5cff 25bd d887 cebd 1493 4fbd
00000200: 80ad ec3c e80a 7abd 108e 1ebd 60fb d7bd
00000210: 3823 1b3d d2fc ef3d c02c 62bc 3a5a e2bd
00000220: 58f2 78bd 429b d23d 681e 863d a0ce d7bd
00000230: 103d b43d 7c00 573d 4c62 c9bd 188b 4e3d
00000240: e4f6 863d f849 9dbd 3cb8 df3d 909f 36bc
00000250: f4d9 973d 28ff fcbd 8434 b73d 6050 453d
00000260: feba d1bd 2847 b4bd 06dd c63d a004 e43b
00000270: 5832 49bd 207b e0bc 1832 9d3d b0db 0bbc
00000280: 904b 253d 209a 673d c097 74bc c0c7 82bc
00000290: 62e5 9e3d 4c8e 7dbd 9034 743c 0a8b cbbd
000002a0: 00bf 9dba 3c2a 61bd ae57 e1bd 4084 edbd
000002b0: e854 c1bc 5ce2 41bd 8240 cc3d 001f 7ebb
000002c0: cc02 a53d 00f5 1eba b880 d9bd 2cd9 0e3d
000002d0: 147c efbd c8c7 bdbd 10d3 6b3d fcb7 6dbd
000002e0: 7027 05bd 30d8 c13d 1cdc f6bd c8bf e13d
000002f0: d8f6 013d 9098 febd 68d1 e3bc d28d da3d
00000300: 342e a03d 04f0 753d 88c3 b03c 08a5 6a3d
00000310: 3842 11bd 84fe c2bd c259 d2bd c882 a83d
00000320: 9428 20bd a074 9c3b e4f3 15bd 6cb2 363d
00000330: b8da 10bd f859 f9bc c8ef 853c 5626 dcbd
00000340: e609 d0bd 903f d13d 766a ea3d aa36 ecbd
00000350: e071 073d f0b4 d5bd 70f2 74bc 80de e0bd
00000360: e86e 713d 9c80 783d 9078 69bd 9062 ac3d
00000370: 78df d0bd a05a 1c3d 8060 053c 5282 81bd
00000380: 005d e8bd c62d f9bd 003c 1d3a 700d 003d
00000390: 12b9 c03d 8034 f1bb 90cd bc3c 1cb3 2ebd
000003a0: 867d f0bd 907f d63d ec14 ba3d a86b 383d
000003b0: 70f6 76bd b065 f5bc 008c b339 3486 633d
000003c0: 8cb9 05bd f4ef 8cbd 984c bbbd aaa9 e73d
000003d0: 2ef1 ee3d 7e3b ee3d 3cdc 383d 36ca 95bd
000003e0: 501d a13c 0899 96bc 705b 0ebd 6077 adbd
000003f0: 4c9c debd d477 0fbd 3ed5 cdbd 1450 12bd
0.1205498 -0.072298065 0.090928644 -0.009471834 -0.011763409 -0.10052213 0.033375144 -0.016586721
0.10752839 -0.11322908 -0.044954255 0.0500852 -0.1128732 -0.009293109 0.028845131 -0.03420399
-0.10676265 -0.06968421 0.06591469 0.08504552 0.0392327 -0.12476282 -0.121313766 -0.00078491867
-0.11893338 0.023356974 -0.05189407 0.069589436 -0.040935397 -0.108157575 0.123778045 -0.08078644
0.108943924 0.031638548 -0.11214174 -0.012783021 -0.008638725 -0.081406504 0.11242737 0.0907131
0.10654782 0.10334399 0.03453712 0.1035911 0.017691702 -0.05949846 -0.024464935 -0.053274974
-0.011836082 0.097862974 0.05371219 -0.104314506 0.03391373 0.074171886 -0.11797997 -0.024499401
-0.09849092 0.0141834915 0.104420364 -0.1198072 -0.014802381 -0.043145925 -0.053792328 0.06874119
0.0046427995 -0.07874903 -0.111166716 0.073145315 0.089290604 0.024879932 0.045547202 -0.076746926
0.11740184 0.12178323 0.076584846 0.05332771 0.034894824 -0.00932537 -0.0546612 0.11062664
0.11259465 0.024753302 0.09371966 0.077032775 -0.0016754568 -0.06947571 -0.121187374 -0.08001149
-0.025055498 -0.011900276 -0.1107405 -0.119727045 -0.034716457 -0.06639922 -0.08457054 0.083231345
-0.06372507 0.111418396 0.08096671 -0.09908952 -0.08007099 -0.08576949 0.117683604 0.08781436
-0.04147856 -0.0057377517 -0.0871848 -0.015085533 -0.068130165 -0.08912718 0.119649574 0.099978626
-0.095774114 0.12096128 0.08604178 0.035970896 0.11410637 -0.02088295 -0.06224346 0.08116634
-0.031615138 -0.09684919 -0.06391598 -0.0067232847 -0.086912096 -0.040526733 -0.10084504 -0.050677374
0.028891325 -0.061045557 -0.0387097 -0.10545993 0.037875384 0.117181435 -0.013804615 -0.110523656
-0.060777992 0.10283519 0.06548768 -0.105374575 0.08800709 0.052490696 -0.09833202 0.05042562
0.065900594 -0.07680124 0.10923812 -0.011146441 0.07414618 -0.12353355 0.089455634 0.048172355
-0.10240744 -0.088026345 0.097101256 0.006958559 -0.049120277 -0.02740246 0.0767557 -0.008536264
0.040355265 0.05654347 -0.014928758 -0.015964389 0.07758595 -0.061903283 0.01490511 -0.09938629
-0.0012035072 -0.05497192 -0.11003052 -0.1159749 -0.023600057 -0.047335014 0.099732414 -0.0038775802
0.08057174 -0.00060637295 -0.10620254 0.03487508 -0.11693588 -0.09266621 0.05757433 -0.05803679
-0.032508314 0.094650626 -0.12053701 0.110229075 0.03172955 -0.12431443 -0.027809814 0.10671581
0.078213125 0.06004335 0.021577612 0.057286292 -0.03546354 -0.09521201 -0.10271026 0.082280695
-0.0391012 0.004774645 -0.036609545 0.04460375 -0.035364836 -0.030438408 0.016349688 -0.107494995
-0.10158138 0.10217202 0.11446087 -0.11533864 0.033067584 -0.10434902 -0.01495038 -0.109799385
0.05894366 0.060669526 -0.056999743 0.08417237 -0.10198873 0.038172364 0.008140683 -0.06323685
-0.11345863 -0.12166934 0.00059980154 0.031262815 0.09410299 -0.007360995 0.023047239 -0.04265128
-0.11742692 0.10473549 0.09086022 0.045024544 -0.060293615 -0.029955715 0.0003424585 0.055547908
-0.032647654 -0.06881705 -0.091454685 0.11311658 0.11667095 0.11632441 0.045131907 -0.07313959
0.019667298 -0.018383518 -0.03475517 -0.084700346 -0.10869655 -0.035026386 -0.10050438 -0.0357209

fc2.bias f4 [64]
00000000: e08f 3cbd bcd0 653d c029 f0bd a00a 5cbc
00000010: d8fd d4bc 7ed2 f23d 7c5d eb3d c0aa 3bbc
00000020: c0ec a2bd 527f ddbd 4c25 c33d ece3 423d
00000030: 6ecf dabd 364f bcbd 28e6 e3bc 265a 9d3d
00000040: 303e cc3c 1403 7abd 7460 50bd e0bd 793d
00000050: a094 6cbc ae6e 88bd faf8 bcbd a0f9 b03c
00000060: 7823 613d 80ef 123d 2cfc 593d ac41 853d
00000070: e0c3 c5bb 78e7 b8bd 7cf3 7abd b803 da3d
00000080: 9887 8ebd 3e9f da3d 78fd 943d 8093 0fbd
00000090: 3a60 9ebd 966a f13d 987d 9f3d b899 c73d
000000a0: 907d 54bd ee75 a23d a048 db3c eea5 bc3d
000000b0: 3ebc b3bd c056 1a3c 9c8b 693d a225 e43d
000000c0: d4b8 b4bd 7034 89bd b461 42bd 0865 a3bc
000000d0: 00e4 e93c dc4e 70bd 4e14 8ebd 3c5e 88bd
000000e0: c008 31bc 007b ba3c 6879 ffbc e8f4 f33c
000000f0: 00cd 61bd 6afc c93d 007e 56ba 863e edbd
-0.046035647 0.056107268 -0.11726713 -0.013430268 -0.025999948 0.118565544 0.1149244 -0.011454284
-0.07955313 -0.108153 0.09528598 0.047580644 -0.10684095 -0.09194796 -0.027819708 0.0768321
0.024931997 -0.06103809 -0.050873235 0.060972095 -0.014439732 -0.066617355 -0.09227176 0.021603405
0.054965466 0.035872936 0.053219005 0.065066665 -0.006035313 -0.09028524 -0.06126736 0.106452405
-0.06959456 0.10674904 0.07274908 -0.035052776 -0.077331975 0.11787908 0.07787627 0.097461164
-0.05187756 0.079326496 0.026768029 0.09211336 -0.08776139 0.009420097 0.057017908 0.111399904
-0.08824316 -0.06699455 -0.04745646 -0.019945636 0.028551102 -0.058668956 -0.069374666 -0.06658599
-0.010805309 0.02276373 -0.03118582 0.029779866 -0.055127144 0.09862597 -0.00081822276 -0.11584191

fc3.weight f4 [1, 64]
00000000: c066 c5bd f836 35bd 0cc5 64bd 6c75 b63d
00000010: 1433 05bd 9c1f 623d 740f 0abd 8e5f 933d
00000020: d668 923d c0b0 d0bd 1ef0 943d 46b2 b43d
00000030: 70a7 a23d 00da 5ebd 606f 8abb 881d df3c
00000040: be6a cebd 48c9 88bc 46fe e9bd caba e33d
00000050: 0027 d93d 2041 753d d6f9 94bd 741e 0d3d
00000060: e83f a23d f84c 0e3d f6fb 82bd a20d a13d
00000070: 7847 e13d 22e0 82bd 3eba 9d3d 2e93 d43d
00000080: d89f c1bd a8d1 8ebc ee02 ac3d d00a d1bd
00000090: 3050 2dbd 94cf eabd b2c5 9bbd 4280 953d
000000a0: d2d8 a0bd 903e 283d ba9c 9b3d 085b babd
000000b0: 7c3c 903d 28e7 25bd d4db e7bd 8c93 1cbd
000000c0: bc19 e7bd b4c8 3e3d 1096 883d c884 11bd
000000d0: 787e c1bc e06f b63c 38a8 e03d d0be 54bc
000000e0: 78fb c2bc 6818 f7bc f083 b83c 28d8 293d
000000f0: 94f9 cdbd 4867 64bd 8a57 b93d f416 063d
-0.09638739 -0.044241875 -0.05585198 0.08909115 -0.032519415 0.055205926 -0.033706143 0.0719596
0.07148902 -0.101899624 0.07272361 0.088230655 0.079420924 -0.05440712 -0.0042247027 0.027235761
-0.10078953 -0.01669754 -0.11425452 0.111196116 0.10603142 0.05987656 -0.07274215 0.03445287
0.079223454 0.034741372 -0.06395714 0.078639284 0.1099996 -0.06390406 0.077015385 0.10379635
-0.09454316 -0.017433956 0.08398996 -0.102071404 -0.0423128 -0.11465374 -0.07606067 0.07299854
-0.07853855 0.04107529 0.075982526 -0.09099394 0.070427865 -0.04050365 -0.11321226 -0.03822665
-0.11284205 0.046578124 0.06669247 -0.03552702 -0.023619875 0.022270143 0.10969585 -0.012984946
-0.02380155 -0.030163005 0.02252385 0.04146591 -0.10057369 -0.05576256 0.090499 0.032736734
