data/models/rl_aca_20250316_145312.pt (torch, 23198 bytes, 5 tensors)

fc1.weight f4 [64, 11]
00000000: 28f5 e33d b096 eebc 8c57 853e 8f2b 31be
00000010: d89f 683d 984d 023d b47a 4d3e a8f9 3b3e
00000020: 1c90 5c3e 7cb8 5fbe 00c8 9439 e852 0a3e
00000030: 583f 0a3e f0b2 313e bcb9 363e f864 073e
00000040: 0e25 8cbe 1039 02bd 801b 723e e407 edbd
00000050: d085 783e 9686 a1bd 20f3 9e3d 6bf2 02be
00000060: 107b c2bd 1062 833c 4435 db3d 28cf 8fbd
00000070: cba8 2dbe 58f7 693d 20a7 d0bd a8d8 953e
00000080: b8be 42bd 10b5 fd3d ed96 13be 6882 eebd
00000090: e805 473d b275 153e d828 703e 8507 13be
000000a0: 50b0 07be 08c6 29be c8ce 5b3e ac42 3fbe
000000b0: ea64 813e cada 81be cae3 263e c0b4 fabc
000000c0: 7a35 493e ec65 973e f60f 90bd 3e9a a2bd
000000d0: ac3f 293e 0e99 52be b681 123e 1862 40bd
000000e0: 0870 7bbd 44e6 383e 7a13 83be d018 e2bd
000000f0: 38f7 073d 9c68 523e d2f6 87be b00c 1bbe
00000100: 9a1e 0d3e 8b35 96be 0037 22bc 30b6 313e
00000110: 14d2 1ebe 4cc2 b23d a8c9 4c3e 0498 fa3d
00000120: 5620 813e cce9 94bd 005e 85ba dcfb 773e
00000130: d909 2dbe 0cbf 483e 5814 7cbe 00cb e93b
00000140: 703d fabd 00bf 933a d889 97be 041e 25be
00000150: 3c9f d23d 14f1 793e a27d 03be cbd9 47be
00000160: c86c f33d 3c4b 9f3d ba5b 80bd 0005 50be
00000170: 73f0 98be e0aa f6bc 712f 3fbe 7a5e 263e
00000180: 9c8d 833e ec0a 3a3e 6e30 3f3e b29f 30be
00000190: 54ce 0ebe 58e6 91bd 898f 46be 8077 9abc
000001a0: 3439 c03d 3647 323e 5050 913e 4763 41be
000001b0: 141b 8fbd e4d2 cabd 94ee 51be 8a02 febd
000001c0: e010 6abc 5c63 ca3d c06e b4bb 6622 d7bd
000001d0: c055 cd3d ea01 2e3e db8f 34be 4886 f4bd
000001e0: ea79 863e a0a5 8bbe 111c 95be f8ef 56bd
000001f0: 3047 8f3c 709c fc3c 90a7 183d f0e8 ea3c
00000200: 8096 fd3b f827 3b3e 18f7 403e aeff 83be
00000210: 56d0 433e 7864 29bd 0aec 313e d4d3 b4bd
00000220: 8051 613c c024 53bc 3063 88bd e01f 27be
00000230: 1694 82be 1064 963c e819 d9bd f29b 92bd
00000240: 72e8 923e 961c acbd b896 38bd 39bb 0cbe
00000250: 54c9 8f3e f421 ac3d 0017 35bc 107c 5b3d
00000260: e07c f2bc 34c2 f2bd 203f 9c3c 0003 bfba
00000270: 42ee 6dbe dfb8 2bbe 9bc3 00be c280 903e
00000280: ba8d 123e a07a 4dbd 70aa 4b3e 0457 873d
00000290: 0047 983b 78ab 593d 9bed 8abe 23e2 32be
000002a0: 2a5b 94be 420b 983e e398 06be 0c11 8a3e
000002b0: 14f3 f9bd ccf3 20be 7a33 143e e07c 673e
000002c0: 0c76 423e f438 a53d 5cec 93be c812 6a3e
000002d0: 880f 71be 4adc 5fbe 70f7 353e d02a 68be
000002e0: 4efc 8cbd 8cf9 13be be60 cdbd 582c 863e
000002f0: 5c93 8e3e 987c 93be f86f 823d 4076 55bd
00000300: 80a1 ba3d 396b 0dbe e6e0 313e 0c6e 793e
00000310: 00c1 aa3b c07d 7c3d 54aa 763e 2bd7 6abe
00000320: 78e0 ff3d 802f e73d 72fd 83be 6872 3f3d
00000330: 4ca5 933d 57ea 01be ea59 6ebe 32d5 81bd
00000340: f0fa a3bd 801f 0ebc 985d 223e 2c9d b2bd
00000350: 44cb 21be 00fe 843b b011 56be 4556 60be
00000360: 3e82 e7bd 6475 843d 72a8 8cbd 75d7 13be
00000370: 68e4 5d3e 603b 3fbc f6de 19be 8c8b 8c3e
00000380: 2c4c 743e f21d 093e 0cef 733e 641b 543e
00000390: d1f2 20be 3e37 053e f44d e33d 4f05 4fbe
000003a0: 0010 b0b8 3818 993e c273 933e 7a52 f6bd
000003b0: dc58 463e a990 6abe 45cc 59be 96ce 8d3e
000003c0: 8b61 89be 970f 11be 5c22 45be 108e 683e
000003d0: fa22 f7bd 4c3a 7c3e 16be 083e 40e3 b53c
000003e0: 9081 b7bc 689a 013d 42a3 95be 8467 b5bd
000003f0: b095 db3d 52cb 423e 3578 8abe 90cd 90bc
0.11130744 -0.029124588 0.26043355 -0.17301773 0.056793064 0.03181228 0.20066339 0.18356955
0.21539348 -0.21847719 0.0002837777 0.13508189 0.13500726 0.17353415 0.1784429 0.1322211
-0.2737202 -0.0317927 0.23643303 -0.11573771 0.24269795 -0.07886998 0.07761216 -0.12787788
-0.094961286 0.01603797 0.10703519 -0.07021934 -0.1695892 0.05712065 -0.101881266 0.29266858
-0.047545165 0.123880506 -0.14413042 -0.11645967 0.048589617 0.14595678 0.2345308 -0.14358337
-0.13250852 -0.16579449 0.214656 -0.18677777 0.25272304 -0.25362235 0.16297832 -0.030603766
0.19649306 0.29569948 -0.07034294 -0.079395756 0.16528195 -0.20566198 0.14307293 -0.04696855
-0.06138614 0.1805659 -0.25600797 -0.11039889 0.03319475 0.20547718 -0.26555496 -0.15141559
0.13781205 -0.29337725 -0.009900808 0.17354655 -0.15509826 0.087284654 0.19998801 0.12236026
0.25219983 -0.07271156 -0.0010175109 0.2421717 -0.16898288 0.19604129 -0.24617136 0.007134795
-0.122187495 0.0011272132 -0.29597354 -0.16124731 0.10284278 0.2440837 -0.12840894 -0.19516675
0.11885983 0.07778022 -0.062674955 -0.20314407 -0.29870948 -0.030110776 -0.18670441 0.16246977
0.25693977 0.18168229 0.18670818 -0.17248419 -0.13945895 -0.07124013 -0.19390692 -0.01885581
0.09385911 0.17409977 0.28381586 -0.18885528 -0.069875866 -0.099035054 -0.20501167 -0.12402828
-0.01428625 0.098822325 -0.0055063665 -0.10504608 0.10026121 0.16992918 -0.17633002 -0.119396746
0.26264888 -0.272748 -0.29122975 -0.052474946 0.01749 0.030836314 0.037269175 0.028675526
0.0077388883 0.18276966 0.18844259 -0.25781006 0.19122443 -0.04135558 0.17375198 -0.088294655
0.013752341 -0.01288718 -0.066595435 -0.16320753 -0.25503606 0.01835826 -0.10600644 -0.071586505
0.28692967 -0.0840389 -0.04506561 -0.13743295 0.2808329 0.084049135 -0.011052847 0.053585112
-0.02960056 -0.118534476 0.01907307 -0.0014573038 -0.2323542 -0.16769741 -0.12574618 0.28223234
0.14311877 -0.050165772 0.19889235 0.06608394 0.0046471357 0.05314204 -0.27134404 -0.17469077
-0.28975803 0.2969609 -0.13144259 0.2696613 -0.122045666 -0.15718001 0.14472762 0.2260623
0.18990344 0.080675036 -0.28891265 0.22858727 -0.23541081 -0.21861377 0.17770171 -0.22672582
-0.06884061 -0.14450663 -0.10028218 0.26205707 0.278468 -0.28805995 0.063690126 -0.052114725
0.09112835 -0.13810433 0.17370948 0.24358386 0.0052109957 0.061643362 0.24088413 -0.22933643
0.12493986 0.11288357 -0.257793 0.046739966 0.07209262 -0.1268705 -0.23276487 -0.06339492
-0.08006847 -0.008674502 0.15856016 -0.087213844 -0.15800196 0.0040585995 -0.20905185 -0.21907909
-0.113041386 0.06467703 -0.06868066 -0.14437659 0.21669161 -0.011671871 -0.15026459 0.27450216
0.23857182 0.1339033 0.23821658 0.20713574 -0.15717627 0.13009354 0.11098853 -0.20216869
-8.395314e-05 0.2990129 0.28799254 -0.1202745 0.19369835 -0.22906746 -0.21269329 0.27696675
-0.26832232 -0.14166103 -0.19251388 0.22710443 -0.12067218 0.24631613 0.13353762 0.022203088
-0.022400647 0.031641394 -0.29226118 -0.08857635 0.1072191 0.19022873 -0.27044836 -0.017676145

fc1.bias f4 [64]
00000000: 34de ae3d 5af7 003e fae8 02be 28ca 473d
00000010: 3476 e9bd 3851 833e 5485 6e3e 60b5 9fbd
00000020: c4dd 8f3e 986f f53d b8b1 f93d 08b7 943d
00000030: 8f4d 96be 1e33 52be 5c77 533e 400c 2f3e
00000040: 2662 94be 5874 8d3d 9a44 f4bd 4032 01bd
00000050: e83e 8bbe 7ed4 8bbe 9cc7 943d 6a21 62be
00000060: 6629 96be 389e 0fbe bd9d 2bbe 9893 8ebe
00000070: ac49 ebbd 6e7b 8f3e 0663 d1bd 3c84 503e
00000080: e09f 7f3e a6bb 7abe 6017 2c3e a883 993d
00000090: 105b 8a3e 6003 4abd fe9a 46be a211 423e
000000a0: 284a 86bd 500b a93c c9c0 8bbe 5e95 4fbe
000000b0: aa0f 0c3e e0d7 5a3e 885d bb3d 95aa 32be
000000c0: e24d 90be a832 393e ea8f 843e 400e 87be
000000d0: fc4d 653e a6d4 943e 3806 b4bd 70d8 523d
000000e0: 4c31 743e e0a4 f4bc 501f 963e 9061 bfbd
000000f0: da28 8a3e 3263 3ebe 6029 8ebc c279 243e
0.08538476 0.12594357 -0.12784186 0.048776776 -0.113994986 0.25647902 0.23293048 -0.077982664
0.2809888 0.119841754 0.121921 0.07261473 -0.29356048 -0.20527312 0.20651 0.17094517
-0.2898113 0.069069564 -0.11927147 -0.031542063 -0.2719643 -0.27310556 0.07264635 -0.22083059
-0.2932846 -0.140252 -0.16759391 -0.2784698 -0.11488661 0.28023857 -0.10223965 0.20362943
0.24963331 -0.24485645 0.16805792 0.074958146 0.270226 -0.049319625 -0.19395062 0.18952039
-0.06557113 0.020635277 -0.2729552 -0.20271823 0.1367785 0.21371412 0.09148699 -0.17447884
-0.2818442 0.1808573 0.25891048 -0.2637806 0.2239303 0.29068488 -0.08790249 0.051475942
0.2384693 -0.029863775 0.29320765 -0.093447804 0.26984292 -0.18592528 -0.017353714 0.16062072

fc2.weight f4 [64, 64]
00000000: bc0e e4bd b042 c7bc 9002 89bd 30cf 0a3c
00000010: 4c2e d5bd a012 9bbd 5886 eebc 8034 cd3b
00000020: 34d5 84bd 2080 bebb d0a0 aebd 021e b73d
00000030: 9413 25bd 66cc 873d 60e8 32bd 22f5 85bd
00000040: 6c06 7fbd 3c7f 403d 68a9 6f3d d8ec 08bd
00000050: 64e2 91bd 2c91 f1bd 0a8f ff3d 7835 c9bd
00000060: 4496 01bd 2c25 ab3d ccdf 22bd 5017 1fbc
00000070: 9a57 fe3d 68ca bdbc c814 703d 0032 2a3a
00000080: e0f7 b4bb 80f5 08bd f851 0bbd 3060 febc
00000090: 00cf c9ba 70cd 4c3d 008b 933d 70eb 33bd
000000a0: f01d 5f3c 2cae a43d 3c19 93bd e06b 793c
000000b0: fe5d ef3d f80f 3b3d f857 ea3c 04fe aabd
000000c0: 408d 443c c404 30bd f8d2 453d 00a0 59bd
000000d0: eac2 aebd a449 0f3d 94cc 063d f4fb f6bd
000000e0: bebd af3d 784d b2bd 801e 28bb c0e6 ecbd
000000f0: 344b 8a3d 00d5 db3c 84b1 65bd 66e6 863d
00000100: 4ca1 4bbd ac73 68bd c080 28bc 6e7e c7bd
00000110: d415 56bd 88b4 c93c a231 a13d 24ac c8bd
00000120: e00d 54bd 327e cc3d cc0a 35bd 6009 7cbc
00000130: 7cb0 a03d 9c6b 4dbd ea4f b9bd ea2c e7bd
00000140: 805c dabb e00e d13c c490 063d 64cf 15bd
00000150: 1800 f3bd aced 073d f057 583d 1882 ea3c
00000160: e2e0 babd e0d8 99bc a082 9c3d 580c df3d
00000170: 60ed 62bd 70d6 123c 80b2 3e3c 6e1b f53d
00000180: f090 333d 3401 fabd fcb8 b83d f602 8b3d
00000190: d4f5 513d 489d 69bd e07e 833c 2c2f 60bd
000001a0: 58b8 7e3d 0c97 79bd 303b 433d cca3 143d
000001b0: 32fc df3d 06b4 ef3d 8c9b 9d3d 3e03 ef3d
000001c0: 2aee 84bd f4b7 2ebd 40ff 0fbc ac66 66bd
000001d0: a648 ac3d d0b3 843d 00f4 04bc 1653 e1bd
000001e0: fa82 bc3d a4db ed3d 5089 773c a049 253d
000001f0: 98d5 0b3d c845 cd3c 403c 5f3b d820 063d
00000200: 1874 28bd 20f1 f43b 7842 1cbd 306a fcbc
00000210: 3af0 82bd 80e7 843b 304d 15bd a004 90bc
00000220: ba16 cc3d 009c e0b9 006a c5bc 4812 d3bd
00000230: 4092 febc e20d a5bd e8f0 cf3d 9071 68bc
00000240: 884f 223d b87b fabd bc5c 31bd 5c83 2e3d
00000250: 8039 86bc 8041 b1bb ea87 abbd d087 a6bc
00000260: 40f0 ca3b 0e33 bc3d 7088 cebc 9a83 fbbd
00000270: aea2 cd3d 8ce8 57bd 90dd 94bc 3c14 8dbd
00000280: f0ac 9cbc a073 093c 64cf 6e3d 78e1 8f3d
00000290: 3a3a f7bd c419 f33d f87e 89bd 2e40 fcbd
000002a0: 3cca 74bd a2d7 fd3d cebb c4bd b017 2a3d
000002b0: c8ce b0bd 80b2 283d 94fd 10bd a001 583c
000002c0: b0cc 983c 40a3 8e3b f07d bd3d 1e58 833d
000002d0: f8b6 cbbc 2077 01bc 5892 7b3d bc47 683d
000002e0: d071 de3d 68cd 023d 686c 003d 32b5 993d
000002f0: 2a8c a0bd 02bc dfbd f2ec a23d 4045 6cbb
00000300: 9067 8cbd 00b3 563c d084 d13d 9e2c d3bd
00000310: 3ed1 c9bd 7609 bf3d 14fa 30bd 2cf8 393d
00000320: 184b 6e3d 0860 ce3c b808 9dbd 4844 b63d
00000330: 7c0e 743d ccdd 35bd 005a 2f3c ba9f e43d
00000340: 264c a73d d026 37bc 70e3 efbc e872 3b3d
00000350: e81c 8dbc b820 d63d 88e5 9b3d 20d8 363d
00000360: 904b 9abc 3041 983d fc31 b03d dac8 b63d
00000370: 907b 2cbd 2c4b e33d d679 8fbd 445e c9bd
00000380: 26e7 dc3d e074 d4bc c0df 3c3d 60ce 8cbb
00000390: f4d6 9f3d a4d6 a53d 68f9 c2bd 704f 94bd
000003a0: cc70 e2bd 5eb5 e33d 38ec 7e3d 6089 f6bb
000003b0: deff b4bd e02c 193d d25d b4bd 1ac7 d23d
000003c0: f0d7 973d 4a9a ed3d 063c b93d d04a 313c
000003d0: 4e54 be3d f01e 0a3c d04c b03d 90df 45bc
000003e0: 78e1 743d c0a2 f43d 8a1b 9d3d 4014 3bbc
000003f0: 3263 f73d 500b f43d d491 6f3d 1a91 83bd
-0.11135623 -0.024323791 -0.06689942 0.008472249 -0.10409221 -0.07571912 -0.029116794 0.006262362
-0.06485978 -0.0058136135 -0.08526766 0.089412704 -0.040301874 0.06630783 -0.04367864 -0.06540896
-0.062261984 0.04699634 0.058511168 -0.033428997 -0.07123259 -0.117952675 0.124784544 -0.098246515
-0.031637445 0.08356699 -0.03976421 -0.009710148 0.124190524 -0.023167804 0.05861357 0.0006492436
-0.005522713 -0.033437252 -0.03401372 -0.031051725 -0.0015396774 0.050000608 0.072042465 -0.043925703
0.0136179775 0.08041033 -0.071825475 0.015223473 0.116878495 0.045669526 0.0286064 -0.08349231
0.011996567 -0.042973295 0.0482969 -0.053131104 -0.08533271 0.03498234 0.032909945 -0.12059775
0.08581112 -0.08706182 -0.0025652945 -0.115674496 0.06752625 0.026834965 -0.056077495 0.06586914
-0.04971437 -0.05675094 -0.010284603 -0.097409114 -0.05226691 0.024622217 0.07870795 -0.09798458
-0.051771045 0.09985007 -0.04419975 -0.015383095 0.07846162 -0.050151452 -0.090484455 -0.112878636
-0.006663859 0.025519788 0.032852903 -0.036574736 -0.11865252 0.033185646 0.05281824 0.028626487
-0.09124924 -0.018780172 0.07642102 0.10891026 -0.05540216 0.008962259 0.011639237 0.119681224
0.043839395 -0.12207261 0.09019658 0.06787674 0.05125983 -0.05703476 0.01605171 -0.054732487
0.062187523 -0.060935065 0.047663867 0.03628902 0.10936774 0.117042586 0.07695684 0.1167054
-0.06490739 -0.0426559 -0.008788884 -0.05625026 0.08412294 0.06479609 -0.008114815 -0.110021755
0.09204669 0.11614159 0.015108421 0.040353417 0.034139246 0.025057688 0.0034063011 0.032746166
-0.04112634 0.0074750334 -0.038149327 -0.030812353 -0.06393476 0.0040559173 -0.036450565 -0.01758033
0.09965272 -0.00042840838 -0.024098396 -0.10306221 -0.031075597 -0.080592886 0.10153371 -0.014187232
0.03962663 -0.12230629 -0.04330133 0.042605743 -0.01638484 -0.0054094195 -0.08375533 -0.020328432
0.006193191 0.091894254 -0.025211543 -0.122809604 0.10040794 -0.05271201 -0.018172055 -0.06888625
-0.019125432 0.008389384 0.05830325 0.070254266 -0.12071653 0.11870149 -0.067136705 -0.12316929
-0.05976318 0.12394644 -0.096061334 0.041526496 -0.086331904 0.041185856 -0.03539808 0.013183981
0.01865229 0.004352957 0.09252536 0.064132914 -0.02486752 -0.007901937 0.06141886 0.056709036
0.10861552 0.031934172 0.031353384 0.075052634 -0.07839234 -0.109245315 0.0795535 -0.0036052018
-0.068556905 0.0131042 0.1023041 -0.103112444 -0.09854363 0.093279764 -0.043207243 0.04540269
0.058177084 0.025192276 -0.076676786 0.08899742 0.059584126 -0.044400975 0.01070261 0.11163278
0.08168821 -0.011178687 -0.029283255 0.04576388 -0.017225698 0.10455459 0.07612139 0.044639707
-0.01883486 0.074343085 0.08603284 0.08925028 -0.042110026 0.11098322 -0.0700566 -0.09832433
0.107862756 -0.025934637 0.046111822 -0.0042970628 0.07804671 0.0809758 -0.09520227 -0.07241714
-0.110566705 0.111185774 0.062236995 -0.0075237006 -0.08837865 0.03739631 -0.08806957 0.10291882
0.07414234 0.11601694 0.09044652 0.010821059 0.092934236 0.008430228 0.08608401 -0.012077227
0.059785336 0.119451046 0.07671268 -0.011418402 0.12079467 0.1191622 0.058488682 -0.0642416

fc2.bias f4 [64]
00000000: 18e4 413d 2882 4ebd c0ea c33b d09d f73c
00000010: 2c42 b1bd 707d 6bbd 108f 8abd 20aa 15bd
00000020: f0b1 7bbd 48b1 0b3d 4675 fa3d 80cf 0b3d
00000030: 20c4 a3bd 0003 34bd 606b ec3c ce96 a5bd
00000040: b013 ebbd 4012 cebc b4cb 70bd dc6c 20bd
00000050: c0bf e6bb a04c 4f3c 8e68 f3bd 5076 56bd
00000060: 2894 f23d 244f 12bd cc3a f93d 00e2 34ba
00000070: 5a82 a93d 7a62 f23d 009c 503a 2878 763d
00000080: 5cd2 123d 1659 d0bd 064b 9f3d 300d 8c3c
00000090: 2e9c bb3d 68ac b5bd 64ba 43bd 7e8e dc3d
000000a0: 40b8 d43c 1a33 be3d 2413 3f3d c0e0 c5bc
000000b0: 80dd e03d 7051 d9bd 5611 92bd 7813 c93c
000000c0: 6026 9ebd 7835 ed3d 00e0 473b a885 91bd
000000d0: fc0f b13d 34f0 073d 5664 933d 264f c9bd
000000e0: 5e9a f7bd 78c6 fa3d a0f3 e2bb 6017 39bd
000000f0: 60a5 e43c d48e b33d 5437 86bd 782e 05bd
0.047336668 -0.050417095 0.005978912 0.030226618 -0.086551994 -0.057492673 -0.06765568 -0.036539197
-0.06144899 0.034104615 0.122293994 0.034133434 -0.07996392 -0.043948174 0.028859794 -0.08085404
-0.114783645 -0.025155187 -0.058788016 -0.039166316 -0.0070419014 0.012652546 -0.118851766 -0.052358925
0.11844665 -0.035720006 0.12169418 -0.00069001317 0.08276816 0.11835189 0.0007957816 0.060173184
0.035845146 -0.10173242 0.077779815 0.017096132 0.09160648 -0.088707745 -0.047785178 0.10769366
0.025966763 0.092870906 0.046649113 -0.02415502 0.10979748 -0.10611236 -0.07132213 0.024545416
-0.07722163 0.11582464 0.0030498505 -0.07105571 0.08645627 0.03318806 0.07196872 -0.098295495
-0.1208999 0.12244886 -0.006926015 -0.045188308 0.027910888 0.08767477 -0.06553522 -0.03251502

fc3.weight f4 [1, 64]
00000000: 7e18 d7bd 52d8 9f3d 2690 fcbd 3875 93bc
00000010: b0f5 43bd 084b e4bd d05a e63c 60a7 4ebc
00000020: 105e 3b3d 8a15 ac3d 705a 0ebc 0464 c9bd
00000030: a800 acbc 406a 2fbd 8cb9 8b3d 6237 cd3d
00000040: ece4 d83d 7cbb 82bd 2032 e53c 0a24 f8bd
00000050: b69b e5bd 182a 92bc 4ea7 ea3d 0831 d63d
00000060: 04e5 db3d 3867 dd3d 24b1 adbd a041 6ebc
00000070: d284 fcbd 2af5 b43d 22a6 a83d 74e5 52bd
00000080: 000f 51ba c063 25bd 6882 8f3d bc5e 72bd
00000090: aecb afbd ace5 88bd 589b 353d a494 f13d
000000a0: 5802 b6bd a420 bd3d 08bd 4a3d 3078 bfbc
000000b0: aa29 b23d 3c74 a5bd 600d d03c 2870 f1bc
000000c0: acb5 393d 84a1 59bd 70a0 093d e4dd e4bd
000000d0: 3012 82bc 3c45 593d 00bd 813a 18cb b63c
000000e0: 4015 663b 7054 e73c 0092 e33b 5057 9bbd
000000f0: 88b6 d93c e827 ebbc fa13 9abd 700c eebc
-0.105027184 0.07804932 -0.12332182 -0.01800023 -0.047841728 -0.111471236 0.028119475 -0.0126131475
0.045744002 0.08402546 -0.008688554 -0.098335296 -0.020996407 -0.042825937 0.068225 0.10020329
0.105905384 -0.06383416 0.027978003 -0.12116249 -0.1121134 -0.017842337 0.11457692 0.10458571
0.10737041 0.10810703 -0.084810525 -0.014542013 -0.12330021 0.08835824 0.08234812 -0.051488355
-0.00079749525 -0.040378332 0.07007295 -0.059172377 -0.08583771 -0.066844314 0.0443376 0.11795929
-0.08887166 0.09234741 0.04949668 -0.02337274 0.08699353 -0.080788106 0.025397003 -0.029472426
0.04533927 -0.05313255 0.03360027 -0.11175135 -0.015877813 0.053044543 0.0009898245 0.02231364
0.003510788 0.028238505 0.006944895 -0.07585013 0.026576295 -0.028705552 -0.075233415 -0.029058665
